{"format": "graph-model", "generatedBy": "2.6.0", "convertedBy": "TensorFlow.js Converter v3.9.0", "signature": {"inputs": {"input_1": {"name": "input_1:0", "dtype": "DT_FLOAT", "tensorShape": {"dim": [{"size": "-1"}, {"size": "224"}, {"size": "224"}, {"size": "3"}]}}}, "outputs": {"dense": {"name": "Identity:0", "dtype": "DT_FLOAT", "tensorShape": {"dim": [{"size": "-1"}, {"size": "8"}]}}}}, "modelTopology": {"node": [{"name": "StatefulPartitionedCall/model/tf.math.multiply_27/Mul/y", "op": "Const", "attr": {"value": {"tensor": {"dtype": "DT_FLOAT", "tensorShape": {}}}, "dtype": {"type": "DT_FLOAT"}}}, {"name": "StatefulPartitionedCall/model/tf.__operators__.add_27/y", "op": "Const", "attr": {"value": {"tensor": {"dtype": "DT_FLOAT", "tensorShape": {}}}, "dtype": {"type": "DT_FLOAT"}}}, {"name": "StatefulPartitionedCall/model/tf.math.multiply_26/Mul/y", "op": "Const", "attr": {"dtype": {"type": "DT_FLOAT"}, "value": {"tensor": {"dtype": "DT_FLOAT", "tensorShape": {}}}}}, {"name": "StatefulPartitionedCall/model/tf.__operators__.add_26/y", "op": "Const", "attr": {"dtype": {"type": "DT_FLOAT"}, "value": {"tensor": {"dtype": "DT_FLOAT", "tensorShape": {}}}}}, {"name": "StatefulPartitionedCall/model/tf.math.multiply_25/Mul/y", "op": "Const", "attr": {"dtype": {"type": "DT_FLOAT"}, "value": {"tensor": {"dtype": "DT_FLOAT", "tensorShape": {}}}}}, {"name": "StatefulPartitionedCall/model/expanded_conv_10/squeeze_excite/AvgPool/Mean/reduction_indices", "op": "Const", "attr": {"value": {"tensor": {"dtype": "DT_INT32", "tensorShape": {"dim": [{"size": "2"}]}}}, "dtype": {"type": "DT_INT32"}}}, {"name": "StatefulPartitionedCall/model/reshape_8/strided_slice/stack", "op": "Const", "attr": {"value": {"tensor": {"dtype": "DT_INT32", "tensorShape": {"dim": [{"size": "1"}]}}}, "dtype": {"type": "DT_INT32"}}}, {"name": "StatefulPartitionedCall/model/reshape_8/strided_slice/stack_1", "op": "Const", "attr": {"dtype": {"type": "DT_INT32"}, "value": {"tensor": {"dtype": "DT_INT32", "tensorShape": {"dim": [{"size": "1"}]}}}}}, {"name": "StatefulPartitionedCall/model/reshape_8/strided_slice/stack_2", "op": "Const", "attr": {"dtype": {"type": "DT_INT32"}, "value": {"tensor": {"dtype": "DT_INT32", "tensorShape": {"dim": [{"size": "1"}]}}}}}, {"name": "StatefulPartitionedCall/model/reshape_8/Reshape/shape/1", "op": "Const", "attr": {"value": {"tensor": {"dtype": "DT_INT32", "tensorShape": {}}}, "dtype": {"type": "DT_INT32"}}}, {"name": "StatefulPartitionedCall/model/reshape_8/Reshape/shape/2", "op": "Const", "attr": {"dtype": {"type": "DT_INT32"}, "value": {"tensor": {"dtype": "DT_INT32", "tensorShape": {}}}}}, {"name": "StatefulPartitionedCall/model/reshape_8/Reshape/shape/3", "op": "Const", "attr": {"dtype": {"type": "DT_INT32"}, "value": {"tensor": {"dtype": "DT_INT32", "tensorShape": {}}}}}, {"name": "StatefulPartitionedCall/model/expanded_conv_10/squeeze_excite/Conv/Conv2D/ReadVariableOp", "op": "Const", "attr": {"value": {"tensor": {"dtype": "DT_FLOAT", "tensorShape": {"dim": [{"size": "1"}, {"size": "1"}, {"size": "576"}, {"size": "144"}]}}}, "dtype": {"type": "DT_FLOAT"}}}, {"name": "StatefulPartitionedCall/model/expanded_conv_10/squeeze_excite/Conv/BiasAdd/ReadVariableOp", "op": "Const", "attr": {"dtype": {"type": "DT_FLOAT"}, "value": {"tensor": {"dtype": "DT_FLOAT", "tensorShape": {"dim": [{"size": "144"}]}}}}}, {"name": "StatefulPartitionedCall/model/expanded_conv_10/squeeze_excite/Conv_1/Conv2D/ReadVariableOp", "op": "Const", "attr": {"dtype": {"type": "DT_FLOAT"}, "value": {"tensor": {"dtype": "DT_FLOAT", "tensorShape": {"dim": [{"size": "1"}, {"size": "1"}, {"size": "144"}, {"size": "576"}]}}}}}, {"name": "StatefulPartitionedCall/model/expanded_conv_10/squeeze_excite/Conv_1/BiasAdd/ReadVariableOp", "op": "Const", "attr": {"value": {"tensor": {"dtype": "DT_FLOAT", "tensorShape": {"dim": [{"size": "576"}]}}}, "dtype": {"type": "DT_FLOAT"}}}, {"name": "StatefulPartitionedCall/model/tf.__operators__.add_25/y", "op": "Const", "attr": {"dtype": {"type": "DT_FLOAT"}, "value": {"tensor": {"dtype": "DT_FLOAT", "tensorShape": {}}}}}, {"name": "StatefulPartitionedCall/model/tf.math.multiply_24/Mul/y", "op": "Const", "attr": {"dtype": {"type": "DT_FLOAT"}, "value": {"tensor": {"dtype": "DT_FLOAT", "tensorShape": {}}}}}, {"name": "StatefulPartitionedCall/model/tf.__operators__.add_24/y", "op": "Const", "attr": {"value": {"tensor": {"dtype": "DT_FLOAT", "tensorShape": {}}}, "dtype": {"type": "DT_FLOAT"}}}, {"name": "StatefulPartitionedCall/model/tf.math.multiply_23/Mul/y", "op": "Const", "attr": {"value": {"tensor": {"dtype": "DT_FLOAT", "tensorShape": {}}}, "dtype": {"type": "DT_FLOAT"}}}, {"name": "StatefulPartitionedCall/model/tf.__operators__.add_23/y", "op": "Const", "attr": {"value": {"tensor": {"dtype": "DT_FLOAT", "tensorShape": {}}}, "dtype": {"type": "DT_FLOAT"}}}, {"name": "StatefulPartitionedCall/model/tf.math.multiply_22/Mul/y", "op": "Const", "attr": {"value": {"tensor": {"dtype": "DT_FLOAT", "tensorShape": {}}}, "dtype": {"type": "DT_FLOAT"}}}, {"name": "StatefulPartitionedCall/model/expanded_conv_9/squeeze_excite/AvgPool/Mean/reduction_indices", "op": "Const", "attr": {"value": {"tensor": {"dtype": "DT_INT32", "tensorShape": {"dim": [{"size": "2"}]}}}, "dtype": {"type": "DT_INT32"}}}, {"name": "StatefulPartitionedCall/model/reshape_7/strided_slice/stack", "op": "Const", "attr": {"dtype": {"type": "DT_INT32"}, "value": {"tensor": {"dtype": "DT_INT32", "tensorShape": {"dim": [{"size": "1"}]}}}}}, {"name": "StatefulPartitionedCall/model/reshape_7/strided_slice/stack_1", "op": "Const", "attr": {"value": {"tensor": {"dtype": "DT_INT32", "tensorShape": {"dim": [{"size": "1"}]}}}, "dtype": {"type": "DT_INT32"}}}, {"name": "StatefulPartitionedCall/model/reshape_7/strided_slice/stack_2", "op": "Const", "attr": {"value": {"tensor": {"dtype": "DT_INT32", "tensorShape": {"dim": [{"size": "1"}]}}}, "dtype": {"type": "DT_INT32"}}}, {"name": "StatefulPartitionedCall/model/reshape_7/Reshape/shape/1", "op": "Const", "attr": {"value": {"tensor": {"dtype": "DT_INT32", "tensorShape": {}}}, "dtype": {"type": "DT_INT32"}}}, {"name": "StatefulPartitionedCall/model/reshape_7/Reshape/shape/2", "op": "Const", "attr": {"dtype": {"type": "DT_INT32"}, "value": {"tensor": {"dtype": "DT_INT32", "tensorShape": {}}}}}, {"name": "StatefulPartitionedCall/model/reshape_7/Reshape/shape/3", "op": "Const", "attr": {"dtype": {"type": "DT_INT32"}, "value": {"tensor": {"dtype": "DT_INT32", "tensorShape": {}}}}}, {"name": "StatefulPartitionedCall/model/expanded_conv_9/squeeze_excite/Conv/Conv2D/ReadVariableOp", "op": "Const", "attr": {"value": {"tensor": {"dtype": "DT_FLOAT", "tensorShape": {"dim": [{"size": "1"}, {"size": "1"}, {"size": "576"}, {"size": "144"}]}}}, "dtype": {"type": "DT_FLOAT"}}}, {"name": "StatefulPartitionedCall/model/expanded_conv_9/squeeze_excite/Conv/BiasAdd/ReadVariableOp", "op": "Const", "attr": {"value": {"tensor": {"dtype": "DT_FLOAT", "tensorShape": {"dim": [{"size": "144"}]}}}, "dtype": {"type": "DT_FLOAT"}}}, {"name": "StatefulPartitionedCall/model/expanded_conv_9/squeeze_excite/Conv_1/Conv2D/ReadVariableOp", "op": "Const", "attr": {"dtype": {"type": "DT_FLOAT"}, "value": {"tensor": {"dtype": "DT_FLOAT", "tensorShape": {"dim": [{"size": "1"}, {"size": "1"}, {"size": "144"}, {"size": "576"}]}}}}}, {"name": "StatefulPartitionedCall/model/expanded_conv_9/squeeze_excite/Conv_1/BiasAdd/ReadVariableOp", "op": "Const", "attr": {"dtype": {"type": "DT_FLOAT"}, "value": {"tensor": {"dtype": "DT_FLOAT", "tensorShape": {"dim": [{"size": "576"}]}}}}}, {"name": "StatefulPartitionedCall/model/tf.__operators__.add_22/y", "op": "Const", "attr": {"dtype": {"type": "DT_FLOAT"}, "value": {"tensor": {"dtype": "DT_FLOAT", "tensorShape": {}}}}}, {"name": "StatefulPartitionedCall/model/tf.math.multiply_21/Mul/y", "op": "Const", "attr": {"dtype": {"type": "DT_FLOAT"}, "value": {"tensor": {"dtype": "DT_FLOAT", "tensorShape": {}}}}}, {"name": "StatefulPartitionedCall/model/tf.__operators__.add_21/y", "op": "Const", "attr": {"dtype": {"type": "DT_FLOAT"}, "value": {"tensor": {"dtype": "DT_FLOAT", "tensorShape": {}}}}}, {"name": "StatefulPartitionedCall/model/tf.math.multiply_20/Mul/y", "op": "Const", "attr": {"value": {"tensor": {"dtype": "DT_FLOAT", "tensorShape": {}}}, "dtype": {"type": "DT_FLOAT"}}}, {"name": "StatefulPartitionedCall/model/tf.__operators__.add_20/y", "op": "Const", "attr": {"dtype": {"type": "DT_FLOAT"}, "value": {"tensor": {"dtype": "DT_FLOAT", "tensorShape": {}}}}}, {"name": "StatefulPartitionedCall/model/tf.math.multiply_19/Mul/y", "op": "Const", "attr": {"dtype": {"type": "DT_FLOAT"}, "value": {"tensor": {"dtype": "DT_FLOAT", "tensorShape": {}}}}}, {"name": "StatefulPartitionedCall/model/expanded_conv_8/squeeze_excite/AvgPool/Mean/reduction_indices", "op": "Const", "attr": {"dtype": {"type": "DT_INT32"}, "value": {"tensor": {"dtype": "DT_INT32", "tensorShape": {"dim": [{"size": "2"}]}}}}}, {"name": "StatefulPartitionedCall/model/reshape_6/strided_slice/stack", "op": "Const", "attr": {"value": {"tensor": {"dtype": "DT_INT32", "tensorShape": {"dim": [{"size": "1"}]}}}, "dtype": {"type": "DT_INT32"}}}, {"name": "StatefulPartitionedCall/model/reshape_6/strided_slice/stack_1", "op": "Const", "attr": {"value": {"tensor": {"dtype": "DT_INT32", "tensorShape": {"dim": [{"size": "1"}]}}}, "dtype": {"type": "DT_INT32"}}}, {"name": "StatefulPartitionedCall/model/reshape_6/strided_slice/stack_2", "op": "Const", "attr": {"dtype": {"type": "DT_INT32"}, "value": {"tensor": {"dtype": "DT_INT32", "tensorShape": {"dim": [{"size": "1"}]}}}}}, {"name": "StatefulPartitionedCall/model/reshape_6/Reshape/shape/1", "op": "Const", "attr": {"value": {"tensor": {"dtype": "DT_INT32", "tensorShape": {}}}, "dtype": {"type": "DT_INT32"}}}, {"name": "StatefulPartitionedCall/model/reshape_6/Reshape/shape/2", "op": "Const", "attr": {"dtype": {"type": "DT_INT32"}, "value": {"tensor": {"dtype": "DT_INT32", "tensorShape": {}}}}}, {"name": "StatefulPartitionedCall/model/reshape_6/Reshape/shape/3", "op": "Const", "attr": {"value": {"tensor": {"dtype": "DT_INT32", "tensorShape": {}}}, "dtype": {"type": "DT_INT32"}}}, {"name": "StatefulPartitionedCall/model/expanded_conv_8/squeeze_excite/Conv/Conv2D/ReadVariableOp", "op": "Const", "attr": {"value": {"tensor": {"dtype": "DT_FLOAT", "tensorShape": {"dim": [{"size": "1"}, {"size": "1"}, {"size": "288"}, {"size": "72"}]}}}, "dtype": {"type": "DT_FLOAT"}}}, {"name": "StatefulPartitionedCall/model/expanded_conv_8/squeeze_excite/Conv/BiasAdd/ReadVariableOp", "op": "Const", "attr": {"dtype": {"type": "DT_FLOAT"}, "value": {"tensor": {"dtype": "DT_FLOAT", "tensorShape": {"dim": [{"size": "72"}]}}}}}, {"name": "StatefulPartitionedCall/model/expanded_conv_8/squeeze_excite/Conv_1/Conv2D/ReadVariableOp", "op": "Const", "attr": {"dtype": {"type": "DT_FLOAT"}, "value": {"tensor": {"dtype": "DT_FLOAT", "tensorShape": {"dim": [{"size": "1"}, {"size": "1"}, {"size": "72"}, {"size": "288"}]}}}}}, {"name": "StatefulPartitionedCall/model/expanded_conv_8/squeeze_excite/Conv_1/BiasAdd/ReadVariableOp", "op": "Const", "attr": {"value": {"tensor": {"dtype": "DT_FLOAT", "tensorShape": {"dim": [{"size": "288"}]}}}, "dtype": {"type": "DT_FLOAT"}}}, {"name": "StatefulPartitionedCall/model/tf.__operators__.add_19/y", "op": "Const", "attr": {"value": {"tensor": {"dtype": "DT_FLOAT", "tensorShape": {}}}, "dtype": {"type": "DT_FLOAT"}}}, {"name": "StatefulPartitionedCall/model/tf.math.multiply_18/Mul/y", "op": "Const", "attr": {"value": {"tensor": {"dtype": "DT_FLOAT", "tensorShape": {}}}, "dtype": {"type": "DT_FLOAT"}}}, {"name": "StatefulPartitionedCall/model/tf.__operators__.add_18/y", "op": "Const", "attr": {"value": {"tensor": {"dtype": "DT_FLOAT", "tensorShape": {}}}, "dtype": {"type": "DT_FLOAT"}}}, {"name": "StatefulPartitionedCall/model/tf.math.multiply_17/Mul/y", "op": "Const", "attr": {"value": {"tensor": {"dtype": "DT_FLOAT", "tensorShape": {}}}, "dtype": {"type": "DT_FLOAT"}}}, {"name": "StatefulPartitionedCall/model/tf.__operators__.add_17/y", "op": "Const", "attr": {"dtype": {"type": "DT_FLOAT"}, "value": {"tensor": {"dtype": "DT_FLOAT", "tensorShape": {}}}}}, {"name": "StatefulPartitionedCall/model/tf.math.multiply_16/Mul/y", "op": "Const", "attr": {"dtype": {"type": "DT_FLOAT"}, "value": {"tensor": {"dtype": "DT_FLOAT", "tensorShape": {}}}}}, {"name": "StatefulPartitionedCall/model/expanded_conv_7/squeeze_excite/AvgPool/Mean/reduction_indices", "op": "Const", "attr": {"dtype": {"type": "DT_INT32"}, "value": {"tensor": {"dtype": "DT_INT32", "tensorShape": {"dim": [{"size": "2"}]}}}}}, {"name": "StatefulPartitionedCall/model/reshape_5/strided_slice/stack", "op": "Const", "attr": {"dtype": {"type": "DT_INT32"}, "value": {"tensor": {"dtype": "DT_INT32", "tensorShape": {"dim": [{"size": "1"}]}}}}}, {"name": "StatefulPartitionedCall/model/reshape_5/strided_slice/stack_1", "op": "Const", "attr": {"dtype": {"type": "DT_INT32"}, "value": {"tensor": {"dtype": "DT_INT32", "tensorShape": {"dim": [{"size": "1"}]}}}}}, {"name": "StatefulPartitionedCall/model/reshape_5/strided_slice/stack_2", "op": "Const", "attr": {"value": {"tensor": {"dtype": "DT_INT32", "tensorShape": {"dim": [{"size": "1"}]}}}, "dtype": {"type": "DT_INT32"}}}, {"name": "StatefulPartitionedCall/model/reshape_5/Reshape/shape/1", "op": "Const", "attr": {"value": {"tensor": {"dtype": "DT_INT32", "tensorShape": {}}}, "dtype": {"type": "DT_INT32"}}}, {"name": "StatefulPartitionedCall/model/reshape_5/Reshape/shape/2", "op": "Const", "attr": {"value": {"tensor": {"dtype": "DT_INT32", "tensorShape": {}}}, "dtype": {"type": "DT_INT32"}}}, {"name": "StatefulPartitionedCall/model/reshape_5/Reshape/shape/3", "op": "Const", "attr": {"dtype": {"type": "DT_INT32"}, "value": {"tensor": {"dtype": "DT_INT32", "tensorShape": {}}}}}, {"name": "StatefulPartitionedCall/model/expanded_conv_7/squeeze_excite/Conv/Conv2D/ReadVariableOp", "op": "Const", "attr": {"dtype": {"type": "DT_FLOAT"}, "value": {"tensor": {"dtype": "DT_FLOAT", "tensorShape": {"dim": [{"size": "1"}, {"size": "1"}, {"size": "144"}, {"size": "40"}]}}}}}, {"name": "StatefulPartitionedCall/model/expanded_conv_7/squeeze_excite/Conv/BiasAdd/ReadVariableOp", "op": "Const", "attr": {"dtype": {"type": "DT_FLOAT"}, "value": {"tensor": {"dtype": "DT_FLOAT", "tensorShape": {"dim": [{"size": "40"}]}}}}}, {"name": "StatefulPartitionedCall/model/expanded_conv_7/squeeze_excite/Conv_1/Conv2D/ReadVariableOp", "op": "Const", "attr": {"dtype": {"type": "DT_FLOAT"}, "value": {"tensor": {"dtype": "DT_FLOAT", "tensorShape": {"dim": [{"size": "1"}, {"size": "1"}, {"size": "40"}, {"size": "144"}]}}}}}, {"name": "StatefulPartitionedCall/model/expanded_conv_7/squeeze_excite/Conv_1/BiasAdd/ReadVariableOp", "op": "Const", "attr": {"dtype": {"type": "DT_FLOAT"}, "value": {"tensor": {"dtype": "DT_FLOAT", "tensorShape": {"dim": [{"size": "144"}]}}}}}, {"name": "StatefulPartitionedCall/model/tf.__operators__.add_16/y", "op": "Const", "attr": {"dtype": {"type": "DT_FLOAT"}, "value": {"tensor": {"dtype": "DT_FLOAT", "tensorShape": {}}}}}, {"name": "StatefulPartitionedCall/model/tf.math.multiply_15/Mul/y", "op": "Const", "attr": {"dtype": {"type": "DT_FLOAT"}, "value": {"tensor": {"dtype": "DT_FLOAT", "tensorShape": {}}}}}, {"name": "StatefulPartitionedCall/model/tf.__operators__.add_15/y", "op": "Const", "attr": {"dtype": {"type": "DT_FLOAT"}, "value": {"tensor": {"dtype": "DT_FLOAT", "tensorShape": {}}}}}, {"name": "StatefulPartitionedCall/model/tf.math.multiply_14/Mul/y", "op": "Const", "attr": {"dtype": {"type": "DT_FLOAT"}, "value": {"tensor": {"dtype": "DT_FLOAT", "tensorShape": {}}}}}, {"name": "StatefulPartitionedCall/model/tf.__operators__.add_14/y", "op": "Const", "attr": {"value": {"tensor": {"dtype": "DT_FLOAT", "tensorShape": {}}}, "dtype": {"type": "DT_FLOAT"}}}, {"name": "StatefulPartitionedCall/model/tf.math.multiply_13/Mul/y", "op": "Const", "attr": {"dtype": {"type": "DT_FLOAT"}, "value": {"tensor": {"dtype": "DT_FLOAT", "tensorShape": {}}}}}, {"name": "StatefulPartitionedCall/model/expanded_conv_6/squeeze_excite/AvgPool/Mean/reduction_indices", "op": "Const", "attr": {"dtype": {"type": "DT_INT32"}, "value": {"tensor": {"dtype": "DT_INT32", "tensorShape": {"dim": [{"size": "2"}]}}}}}, {"name": "StatefulPartitionedCall/model/reshape_4/strided_slice/stack", "op": "Const", "attr": {"value": {"tensor": {"dtype": "DT_INT32", "tensorShape": {"dim": [{"size": "1"}]}}}, "dtype": {"type": "DT_INT32"}}}, {"name": "StatefulPartitionedCall/model/reshape_4/strided_slice/stack_1", "op": "Const", "attr": {"value": {"tensor": {"dtype": "DT_INT32", "tensorShape": {"dim": [{"size": "1"}]}}}, "dtype": {"type": "DT_INT32"}}}, {"name": "StatefulPartitionedCall/model/reshape_4/strided_slice/stack_2", "op": "Const", "attr": {"value": {"tensor": {"dtype": "DT_INT32", "tensorShape": {"dim": [{"size": "1"}]}}}, "dtype": {"type": "DT_INT32"}}}, {"name": "StatefulPartitionedCall/model/reshape_4/Reshape/shape/1", "op": "Const", "attr": {"dtype": {"type": "DT_INT32"}, "value": {"tensor": {"dtype": "DT_INT32", "tensorShape": {}}}}}, {"name": "StatefulPartitionedCall/model/reshape_4/Reshape/shape/2", "op": "Const", "attr": {"dtype": {"type": "DT_INT32"}, "value": {"tensor": {"dtype": "DT_INT32", "tensorShape": {}}}}}, {"name": "StatefulPartitionedCall/model/reshape_4/Reshape/shape/3", "op": "Const", "attr": {"value": {"tensor": {"dtype": "DT_INT32", "tensorShape": {}}}, "dtype": {"type": "DT_INT32"}}}, {"name": "StatefulPartitionedCall/model/expanded_conv_6/squeeze_excite/Conv/Conv2D/ReadVariableOp", "op": "Const", "attr": {"value": {"tensor": {"dtype": "DT_FLOAT", "tensorShape": {"dim": [{"size": "1"}, {"size": "1"}, {"size": "120"}, {"size": "32"}]}}}, "dtype": {"type": "DT_FLOAT"}}}, {"name": "StatefulPartitionedCall/model/expanded_conv_6/squeeze_excite/Conv/BiasAdd/ReadVariableOp", "op": "Const", "attr": {"dtype": {"type": "DT_FLOAT"}, "value": {"tensor": {"dtype": "DT_FLOAT", "tensorShape": {"dim": [{"size": "32"}]}}}}}, {"name": "StatefulPartitionedCall/model/expanded_conv_6/squeeze_excite/Conv_1/Conv2D/ReadVariableOp", "op": "Const", "attr": {"value": {"tensor": {"dtype": "DT_FLOAT", "tensorShape": {"dim": [{"size": "1"}, {"size": "1"}, {"size": "32"}, {"size": "120"}]}}}, "dtype": {"type": "DT_FLOAT"}}}, {"name": "StatefulPartitionedCall/model/expanded_conv_6/squeeze_excite/Conv_1/BiasAdd/ReadVariableOp", "op": "Const", "attr": {"dtype": {"type": "DT_FLOAT"}, "value": {"tensor": {"dtype": "DT_FLOAT", "tensorShape": {"dim": [{"size": "120"}]}}}}}, {"name": "StatefulPartitionedCall/model/tf.__operators__.add_13/y", "op": "Const", "attr": {"value": {"tensor": {"dtype": "DT_FLOAT", "tensorShape": {}}}, "dtype": {"type": "DT_FLOAT"}}}, {"name": "StatefulPartitionedCall/model/tf.math.multiply_12/Mul/y", "op": "Const", "attr": {"dtype": {"type": "DT_FLOAT"}, "value": {"tensor": {"dtype": "DT_FLOAT", "tensorShape": {}}}}}, {"name": "StatefulPartitionedCall/model/tf.__operators__.add_12/y", "op": "Const", "attr": {"dtype": {"type": "DT_FLOAT"}, "value": {"tensor": {"dtype": "DT_FLOAT", "tensorShape": {}}}}}, {"name": "StatefulPartitionedCall/model/tf.math.multiply_11/Mul/y", "op": "Const", "attr": {"value": {"tensor": {"dtype": "DT_FLOAT", "tensorShape": {}}}, "dtype": {"type": "DT_FLOAT"}}}, {"name": "StatefulPartitionedCall/model/tf.__operators__.add_11/y", "op": "Const", "attr": {"value": {"tensor": {"dtype": "DT_FLOAT", "tensorShape": {}}}, "dtype": {"type": "DT_FLOAT"}}}, {"name": "StatefulPartitionedCall/model/tf.math.multiply_10/Mul/y", "op": "Const", "attr": {"dtype": {"type": "DT_FLOAT"}, "value": {"tensor": {"dtype": "DT_FLOAT", "tensorShape": {}}}}}, {"name": "StatefulPartitionedCall/model/expanded_conv_5/squeeze_excite/AvgPool/Mean/reduction_indices", "op": "Const", "attr": {"dtype": {"type": "DT_INT32"}, "value": {"tensor": {"dtype": "DT_INT32", "tensorShape": {"dim": [{"size": "2"}]}}}}}, {"name": "StatefulPartitionedCall/model/reshape_3/strided_slice/stack", "op": "Const", "attr": {"dtype": {"type": "DT_INT32"}, "value": {"tensor": {"dtype": "DT_INT32", "tensorShape": {"dim": [{"size": "1"}]}}}}}, {"name": "StatefulPartitionedCall/model/reshape_3/strided_slice/stack_1", "op": "Const", "attr": {"value": {"tensor": {"dtype": "DT_INT32", "tensorShape": {"dim": [{"size": "1"}]}}}, "dtype": {"type": "DT_INT32"}}}, {"name": "StatefulPartitionedCall/model/reshape_3/strided_slice/stack_2", "op": "Const", "attr": {"value": {"tensor": {"dtype": "DT_INT32", "tensorShape": {"dim": [{"size": "1"}]}}}, "dtype": {"type": "DT_INT32"}}}, {"name": "StatefulPartitionedCall/model/reshape_3/Reshape/shape/1", "op": "Const", "attr": {"value": {"tensor": {"dtype": "DT_INT32", "tensorShape": {}}}, "dtype": {"type": "DT_INT32"}}}, {"name": "StatefulPartitionedCall/model/reshape_3/Reshape/shape/2", "op": "Const", "attr": {"value": {"tensor": {"dtype": "DT_INT32", "tensorShape": {}}}, "dtype": {"type": "DT_INT32"}}}, {"name": "StatefulPartitionedCall/model/reshape_3/Reshape/shape/3", "op": "Const", "attr": {"value": {"tensor": {"dtype": "DT_INT32", "tensorShape": {}}}, "dtype": {"type": "DT_INT32"}}}, {"name": "StatefulPartitionedCall/model/expanded_conv_5/squeeze_excite/Conv/Conv2D/ReadVariableOp", "op": "Const", "attr": {"dtype": {"type": "DT_FLOAT"}, "value": {"tensor": {"dtype": "DT_FLOAT", "tensorShape": {"dim": [{"size": "1"}, {"size": "1"}, {"size": "240"}, {"size": "64"}]}}}}}, {"name": "StatefulPartitionedCall/model/expanded_conv_5/squeeze_excite/Conv/BiasAdd/ReadVariableOp", "op": "Const", "attr": {"value": {"tensor": {"dtype": "DT_FLOAT", "tensorShape": {"dim": [{"size": "64"}]}}}, "dtype": {"type": "DT_FLOAT"}}}, {"name": "StatefulPartitionedCall/model/expanded_conv_5/squeeze_excite/Conv_1/Conv2D/ReadVariableOp", "op": "Const", "attr": {"value": {"tensor": {"dtype": "DT_FLOAT", "tensorShape": {"dim": [{"size": "1"}, {"size": "1"}, {"size": "64"}, {"size": "240"}]}}}, "dtype": {"type": "DT_FLOAT"}}}, {"name": "StatefulPartitionedCall/model/expanded_conv_5/squeeze_excite/Conv_1/BiasAdd/ReadVariableOp", "op": "Const", "attr": {"value": {"tensor": {"dtype": "DT_FLOAT", "tensorShape": {"dim": [{"size": "240"}]}}}, "dtype": {"type": "DT_FLOAT"}}}, {"name": "StatefulPartitionedCall/model/tf.__operators__.add_10/y", "op": "Const", "attr": {"value": {"tensor": {"dtype": "DT_FLOAT", "tensorShape": {}}}, "dtype": {"type": "DT_FLOAT"}}}, {"name": "StatefulPartitionedCall/model/tf.math.multiply_9/Mul/y", "op": "Const", "attr": {"value": {"tensor": {"dtype": "DT_FLOAT", "tensorShape": {}}}, "dtype": {"type": "DT_FLOAT"}}}, {"name": "StatefulPartitionedCall/model/tf.__operators__.add_9/y", "op": "Const", "attr": {"value": {"tensor": {"dtype": "DT_FLOAT", "tensorShape": {}}}, "dtype": {"type": "DT_FLOAT"}}}, {"name": "StatefulPartitionedCall/model/tf.math.multiply_8/Mul/y", "op": "Const", "attr": {"dtype": {"type": "DT_FLOAT"}, "value": {"tensor": {"dtype": "DT_FLOAT", "tensorShape": {}}}}}, {"name": "StatefulPartitionedCall/model/tf.__operators__.add_8/y", "op": "Const", "attr": {"dtype": {"type": "DT_FLOAT"}, "value": {"tensor": {"dtype": "DT_FLOAT", "tensorShape": {}}}}}, {"name": "StatefulPartitionedCall/model/tf.math.multiply_7/Mul/y", "op": "Const", "attr": {"dtype": {"type": "DT_FLOAT"}, "value": {"tensor": {"dtype": "DT_FLOAT", "tensorShape": {}}}}}, {"name": "StatefulPartitionedCall/model/expanded_conv_4/squeeze_excite/AvgPool/Mean/reduction_indices", "op": "Const", "attr": {"dtype": {"type": "DT_INT32"}, "value": {"tensor": {"dtype": "DT_INT32", "tensorShape": {"dim": [{"size": "2"}]}}}}}, {"name": "StatefulPartitionedCall/model/reshape_2/strided_slice/stack", "op": "Const", "attr": {"dtype": {"type": "DT_INT32"}, "value": {"tensor": {"dtype": "DT_INT32", "tensorShape": {"dim": [{"size": "1"}]}}}}}, {"name": "StatefulPartitionedCall/model/reshape_2/strided_slice/stack_1", "op": "Const", "attr": {"value": {"tensor": {"dtype": "DT_INT32", "tensorShape": {"dim": [{"size": "1"}]}}}, "dtype": {"type": "DT_INT32"}}}, {"name": "StatefulPartitionedCall/model/reshape_2/strided_slice/stack_2", "op": "Const", "attr": {"value": {"tensor": {"dtype": "DT_INT32", "tensorShape": {"dim": [{"size": "1"}]}}}, "dtype": {"type": "DT_INT32"}}}, {"name": "StatefulPartitionedCall/model/reshape_2/Reshape/shape/1", "op": "Const", "attr": {"dtype": {"type": "DT_INT32"}, "value": {"tensor": {"dtype": "DT_INT32", "tensorShape": {}}}}}, {"name": "StatefulPartitionedCall/model/reshape_2/Reshape/shape/2", "op": "Const", "attr": {"dtype": {"type": "DT_INT32"}, "value": {"tensor": {"dtype": "DT_INT32", "tensorShape": {}}}}}, {"name": "StatefulPartitionedCall/model/reshape_2/Reshape/shape/3", "op": "Const", "attr": {"dtype": {"type": "DT_INT32"}, "value": {"tensor": {"dtype": "DT_INT32", "tensorShape": {}}}}}, {"name": "StatefulPartitionedCall/model/expanded_conv_4/squeeze_excite/Conv/Conv2D/ReadVariableOp", "op": "Const", "attr": {"dtype": {"type": "DT_FLOAT"}, "value": {"tensor": {"dtype": "DT_FLOAT", "tensorShape": {"dim": [{"size": "1"}, {"size": "1"}, {"size": "240"}, {"size": "64"}]}}}}}, {"name": "StatefulPartitionedCall/model/expanded_conv_4/squeeze_excite/Conv/BiasAdd/ReadVariableOp", "op": "Const", "attr": {"dtype": {"type": "DT_FLOAT"}, "value": {"tensor": {"dtype": "DT_FLOAT", "tensorShape": {"dim": [{"size": "64"}]}}}}}, {"name": "StatefulPartitionedCall/model/expanded_conv_4/squeeze_excite/Conv_1/Conv2D/ReadVariableOp", "op": "Const", "attr": {"dtype": {"type": "DT_FLOAT"}, "value": {"tensor": {"dtype": "DT_FLOAT", "tensorShape": {"dim": [{"size": "1"}, {"size": "1"}, {"size": "64"}, {"size": "240"}]}}}}}, {"name": "StatefulPartitionedCall/model/expanded_conv_4/squeeze_excite/Conv_1/BiasAdd/ReadVariableOp", "op": "Const", "attr": {"value": {"tensor": {"dtype": "DT_FLOAT", "tensorShape": {"dim": [{"size": "240"}]}}}, "dtype": {"type": "DT_FLOAT"}}}, {"name": "StatefulPartitionedCall/model/tf.__operators__.add_7/y", "op": "Const", "attr": {"value": {"tensor": {"dtype": "DT_FLOAT", "tensorShape": {}}}, "dtype": {"type": "DT_FLOAT"}}}, {"name": "StatefulPartitionedCall/model/tf.math.multiply_6/Mul/y", "op": "Const", "attr": {"dtype": {"type": "DT_FLOAT"}, "value": {"tensor": {"dtype": "DT_FLOAT", "tensorShape": {}}}}}, {"name": "StatefulPartitionedCall/model/tf.__operators__.add_6/y", "op": "Const", "attr": {"dtype": {"type": "DT_FLOAT"}, "value": {"tensor": {"dtype": "DT_FLOAT", "tensorShape": {}}}}}, {"name": "StatefulPartitionedCall/model/tf.math.multiply_5/Mul/y", "op": "Const", "attr": {"dtype": {"type": "DT_FLOAT"}, "value": {"tensor": {"dtype": "DT_FLOAT", "tensorShape": {}}}}}, {"name": "StatefulPartitionedCall/model/tf.__operators__.add_5/y", "op": "Const", "attr": {"dtype": {"type": "DT_FLOAT"}, "value": {"tensor": {"dtype": "DT_FLOAT", "tensorShape": {}}}}}, {"name": "StatefulPartitionedCall/model/tf.math.multiply_4/Mul/y", "op": "Const", "attr": {"dtype": {"type": "DT_FLOAT"}, "value": {"tensor": {"dtype": "DT_FLOAT", "tensorShape": {}}}}}, {"name": "StatefulPartitionedCall/model/expanded_conv_3/squeeze_excite/AvgPool/Mean/reduction_indices", "op": "Const", "attr": {"dtype": {"type": "DT_INT32"}, "value": {"tensor": {"dtype": "DT_INT32", "tensorShape": {"dim": [{"size": "2"}]}}}}}, {"name": "StatefulPartitionedCall/model/reshape_1/strided_slice/stack", "op": "Const", "attr": {"dtype": {"type": "DT_INT32"}, "value": {"tensor": {"dtype": "DT_INT32", "tensorShape": {"dim": [{"size": "1"}]}}}}}, {"name": "StatefulPartitionedCall/model/reshape_1/strided_slice/stack_1", "op": "Const", "attr": {"value": {"tensor": {"dtype": "DT_INT32", "tensorShape": {"dim": [{"size": "1"}]}}}, "dtype": {"type": "DT_INT32"}}}, {"name": "StatefulPartitionedCall/model/reshape_1/strided_slice/stack_2", "op": "Const", "attr": {"dtype": {"type": "DT_INT32"}, "value": {"tensor": {"dtype": "DT_INT32", "tensorShape": {"dim": [{"size": "1"}]}}}}}, {"name": "StatefulPartitionedCall/model/reshape_1/Reshape/shape/1", "op": "Const", "attr": {"value": {"tensor": {"dtype": "DT_INT32", "tensorShape": {}}}, "dtype": {"type": "DT_INT32"}}}, {"name": "StatefulPartitionedCall/model/reshape_1/Reshape/shape/2", "op": "Const", "attr": {"dtype": {"type": "DT_INT32"}, "value": {"tensor": {"dtype": "DT_INT32", "tensorShape": {}}}}}, {"name": "StatefulPartitionedCall/model/reshape_1/Reshape/shape/3", "op": "Const", "attr": {"value": {"tensor": {"dtype": "DT_INT32", "tensorShape": {}}}, "dtype": {"type": "DT_INT32"}}}, {"name": "StatefulPartitionedCall/model/expanded_conv_3/squeeze_excite/Conv/Conv2D/ReadVariableOp", "op": "Const", "attr": {"dtype": {"type": "DT_FLOAT"}, "value": {"tensor": {"dtype": "DT_FLOAT", "tensorShape": {"dim": [{"size": "1"}, {"size": "1"}, {"size": "96"}, {"size": "24"}]}}}}}, {"name": "StatefulPartitionedCall/model/expanded_conv_3/squeeze_excite/Conv/BiasAdd/ReadVariableOp", "op": "Const", "attr": {"dtype": {"type": "DT_FLOAT"}, "value": {"tensor": {"dtype": "DT_FLOAT", "tensorShape": {"dim": [{"size": "24"}]}}}}}, {"name": "StatefulPartitionedCall/model/expanded_conv_3/squeeze_excite/Conv_1/Conv2D/ReadVariableOp", "op": "Const", "attr": {"value": {"tensor": {"dtype": "DT_FLOAT", "tensorShape": {"dim": [{"size": "1"}, {"size": "1"}, {"size": "24"}, {"size": "96"}]}}}, "dtype": {"type": "DT_FLOAT"}}}, {"name": "StatefulPartitionedCall/model/expanded_conv_3/squeeze_excite/Conv_1/BiasAdd/ReadVariableOp", "op": "Const", "attr": {"dtype": {"type": "DT_FLOAT"}, "value": {"tensor": {"dtype": "DT_FLOAT", "tensorShape": {"dim": [{"size": "96"}]}}}}}, {"name": "StatefulPartitionedCall/model/tf.__operators__.add_4/y", "op": "Const", "attr": {"dtype": {"type": "DT_FLOAT"}, "value": {"tensor": {"dtype": "DT_FLOAT", "tensorShape": {}}}}}, {"name": "StatefulPartitionedCall/model/tf.math.multiply_3/Mul/y", "op": "Const", "attr": {"dtype": {"type": "DT_FLOAT"}, "value": {"tensor": {"dtype": "DT_FLOAT", "tensorShape": {}}}}}, {"name": "StatefulPartitionedCall/model/tf.__operators__.add_3/y", "op": "Const", "attr": {"dtype": {"type": "DT_FLOAT"}, "value": {"tensor": {"dtype": "DT_FLOAT", "tensorShape": {}}}}}, {"name": "StatefulPartitionedCall/model/tf.math.multiply_2/Mul/y", "op": "Const", "attr": {"dtype": {"type": "DT_FLOAT"}, "value": {"tensor": {"dtype": "DT_FLOAT", "tensorShape": {}}}}}, {"name": "StatefulPartitionedCall/model/tf.__operators__.add_2/y", "op": "Const", "attr": {"dtype": {"type": "DT_FLOAT"}, "value": {"tensor": {"dtype": "DT_FLOAT", "tensorShape": {}}}}}, {"name": "StatefulPartitionedCall/model/tf.math.multiply_1/Mul/y", "op": "Const", "attr": {"dtype": {"type": "DT_FLOAT"}, "value": {"tensor": {"dtype": "DT_FLOAT", "tensorShape": {}}}}}, {"name": "StatefulPartitionedCall/model/expanded_conv/squeeze_excite/AvgPool/Mean/reduction_indices", "op": "Const", "attr": {"value": {"tensor": {"dtype": "DT_INT32", "tensorShape": {"dim": [{"size": "2"}]}}}, "dtype": {"type": "DT_INT32"}}}, {"name": "StatefulPartitionedCall/model/reshape/strided_slice/stack", "op": "Const", "attr": {"dtype": {"type": "DT_INT32"}, "value": {"tensor": {"dtype": "DT_INT32", "tensorShape": {"dim": [{"size": "1"}]}}}}}, {"name": "StatefulPartitionedCall/model/reshape/strided_slice/stack_1", "op": "Const", "attr": {"value": {"tensor": {"dtype": "DT_INT32", "tensorShape": {"dim": [{"size": "1"}]}}}, "dtype": {"type": "DT_INT32"}}}, {"name": "StatefulPartitionedCall/model/reshape/strided_slice/stack_2", "op": "Const", "attr": {"dtype": {"type": "DT_INT32"}, "value": {"tensor": {"dtype": "DT_INT32", "tensorShape": {"dim": [{"size": "1"}]}}}}}, {"name": "StatefulPartitionedCall/model/reshape/Reshape/shape/1", "op": "Const", "attr": {"dtype": {"type": "DT_INT32"}, "value": {"tensor": {"dtype": "DT_INT32", "tensorShape": {}}}}}, {"name": "StatefulPartitionedCall/model/reshape/Reshape/shape/2", "op": "Const", "attr": {"value": {"tensor": {"dtype": "DT_INT32", "tensorShape": {}}}, "dtype": {"type": "DT_INT32"}}}, {"name": "StatefulPartitionedCall/model/reshape/Reshape/shape/3", "op": "Const", "attr": {"dtype": {"type": "DT_INT32"}, "value": {"tensor": {"dtype": "DT_INT32", "tensorShape": {}}}}}, {"name": "StatefulPartitionedCall/model/expanded_conv/squeeze_excite/Conv/Conv2D/ReadVariableOp", "op": "Const", "attr": {"value": {"tensor": {"dtype": "DT_FLOAT", "tensorShape": {"dim": [{"size": "1"}, {"size": "1"}, {"size": "16"}, {"size": "8"}]}}}, "dtype": {"type": "DT_FLOAT"}}}, {"name": "StatefulPartitionedCall/model/expanded_conv/squeeze_excite/Conv/BiasAdd/ReadVariableOp", "op": "Const", "attr": {"value": {"tensor": {"dtype": "DT_FLOAT", "tensorShape": {"dim": [{"size": "8"}]}}}, "dtype": {"type": "DT_FLOAT"}}}, {"name": "StatefulPartitionedCall/model/expanded_conv/squeeze_excite/Conv_1/Conv2D/ReadVariableOp", "op": "Const", "attr": {"dtype": {"type": "DT_FLOAT"}, "value": {"tensor": {"dtype": "DT_FLOAT", "tensorShape": {"dim": [{"size": "1"}, {"size": "1"}, {"size": "8"}, {"size": "16"}]}}}}}, {"name": "StatefulPartitionedCall/model/expanded_conv/squeeze_excite/Conv_1/BiasAdd/ReadVariableOp", "op": "Const", "attr": {"dtype": {"type": "DT_FLOAT"}, "value": {"tensor": {"dtype": "DT_FLOAT", "tensorShape": {"dim": [{"size": "16"}]}}}}}, {"name": "StatefulPartitionedCall/model/tf.__operators__.add_1/y", "op": "Const", "attr": {"dtype": {"type": "DT_FLOAT"}, "value": {"tensor": {"dtype": "DT_FLOAT", "tensorShape": {}}}}}, {"name": "StatefulPartitionedCall/model/tf.math.multiply/Mul/y", "op": "Const", "attr": {"dtype": {"type": "DT_FLOAT"}, "value": {"tensor": {"dtype": "DT_FLOAT", "tensorShape": {}}}}}, {"name": "StatefulPartitionedCall/model/tf.__operators__.add/y", "op": "Const", "attr": {"dtype": {"type": "DT_FLOAT"}, "value": {"tensor": {"dtype": "DT_FLOAT", "tensorShape": {}}}}}, {"name": "StatefulPartitionedCall/model/rescaling/Cast/x", "op": "Const", "attr": {"value": {"tensor": {"dtype": "DT_FLOAT", "tensorShape": {}}}, "dtype": {"type": "DT_FLOAT"}}}, {"name": "StatefulPartitionedCall/model/rescaling/Cast_1/x", "op": "Const", "attr": {"value": {"tensor": {"dtype": "DT_FLOAT", "tensorShape": {}}}, "dtype": {"type": "DT_FLOAT"}}}, {"name": "StatefulPartitionedCall/model/expanded_conv/depthwise/pad/Pad/paddings", "op": "Const", "attr": {"dtype": {"type": "DT_INT32"}, "value": {"tensor": {"dtype": "DT_INT32", "tensorShape": {"dim": [{"size": "4"}, {"size": "2"}]}}}}}, {"name": "StatefulPartitionedCall/model/expanded_conv_1/depthwise/pad/Pad/paddings", "op": "Const", "attr": {"dtype": {"type": "DT_INT32"}, "value": {"tensor": {"dtype": "DT_INT32", "tensorShape": {"dim": [{"size": "4"}, {"size": "2"}]}}}}}, {"name": "StatefulPartitionedCall/model/expanded_conv_3/depthwise/pad/Pad/paddings", "op": "Const", "attr": {"dtype": {"type": "DT_INT32"}, "value": {"tensor": {"dtype": "DT_INT32", "tensorShape": {"dim": [{"size": "4"}, {"size": "2"}]}}}}}, {"name": "StatefulPartitionedCall/model/expanded_conv_8/depthwise/pad/Pad/paddings", "op": "Const", "attr": {"value": {"tensor": {"dtype": "DT_INT32", "tensorShape": {"dim": [{"size": "4"}, {"size": "2"}]}}}, "dtype": {"type": "DT_INT32"}}}, {"name": "StatefulPartitionedCall/model/Conv_2/Conv2D/ReadVariableOp", "op": "Const", "attr": {"value": {"tensor": {"dtype": "DT_FLOAT", "tensorShape": {"dim": [{"size": "1"}, {"size": "1"}, {"size": "576"}, {"size": "1024"}]}}}, "dtype": {"type": "DT_FLOAT"}}}, {"name": "StatefulPartitionedCall/model/Conv_2/BiasAdd/ReadVariableOp", "op": "Const", "attr": {"value": {"tensor": {"dtype": "DT_FLOAT", "tensorShape": {"dim": [{"size": "1024"}]}}}, "dtype": {"type": "DT_FLOAT"}}}, {"name": "StatefulPartitionedCall/model/global_max_pooling2d/Max/reduction_indices", "op": "Const", "attr": {"value": {"tensor": {"dtype": "DT_INT32", "tensorShape": {"dim": [{"size": "2"}]}}}, "dtype": {"type": "DT_INT32"}}}, {"name": "StatefulPartitionedCall/model/dense/MatMul/ReadVariableOp", "op": "Const", "attr": {"value": {"tensor": {"dtype": "DT_FLOAT", "tensorShape": {"dim": [{"size": "1024"}, {"size": "8"}]}}}, "dtype": {"type": "DT_FLOAT"}}}, {"name": "StatefulPartitionedCall/model/dense/BiasAdd/ReadVariableOp", "op": "Const", "attr": {"dtype": {"type": "DT_FLOAT"}, "value": {"tensor": {"dtype": "DT_FLOAT", "tensorShape": {"dim": [{"size": "8"}]}}}}}, {"name": "input_1", "op": "Placeholder", "attr": {"shape": {"shape": {"dim": [{"size": "-1"}, {"size": "224"}, {"size": "224"}, {"size": "3"}]}}, "dtype": {"type": "DT_FLOAT"}}}, {"name": "StatefulPartitionedCall/model/Conv/Conv2D_weights", "op": "Const", "attr": {"dtype": {"type": "DT_FLOAT"}, "value": {"tensor": {"dtype": "DT_FLOAT", "tensorShape": {"dim": [{"size": "3"}, {"size": "3"}, {"size": "3"}, {"size": "16"}]}}}}}, {"name": "StatefulPartitionedCall/model/expanded_conv_10/expand/Conv2D_weights", "op": "Const", "attr": {"dtype": {"type": "DT_FLOAT"}, "value": {"tensor": {"dtype": "DT_FLOAT", "tensorShape": {"dim": [{"size": "1"}, {"size": "1"}, {"size": "96"}, {"size": "576"}]}}}}}, {"name": "StatefulPartitionedCall/model/Conv/Conv2D_bn_offset", "op": "Const", "attr": {"value": {"tensor": {"dtype": "DT_FLOAT", "tensorShape": {"dim": [{"size": "16"}]}}}, "dtype": {"type": "DT_FLOAT"}}}, {"name": "StatefulPartitionedCall/model/expanded_conv/depthwise/depthwise_weights", "op": "Const", "attr": {"value": {"tensor": {"dtype": "DT_FLOAT", "tensorShape": {"dim": [{"size": "3"}, {"size": "3"}, {"size": "16"}, {"size": "1"}]}}}, "dtype": {"type": "DT_FLOAT"}}}, {"name": "StatefulPartitionedCall/model/expanded_conv/depthwise/depthwise_bn_offset", "op": "Const", "attr": {"value": {"tensor": {"dtype": "DT_FLOAT", "tensorShape": {"dim": [{"size": "16"}]}}}, "dtype": {"type": "DT_FLOAT"}}}, {"name": "StatefulPartitionedCall/model/expanded_conv_10/expand/Conv2D_bn_offset", "op": "Const", "attr": {"value": {"tensor": {"dtype": "DT_FLOAT", "tensorShape": {"dim": [{"size": "576"}]}}}, "dtype": {"type": "DT_FLOAT"}}}, {"name": "StatefulPartitionedCall/model/expanded_conv/project/Conv2D_weights", "op": "Const", "attr": {"dtype": {"type": "DT_FLOAT"}, "value": {"tensor": {"dtype": "DT_FLOAT", "tensorShape": {"dim": [{"size": "1"}, {"size": "1"}, {"size": "16"}, {"size": "16"}]}}}}}, {"name": "StatefulPartitionedCall/model/expanded_conv/project/Conv2D_bn_offset", "op": "Const", "attr": {"value": {"tensor": {"dtype": "DT_FLOAT", "tensorShape": {"dim": [{"size": "16"}]}}}, "dtype": {"type": "DT_FLOAT"}}}, {"name": "StatefulPartitionedCall/model/expanded_conv_1/expand/Conv2D_weights", "op": "Const", "attr": {"value": {"tensor": {"dtype": "DT_FLOAT", "tensorShape": {"dim": [{"size": "1"}, {"size": "1"}, {"size": "16"}, {"size": "72"}]}}}, "dtype": {"type": "DT_FLOAT"}}}, {"name": "StatefulPartitionedCall/model/expanded_conv_1/expand/Conv2D_bn_offset", "op": "Const", "attr": {"value": {"tensor": {"dtype": "DT_FLOAT", "tensorShape": {"dim": [{"size": "72"}]}}}, "dtype": {"type": "DT_FLOAT"}}}, {"name": "StatefulPartitionedCall/model/expanded_conv_1/depthwise/depthwise_weights", "op": "Const", "attr": {"dtype": {"type": "DT_FLOAT"}, "value": {"tensor": {"dtype": "DT_FLOAT", "tensorShape": {"dim": [{"size": "3"}, {"size": "3"}, {"size": "72"}, {"size": "1"}]}}}}}, {"name": "StatefulPartitionedCall/model/expanded_conv_1/depthwise/depthwise_bn_offset", "op": "Const", "attr": {"value": {"tensor": {"dtype": "DT_FLOAT", "tensorShape": {"dim": [{"size": "72"}]}}}, "dtype": {"type": "DT_FLOAT"}}}, {"name": "StatefulPartitionedCall/model/expanded_conv_1/project/Conv2D_weights", "op": "Const", "attr": {"dtype": {"type": "DT_FLOAT"}, "value": {"tensor": {"dtype": "DT_FLOAT", "tensorShape": {"dim": [{"size": "1"}, {"size": "1"}, {"size": "72"}, {"size": "24"}]}}}}}, {"name": "StatefulPartitionedCall/model/expanded_conv_1/project/Conv2D_bn_offset", "op": "Const", "attr": {"dtype": {"type": "DT_FLOAT"}, "value": {"tensor": {"dtype": "DT_FLOAT", "tensorShape": {"dim": [{"size": "24"}]}}}}}, {"name": "StatefulPartitionedCall/model/expanded_conv_2/expand/Conv2D_weights", "op": "Const", "attr": {"value": {"tensor": {"dtype": "DT_FLOAT", "tensorShape": {"dim": [{"size": "1"}, {"size": "1"}, {"size": "24"}, {"size": "88"}]}}}, "dtype": {"type": "DT_FLOAT"}}}, {"name": "StatefulPartitionedCall/model/expanded_conv_10/depthwise/depthwise_weights", "op": "Const", "attr": {"dtype": {"type": "DT_FLOAT"}, "value": {"tensor": {"dtype": "DT_FLOAT", "tensorShape": {"dim": [{"size": "5"}, {"size": "5"}, {"size": "576"}, {"size": "1"}]}}}}}, {"name": "StatefulPartitionedCall/model/expanded_conv_2/expand/Conv2D_bn_offset", "op": "Const", "attr": {"value": {"tensor": {"dtype": "DT_FLOAT", "tensorShape": {"dim": [{"size": "88"}]}}}, "dtype": {"type": "DT_FLOAT"}}}, {"name": "StatefulPartitionedCall/model/expanded_conv_2/depthwise/depthwise_weights", "op": "Const", "attr": {"value": {"tensor": {"dtype": "DT_FLOAT", "tensorShape": {"dim": [{"size": "3"}, {"size": "3"}, {"size": "88"}, {"size": "1"}]}}}, "dtype": {"type": "DT_FLOAT"}}}, {"name": "StatefulPartitionedCall/model/expanded_conv_2/depthwise/depthwise_bn_offset", "op": "Const", "attr": {"dtype": {"type": "DT_FLOAT"}, "value": {"tensor": {"dtype": "DT_FLOAT", "tensorShape": {"dim": [{"size": "88"}]}}}}}, {"name": "StatefulPartitionedCall/model/expanded_conv_2/project/Conv2D_weights", "op": "Const", "attr": {"dtype": {"type": "DT_FLOAT"}, "value": {"tensor": {"dtype": "DT_FLOAT", "tensorShape": {"dim": [{"size": "1"}, {"size": "1"}, {"size": "88"}, {"size": "24"}]}}}}}, {"name": "StatefulPartitionedCall/model/expanded_conv_10/depthwise/depthwise_bn_offset", "op": "Const", "attr": {"dtype": {"type": "DT_FLOAT"}, "value": {"tensor": {"dtype": "DT_FLOAT", "tensorShape": {"dim": [{"size": "576"}]}}}}}, {"name": "StatefulPartitionedCall/model/expanded_conv_2/project/Conv2D_bn_offset", "op": "Const", "attr": {"value": {"tensor": {"dtype": "DT_FLOAT", "tensorShape": {"dim": [{"size": "24"}]}}}, "dtype": {"type": "DT_FLOAT"}}}, {"name": "StatefulPartitionedCall/model/expanded_conv_3/expand/Conv2D_weights", "op": "Const", "attr": {"value": {"tensor": {"dtype": "DT_FLOAT", "tensorShape": {"dim": [{"size": "1"}, {"size": "1"}, {"size": "24"}, {"size": "96"}]}}}, "dtype": {"type": "DT_FLOAT"}}}, {"name": "StatefulPartitionedCall/model/expanded_conv_3/expand/Conv2D_bn_offset", "op": "Const", "attr": {"dtype": {"type": "DT_FLOAT"}, "value": {"tensor": {"dtype": "DT_FLOAT", "tensorShape": {"dim": [{"size": "96"}]}}}}}, {"name": "StatefulPartitionedCall/model/expanded_conv_3/depthwise/depthwise_weights", "op": "Const", "attr": {"value": {"tensor": {"dtype": "DT_FLOAT", "tensorShape": {"dim": [{"size": "5"}, {"size": "5"}, {"size": "96"}, {"size": "1"}]}}}, "dtype": {"type": "DT_FLOAT"}}}, {"name": "StatefulPartitionedCall/model/expanded_conv_3/depthwise/depthwise_bn_offset", "op": "Const", "attr": {"value": {"tensor": {"dtype": "DT_FLOAT", "tensorShape": {"dim": [{"size": "96"}]}}}, "dtype": {"type": "DT_FLOAT"}}}, {"name": "StatefulPartitionedCall/model/expanded_conv_3/project/Conv2D_weights", "op": "Const", "attr": {"value": {"tensor": {"dtype": "DT_FLOAT", "tensorShape": {"dim": [{"size": "1"}, {"size": "1"}, {"size": "96"}, {"size": "40"}]}}}, "dtype": {"type": "DT_FLOAT"}}}, {"name": "StatefulPartitionedCall/model/expanded_conv_3/project/Conv2D_bn_offset", "op": "Const", "attr": {"value": {"tensor": {"dtype": "DT_FLOAT", "tensorShape": {"dim": [{"size": "40"}]}}}, "dtype": {"type": "DT_FLOAT"}}}, {"name": "StatefulPartitionedCall/model/expanded_conv_4/expand/Conv2D_weights", "op": "Const", "attr": {"value": {"tensor": {"dtype": "DT_FLOAT", "tensorShape": {"dim": [{"size": "1"}, {"size": "1"}, {"size": "40"}, {"size": "240"}]}}}, "dtype": {"type": "DT_FLOAT"}}}, {"name": "StatefulPartitionedCall/model/expanded_conv_4/expand/Conv2D_bn_offset", "op": "Const", "attr": {"dtype": {"type": "DT_FLOAT"}, "value": {"tensor": {"dtype": "DT_FLOAT", "tensorShape": {"dim": [{"size": "240"}]}}}}}, {"name": "StatefulPartitionedCall/model/expanded_conv_4/depthwise/depthwise_weights", "op": "Const", "attr": {"value": {"tensor": {"dtype": "DT_FLOAT", "tensorShape": {"dim": [{"size": "5"}, {"size": "5"}, {"size": "240"}, {"size": "1"}]}}}, "dtype": {"type": "DT_FLOAT"}}}, {"name": "StatefulPartitionedCall/model/expanded_conv_4/depthwise/depthwise_bn_offset", "op": "Const", "attr": {"value": {"tensor": {"dtype": "DT_FLOAT", "tensorShape": {"dim": [{"size": "240"}]}}}, "dtype": {"type": "DT_FLOAT"}}}, {"name": "StatefulPartitionedCall/model/expanded_conv_4/project/Conv2D_weights", "op": "Const", "attr": {"value": {"tensor": {"dtype": "DT_FLOAT", "tensorShape": {"dim": [{"size": "1"}, {"size": "1"}, {"size": "240"}, {"size": "40"}]}}}, "dtype": {"type": "DT_FLOAT"}}}, {"name": "StatefulPartitionedCall/model/expanded_conv_4/project/Conv2D_bn_offset", "op": "Const", "attr": {"value": {"tensor": {"dtype": "DT_FLOAT", "tensorShape": {"dim": [{"size": "40"}]}}}, "dtype": {"type": "DT_FLOAT"}}}, {"name": "StatefulPartitionedCall/model/expanded_conv_5/expand/Conv2D_weights", "op": "Const", "attr": {"value": {"tensor": {"dtype": "DT_FLOAT", "tensorShape": {"dim": [{"size": "1"}, {"size": "1"}, {"size": "40"}, {"size": "240"}]}}}, "dtype": {"type": "DT_FLOAT"}}}, {"name": "StatefulPartitionedCall/model/expanded_conv_5/expand/Conv2D_bn_offset", "op": "Const", "attr": {"value": {"tensor": {"dtype": "DT_FLOAT", "tensorShape": {"dim": [{"size": "240"}]}}}, "dtype": {"type": "DT_FLOAT"}}}, {"name": "StatefulPartitionedCall/model/expanded_conv_5/depthwise/depthwise_weights", "op": "Const", "attr": {"value": {"tensor": {"dtype": "DT_FLOAT", "tensorShape": {"dim": [{"size": "5"}, {"size": "5"}, {"size": "240"}, {"size": "1"}]}}}, "dtype": {"type": "DT_FLOAT"}}}, {"name": "StatefulPartitionedCall/model/expanded_conv_5/depthwise/depthwise_bn_offset", "op": "Const", "attr": {"value": {"tensor": {"dtype": "DT_FLOAT", "tensorShape": {"dim": [{"size": "240"}]}}}, "dtype": {"type": "DT_FLOAT"}}}, {"name": "StatefulPartitionedCall/model/expanded_conv_5/project/Conv2D_weights", "op": "Const", "attr": {"dtype": {"type": "DT_FLOAT"}, "value": {"tensor": {"dtype": "DT_FLOAT", "tensorShape": {"dim": [{"size": "1"}, {"size": "1"}, {"size": "240"}, {"size": "40"}]}}}}}, {"name": "StatefulPartitionedCall/model/expanded_conv_5/project/Conv2D_bn_offset", "op": "Const", "attr": {"value": {"tensor": {"dtype": "DT_FLOAT", "tensorShape": {"dim": [{"size": "40"}]}}}, "dtype": {"type": "DT_FLOAT"}}}, {"name": "StatefulPartitionedCall/model/expanded_conv_6/expand/Conv2D_weights", "op": "Const", "attr": {"dtype": {"type": "DT_FLOAT"}, "value": {"tensor": {"dtype": "DT_FLOAT", "tensorShape": {"dim": [{"size": "1"}, {"size": "1"}, {"size": "40"}, {"size": "120"}]}}}}}, {"name": "StatefulPartitionedCall/model/expanded_conv_6/expand/Conv2D_bn_offset", "op": "Const", "attr": {"dtype": {"type": "DT_FLOAT"}, "value": {"tensor": {"dtype": "DT_FLOAT", "tensorShape": {"dim": [{"size": "120"}]}}}}}, {"name": "StatefulPartitionedCall/model/expanded_conv_6/depthwise/depthwise_weights", "op": "Const", "attr": {"dtype": {"type": "DT_FLOAT"}, "value": {"tensor": {"dtype": "DT_FLOAT", "tensorShape": {"dim": [{"size": "5"}, {"size": "5"}, {"size": "120"}, {"size": "1"}]}}}}}, {"name": "StatefulPartitionedCall/model/expanded_conv_6/depthwise/depthwise_bn_offset", "op": "Const", "attr": {"value": {"tensor": {"dtype": "DT_FLOAT", "tensorShape": {"dim": [{"size": "120"}]}}}, "dtype": {"type": "DT_FLOAT"}}}, {"name": "StatefulPartitionedCall/model/expanded_conv_6/project/Conv2D_weights", "op": "Const", "attr": {"dtype": {"type": "DT_FLOAT"}, "value": {"tensor": {"dtype": "DT_FLOAT", "tensorShape": {"dim": [{"size": "1"}, {"size": "1"}, {"size": "120"}, {"size": "48"}]}}}}}, {"name": "StatefulPartitionedCall/model/expanded_conv_10/project/Conv2D_weights", "op": "Const", "attr": {"dtype": {"type": "DT_FLOAT"}, "value": {"tensor": {"dtype": "DT_FLOAT", "tensorShape": {"dim": [{"size": "1"}, {"size": "1"}, {"size": "576"}, {"size": "96"}]}}}}}, {"name": "StatefulPartitionedCall/model/expanded_conv_6/project/Conv2D_bn_offset", "op": "Const", "attr": {"dtype": {"type": "DT_FLOAT"}, "value": {"tensor": {"dtype": "DT_FLOAT", "tensorShape": {"dim": [{"size": "48"}]}}}}}, {"name": "StatefulPartitionedCall/model/expanded_conv_7/expand/Conv2D_weights", "op": "Const", "attr": {"dtype": {"type": "DT_FLOAT"}, "value": {"tensor": {"dtype": "DT_FLOAT", "tensorShape": {"dim": [{"size": "1"}, {"size": "1"}, {"size": "48"}, {"size": "144"}]}}}}}, {"name": "StatefulPartitionedCall/model/expanded_conv_7/expand/Conv2D_bn_offset", "op": "Const", "attr": {"value": {"tensor": {"dtype": "DT_FLOAT", "tensorShape": {"dim": [{"size": "144"}]}}}, "dtype": {"type": "DT_FLOAT"}}}, {"name": "StatefulPartitionedCall/model/expanded_conv_7/depthwise/depthwise_weights", "op": "Const", "attr": {"value": {"tensor": {"dtype": "DT_FLOAT", "tensorShape": {"dim": [{"size": "5"}, {"size": "5"}, {"size": "144"}, {"size": "1"}]}}}, "dtype": {"type": "DT_FLOAT"}}}, {"name": "StatefulPartitionedCall/model/expanded_conv_7/depthwise/depthwise_bn_offset", "op": "Const", "attr": {"dtype": {"type": "DT_FLOAT"}, "value": {"tensor": {"dtype": "DT_FLOAT", "tensorShape": {"dim": [{"size": "144"}]}}}}}, {"name": "StatefulPartitionedCall/model/expanded_conv_10/project/Conv2D_bn_offset", "op": "Const", "attr": {"dtype": {"type": "DT_FLOAT"}, "value": {"tensor": {"dtype": "DT_FLOAT", "tensorShape": {"dim": [{"size": "96"}]}}}}}, {"name": "StatefulPartitionedCall/model/expanded_conv_7/project/Conv2D_weights", "op": "Const", "attr": {"dtype": {"type": "DT_FLOAT"}, "value": {"tensor": {"dtype": "DT_FLOAT", "tensorShape": {"dim": [{"size": "1"}, {"size": "1"}, {"size": "144"}, {"size": "48"}]}}}}}, {"name": "StatefulPartitionedCall/model/Conv_1/Conv2D_weights", "op": "Const", "attr": {"value": {"tensor": {"dtype": "DT_FLOAT", "tensorShape": {"dim": [{"size": "1"}, {"size": "1"}, {"size": "96"}, {"size": "576"}]}}}, "dtype": {"type": "DT_FLOAT"}}}, {"name": "StatefulPartitionedCall/model/expanded_conv_7/project/Conv2D_bn_offset", "op": "Const", "attr": {"dtype": {"type": "DT_FLOAT"}, "value": {"tensor": {"dtype": "DT_FLOAT", "tensorShape": {"dim": [{"size": "48"}]}}}}}, {"name": "StatefulPartitionedCall/model/expanded_conv_8/expand/Conv2D_weights", "op": "Const", "attr": {"value": {"tensor": {"dtype": "DT_FLOAT", "tensorShape": {"dim": [{"size": "1"}, {"size": "1"}, {"size": "48"}, {"size": "288"}]}}}, "dtype": {"type": "DT_FLOAT"}}}, {"name": "StatefulPartitionedCall/model/expanded_conv_8/expand/Conv2D_bn_offset", "op": "Const", "attr": {"value": {"tensor": {"dtype": "DT_FLOAT", "tensorShape": {"dim": [{"size": "288"}]}}}, "dtype": {"type": "DT_FLOAT"}}}, {"name": "StatefulPartitionedCall/model/expanded_conv_8/depthwise/depthwise_weights", "op": "Const", "attr": {"value": {"tensor": {"dtype": "DT_FLOAT", "tensorShape": {"dim": [{"size": "5"}, {"size": "5"}, {"size": "288"}, {"size": "1"}]}}}, "dtype": {"type": "DT_FLOAT"}}}, {"name": "StatefulPartitionedCall/model/expanded_conv_8/depthwise/depthwise_bn_offset", "op": "Const", "attr": {"value": {"tensor": {"dtype": "DT_FLOAT", "tensorShape": {"dim": [{"size": "288"}]}}}, "dtype": {"type": "DT_FLOAT"}}}, {"name": "StatefulPartitionedCall/model/Conv_1/Conv2D_bn_offset", "op": "Const", "attr": {"value": {"tensor": {"dtype": "DT_FLOAT", "tensorShape": {"dim": [{"size": "576"}]}}}, "dtype": {"type": "DT_FLOAT"}}}, {"name": "StatefulPartitionedCall/model/expanded_conv_8/project/Conv2D_weights", "op": "Const", "attr": {"dtype": {"type": "DT_FLOAT"}, "value": {"tensor": {"dtype": "DT_FLOAT", "tensorShape": {"dim": [{"size": "1"}, {"size": "1"}, {"size": "288"}, {"size": "96"}]}}}}}, {"name": "StatefulPartitionedCall/model/expanded_conv_8/project/Conv2D_bn_offset", "op": "Const", "attr": {"dtype": {"type": "DT_FLOAT"}, "value": {"tensor": {"dtype": "DT_FLOAT", "tensorShape": {"dim": [{"size": "96"}]}}}}}, {"name": "StatefulPartitionedCall/model/expanded_conv_9/expand/Conv2D_weights", "op": "Const", "attr": {"dtype": {"type": "DT_FLOAT"}, "value": {"tensor": {"dtype": "DT_FLOAT", "tensorShape": {"dim": [{"size": "1"}, {"size": "1"}, {"size": "96"}, {"size": "576"}]}}}}}, {"name": "StatefulPartitionedCall/model/expanded_conv_9/expand/Conv2D_bn_offset", "op": "Const", "attr": {"dtype": {"type": "DT_FLOAT"}, "value": {"tensor": {"dtype": "DT_FLOAT", "tensorShape": {"dim": [{"size": "576"}]}}}}}, {"name": "StatefulPartitionedCall/model/expanded_conv_9/depthwise/depthwise_weights", "op": "Const", "attr": {"dtype": {"type": "DT_FLOAT"}, "value": {"tensor": {"dtype": "DT_FLOAT", "tensorShape": {"dim": [{"size": "5"}, {"size": "5"}, {"size": "576"}, {"size": "1"}]}}}}}, {"name": "StatefulPartitionedCall/model/expanded_conv_9/depthwise/depthwise_bn_offset", "op": "Const", "attr": {"value": {"tensor": {"dtype": "DT_FLOAT", "tensorShape": {"dim": [{"size": "576"}]}}}, "dtype": {"type": "DT_FLOAT"}}}, {"name": "StatefulPartitionedCall/model/expanded_conv_9/project/Conv2D_weights", "op": "Const", "attr": {"value": {"tensor": {"dtype": "DT_FLOAT", "tensorShape": {"dim": [{"size": "1"}, {"size": "1"}, {"size": "576"}, {"size": "96"}]}}}, "dtype": {"type": "DT_FLOAT"}}}, {"name": "StatefulPartitionedCall/model/expanded_conv_9/project/Conv2D_bn_offset", "op": "Const", "attr": {"dtype": {"type": "DT_FLOAT"}, "value": {"tensor": {"dtype": "DT_FLOAT", "tensorShape": {"dim": [{"size": "96"}]}}}}}, {"name": "StatefulPartitionedCall/model/rescaling/mul", "op": "Mul", "input": ["input_1", "StatefulPartitionedCall/model/rescaling/Cast/x"], "attr": {"T": {"type": "DT_FLOAT"}}}, {"name": "StatefulPartitionedCall/model/rescaling/add", "op": "AddV2", "input": ["StatefulPartitionedCall/model/rescaling/mul", "StatefulPartitionedCall/model/rescaling/Cast_1/x"], "attr": {"T": {"type": "DT_FLOAT"}}}, {"name": "StatefulPartitionedCall/model/Conv/BatchNorm/FusedBatchNormV3", "op": "_FusedConv2D", "input": ["StatefulPartitionedCall/model/rescaling/add", "StatefulPartitionedCall/model/Conv/Conv2D_weights", "StatefulPartitionedCall/model/Conv/Conv2D_bn_offset"], "device": "/device:CPU:0", "attr": {"epsilon": {"f": 0.0}, "data_format": {"s": "TkhXQw=="}, "fused_ops": {"list": {"s": ["Qmlhc0FkZA=="]}}, "T": {"type": "DT_FLOAT"}, "num_args": {"i": "1"}, "strides": {"list": {"i": ["1", "2", "2", "1"]}}, "padding": {"s": "U0FNRQ=="}, "explicit_paddings": {"list": {}}, "use_cudnn_on_gpu": {"b": true}, "dilations": {"list": {"i": ["1", "1", "1", "1"]}}}}, {"name": "StatefulPartitionedCall/model/tf.__operators__.add/AddV2", "op": "AddV2", "input": ["StatefulPartitionedCall/model/Conv/BatchNorm/FusedBatchNormV3", "StatefulPartitionedCall/model/tf.__operators__.add/y"], "attr": {"T": {"type": "DT_FLOAT"}}}, {"name": "StatefulPartitionedCall/model/re_lu/Relu6", "op": "Relu6", "input": ["StatefulPartitionedCall/model/tf.__operators__.add/AddV2"], "attr": {"T": {"type": "DT_FLOAT"}}}, {"name": "StatefulPartitionedCall/model/tf.math.multiply/Mul", "op": "Mul", "input": ["StatefulPartitionedCall/model/tf.math.multiply/Mul/y", "StatefulPartitionedCall/model/re_lu/Relu6"], "attr": {"T": {"type": "DT_FLOAT"}, "_grappler_ArithmeticOptimizer_MinimizeBroadcasts": {"b": true}}}, {"name": "StatefulPartitionedCall/model/multiply/mul", "op": "Mul", "input": ["StatefulPartitionedCall/model/tf.math.multiply/Mul", "StatefulPartitionedCall/model/Conv/BatchNorm/FusedBatchNormV3"], "attr": {"_grappler_ArithmeticOptimizer_MinimizeBroadcasts": {"b": true}, "T": {"type": "DT_FLOAT"}}}, {"name": "StatefulPartitionedCall/model/expanded_conv/depthwise/pad/Pad", "op": "Pad", "input": ["StatefulPartitionedCall/model/multiply/mul", "StatefulPartitionedCall/model/expanded_conv/depthwise/pad/Pad/paddings"], "attr": {"T": {"type": "DT_FLOAT"}, "Tpaddings": {"type": "DT_INT32"}}}, {"name": "StatefulPartitionedCall/model/expanded_conv/depthwise/depthwise", "op": "FusedDepthwiseConv2dNative", "input": ["StatefulPartitionedCall/model/expanded_conv/depthwise/pad/Pad", "StatefulPartitionedCall/model/expanded_conv/depthwise/depthwise_weights", "StatefulPartitionedCall/model/expanded_conv/depthwise/depthwise_bn_offset"], "attr": {"dilations": {"list": {"i": ["1", "1", "1", "1"]}}, "fused_ops": {"list": {"s": ["Qmlhc0FkZA==", "UmVsdQ=="]}}, "data_format": {"s": "TkhXQw=="}, "strides": {"list": {"i": ["1", "2", "2", "1"]}}, "padding": {"s": "VkFMSUQ="}, "T": {"type": "DT_FLOAT"}, "explicit_paddings": {"list": {}}, "num_args": {"i": "1"}}}, {"name": "StatefulPartitionedCall/model/expanded_conv/squeeze_excite/AvgPool/Mean", "op": "Mean", "input": ["StatefulPartitionedCall/model/expanded_conv/depthwise/depthwise", "StatefulPartitionedCall/model/expanded_conv/squeeze_excite/AvgPool/Mean/reduction_indices"], "attr": {"keep_dims": {"b": false}, "Tidx": {"type": "DT_INT32"}, "T": {"type": "DT_FLOAT"}}}, {"name": "StatefulPartitionedCall/model/reshape/Shape", "op": "Shape", "input": ["StatefulPartitionedCall/model/expanded_conv/squeeze_excite/AvgPool/Mean"], "attr": {"T": {"type": "DT_FLOAT"}, "out_type": {"type": "DT_INT32"}}}, {"name": "StatefulPartitionedCall/model/reshape/strided_slice", "op": "StridedSlice", "input": ["StatefulPartitionedCall/model/reshape/Shape", "StatefulPartitionedCall/model/reshape/strided_slice/stack", "StatefulPartitionedCall/model/reshape/strided_slice/stack_1", "StatefulPartitionedCall/model/reshape/strided_slice/stack_2"], "attr": {"begin_mask": {"i": "0"}, "new_axis_mask": {"i": "0"}, "T": {"type": "DT_INT32"}, "end_mask": {"i": "0"}, "shrink_axis_mask": {"i": "1"}, "ellipsis_mask": {"i": "0"}, "Index": {"type": "DT_INT32"}}}, {"name": "StatefulPartitionedCall/model/reshape/Reshape/shape", "op": "Pack", "input": ["StatefulPartitionedCall/model/reshape/strided_slice", "StatefulPartitionedCall/model/reshape/Reshape/shape/1", "StatefulPartitionedCall/model/reshape/Reshape/shape/2", "StatefulPartitionedCall/model/reshape/Reshape/shape/3"], "attr": {"T": {"type": "DT_INT32"}, "N": {"i": "4"}, "axis": {"i": "0"}}}, {"name": "StatefulPartitionedCall/model/reshape/Reshape", "op": "Reshape", "input": ["StatefulPartitionedCall/model/expanded_conv/squeeze_excite/AvgPool/Mean", "StatefulPartitionedCall/model/reshape/Reshape/shape"], "attr": {"Tshape": {"type": "DT_INT32"}, "T": {"type": "DT_FLOAT"}}}, {"name": "StatefulPartitionedCall/model/expanded_conv/squeeze_excite/Relu/Relu", "op": "_FusedConv2D", "input": ["StatefulPartitionedCall/model/reshape/Reshape", "StatefulPartitionedCall/model/expanded_conv/squeeze_excite/Conv/Conv2D/ReadVariableOp", "StatefulPartitionedCall/model/expanded_conv/squeeze_excite/Conv/BiasAdd/ReadVariableOp"], "device": "/device:CPU:0", "attr": {"padding": {"s": "U0FNRQ=="}, "T": {"type": "DT_FLOAT"}, "use_cudnn_on_gpu": {"b": true}, "epsilon": {"f": 0.0}, "num_args": {"i": "1"}, "strides": {"list": {"i": ["1", "1", "1", "1"]}}, "fused_ops": {"list": {"s": ["Qmlhc0FkZA==", "UmVsdQ=="]}}, "dilations": {"list": {"i": ["1", "1", "1", "1"]}}, "explicit_paddings": {"list": {}}, "data_format": {"s": "TkhXQw=="}}}, {"name": "StatefulPartitionedCall/model/expanded_conv/squeeze_excite/Conv_1/BiasAdd", "op": "_FusedConv2D", "input": ["StatefulPartitionedCall/model/expanded_conv/squeeze_excite/Relu/Relu", "StatefulPartitionedCall/model/expanded_conv/squeeze_excite/Conv_1/Conv2D/ReadVariableOp", "StatefulPartitionedCall/model/expanded_conv/squeeze_excite/Conv_1/BiasAdd/ReadVariableOp"], "device": "/device:CPU:0", "attr": {"T": {"type": "DT_FLOAT"}, "epsilon": {"f": 0.0}, "strides": {"list": {"i": ["1", "1", "1", "1"]}}, "fused_ops": {"list": {"s": ["Qmlhc0FkZA=="]}}, "use_cudnn_on_gpu": {"b": true}, "dilations": {"list": {"i": ["1", "1", "1", "1"]}}, "num_args": {"i": "1"}, "explicit_paddings": {"list": {}}, "padding": {"s": "U0FNRQ=="}, "data_format": {"s": "TkhXQw=="}}}, {"name": "StatefulPartitionedCall/model/tf.__operators__.add_1/AddV2", "op": "AddV2", "input": ["StatefulPartitionedCall/model/expanded_conv/squeeze_excite/Conv_1/BiasAdd", "StatefulPartitionedCall/model/tf.__operators__.add_1/y"], "attr": {"T": {"type": "DT_FLOAT"}}}, {"name": "StatefulPartitionedCall/model/re_lu_2/Relu6", "op": "Relu6", "input": ["StatefulPartitionedCall/model/tf.__operators__.add_1/AddV2"], "attr": {"T": {"type": "DT_FLOAT"}}}, {"name": "StatefulPartitionedCall/model/tf.math.multiply_1/Mul", "op": "Mul", "input": ["StatefulPartitionedCall/model/tf.math.multiply_1/Mul/y", "StatefulPartitionedCall/model/re_lu_2/Relu6"], "attr": {"_grappler_ArithmeticOptimizer_MinimizeBroadcasts": {"b": true}, "T": {"type": "DT_FLOAT"}}}, {"name": "StatefulPartitionedCall/model/expanded_conv/squeeze_excite/Mul/mul", "op": "Mul", "input": ["StatefulPartitionedCall/model/tf.math.multiply_1/Mul", "StatefulPartitionedCall/model/expanded_conv/depthwise/depthwise"], "attr": {"_grappler_ArithmeticOptimizer_MinimizeBroadcasts": {"b": true}, "T": {"type": "DT_FLOAT"}}}, {"name": "StatefulPartitionedCall/model/expanded_conv/project/BatchNorm/FusedBatchNormV3", "op": "_FusedConv2D", "input": ["StatefulPartitionedCall/model/expanded_conv/squeeze_excite/Mul/mul", "StatefulPartitionedCall/model/expanded_conv/project/Conv2D_weights", "StatefulPartitionedCall/model/expanded_conv/project/Conv2D_bn_offset"], "device": "/device:CPU:0", "attr": {"use_cudnn_on_gpu": {"b": true}, "T": {"type": "DT_FLOAT"}, "strides": {"list": {"i": ["1", "1", "1", "1"]}}, "num_args": {"i": "1"}, "fused_ops": {"list": {"s": ["Qmlhc0FkZA=="]}}, "explicit_paddings": {"list": {}}, "dilations": {"list": {"i": ["1", "1", "1", "1"]}}, "padding": {"s": "U0FNRQ=="}, "data_format": {"s": "TkhXQw=="}, "epsilon": {"f": 0.0}}}, {"name": "StatefulPartitionedCall/model/re_lu_3/Relu", "op": "_FusedConv2D", "input": ["StatefulPartitionedCall/model/expanded_conv/project/BatchNorm/FusedBatchNormV3", "StatefulPartitionedCall/model/expanded_conv_1/expand/Conv2D_weights", "StatefulPartitionedCall/model/expanded_conv_1/expand/Conv2D_bn_offset"], "device": "/device:CPU:0", "attr": {"num_args": {"i": "1"}, "dilations": {"list": {"i": ["1", "1", "1", "1"]}}, "explicit_paddings": {"list": {}}, "padding": {"s": "U0FNRQ=="}, "epsilon": {"f": 0.0}, "use_cudnn_on_gpu": {"b": true}, "fused_ops": {"list": {"s": ["Qmlhc0FkZA==", "UmVsdQ=="]}}, "strides": {"list": {"i": ["1", "1", "1", "1"]}}, "data_format": {"s": "TkhXQw=="}, "T": {"type": "DT_FLOAT"}}}, {"name": "StatefulPartitionedCall/model/expanded_conv_1/depthwise/pad/Pad", "op": "Pad", "input": ["StatefulPartitionedCall/model/re_lu_3/Relu", "StatefulPartitionedCall/model/expanded_conv_1/depthwise/pad/Pad/paddings"], "attr": {"Tpaddings": {"type": "DT_INT32"}, "T": {"type": "DT_FLOAT"}}}, {"name": "StatefulPartitionedCall/model/expanded_conv_1/depthwise/depthwise", "op": "FusedDepthwiseConv2dNative", "input": ["StatefulPartitionedCall/model/expanded_conv_1/depthwise/pad/Pad", "StatefulPartitionedCall/model/expanded_conv_1/depthwise/depthwise_weights", "StatefulPartitionedCall/model/expanded_conv_1/depthwise/depthwise_bn_offset"], "attr": {"fused_ops": {"list": {"s": ["Qmlhc0FkZA==", "UmVsdQ=="]}}, "padding": {"s": "VkFMSUQ="}, "strides": {"list": {"i": ["1", "2", "2", "1"]}}, "data_format": {"s": "TkhXQw=="}, "T": {"type": "DT_FLOAT"}, "num_args": {"i": "1"}, "dilations": {"list": {"i": ["1", "1", "1", "1"]}}, "explicit_paddings": {"list": {}}}}, {"name": "StatefulPartitionedCall/model/expanded_conv_1/project/BatchNorm/FusedBatchNormV3", "op": "_FusedConv2D", "input": ["StatefulPartitionedCall/model/expanded_conv_1/depthwise/depthwise", "StatefulPartitionedCall/model/expanded_conv_1/project/Conv2D_weights", "StatefulPartitionedCall/model/expanded_conv_1/project/Conv2D_bn_offset"], "device": "/device:CPU:0", "attr": {"num_args": {"i": "1"}, "fused_ops": {"list": {"s": ["Qmlhc0FkZA=="]}}, "dilations": {"list": {"i": ["1", "1", "1", "1"]}}, "use_cudnn_on_gpu": {"b": true}, "padding": {"s": "U0FNRQ=="}, "strides": {"list": {"i": ["1", "1", "1", "1"]}}, "T": {"type": "DT_FLOAT"}, "explicit_paddings": {"list": {}}, "data_format": {"s": "TkhXQw=="}, "epsilon": {"f": 0.0}}}, {"name": "StatefulPartitionedCall/model/re_lu_5/Relu", "op": "_FusedConv2D", "input": ["StatefulPartitionedCall/model/expanded_conv_1/project/BatchNorm/FusedBatchNormV3", "StatefulPartitionedCall/model/expanded_conv_2/expand/Conv2D_weights", "StatefulPartitionedCall/model/expanded_conv_2/expand/Conv2D_bn_offset"], "device": "/device:CPU:0", "attr": {"strides": {"list": {"i": ["1", "1", "1", "1"]}}, "T": {"type": "DT_FLOAT"}, "num_args": {"i": "1"}, "fused_ops": {"list": {"s": ["Qmlhc0FkZA==", "UmVsdQ=="]}}, "explicit_paddings": {"list": {}}, "use_cudnn_on_gpu": {"b": true}, "padding": {"s": "U0FNRQ=="}, "epsilon": {"f": 0.0}, "dilations": {"list": {"i": ["1", "1", "1", "1"]}}, "data_format": {"s": "TkhXQw=="}}}, {"name": "StatefulPartitionedCall/model/expanded_conv_2/depthwise/depthwise", "op": "FusedDepthwiseConv2dNative", "input": ["StatefulPartitionedCall/model/re_lu_5/Relu", "StatefulPartitionedCall/model/expanded_conv_2/depthwise/depthwise_weights", "StatefulPartitionedCall/model/expanded_conv_2/depthwise/depthwise_bn_offset"], "attr": {"strides": {"list": {"i": ["1", "1", "1", "1"]}}, "padding": {"s": "U0FNRQ=="}, "num_args": {"i": "1"}, "explicit_paddings": {"list": {}}, "fused_ops": {"list": {"s": ["Qmlhc0FkZA==", "UmVsdQ=="]}}, "dilations": {"list": {"i": ["1", "1", "1", "1"]}}, "T": {"type": "DT_FLOAT"}, "data_format": {"s": "TkhXQw=="}}}, {"name": "StatefulPartitionedCall/model/expanded_conv_2/project/BatchNorm/FusedBatchNormV3", "op": "_FusedConv2D", "input": ["StatefulPartitionedCall/model/expanded_conv_2/depthwise/depthwise", "StatefulPartitionedCall/model/expanded_conv_2/project/Conv2D_weights", "StatefulPartitionedCall/model/expanded_conv_2/project/Conv2D_bn_offset"], "device": "/device:CPU:0", "attr": {"dilations": {"list": {"i": ["1", "1", "1", "1"]}}, "padding": {"s": "U0FNRQ=="}, "fused_ops": {"list": {"s": ["Qmlhc0FkZA=="]}}, "epsilon": {"f": 0.0}, "use_cudnn_on_gpu": {"b": true}, "data_format": {"s": "TkhXQw=="}, "explicit_paddings": {"list": {}}, "strides": {"list": {"i": ["1", "1", "1", "1"]}}, "num_args": {"i": "1"}, "T": {"type": "DT_FLOAT"}}}, {"name": "StatefulPartitionedCall/model/expanded_conv_2/Add/add", "op": "AddV2", "input": ["StatefulPartitionedCall/model/expanded_conv_1/project/BatchNorm/FusedBatchNormV3", "StatefulPartitionedCall/model/expanded_conv_2/project/BatchNorm/FusedBatchNormV3"], "attr": {"T": {"type": "DT_FLOAT"}}}, {"name": "StatefulPartitionedCall/model/expanded_conv_3/expand/BatchNorm/FusedBatchNormV3", "op": "_FusedConv2D", "input": ["StatefulPartitionedCall/model/expanded_conv_2/Add/add", "StatefulPartitionedCall/model/expanded_conv_3/expand/Conv2D_weights", "StatefulPartitionedCall/model/expanded_conv_3/expand/Conv2D_bn_offset"], "device": "/device:CPU:0", "attr": {"padding": {"s": "U0FNRQ=="}, "num_args": {"i": "1"}, "T": {"type": "DT_FLOAT"}, "strides": {"list": {"i": ["1", "1", "1", "1"]}}, "epsilon": {"f": 0.0}, "fused_ops": {"list": {"s": ["Qmlhc0FkZA=="]}}, "use_cudnn_on_gpu": {"b": true}, "explicit_paddings": {"list": {}}, "dilations": {"list": {"i": ["1", "1", "1", "1"]}}, "data_format": {"s": "TkhXQw=="}}}, {"name": "StatefulPartitionedCall/model/tf.__operators__.add_2/AddV2", "op": "AddV2", "input": ["StatefulPartitionedCall/model/expanded_conv_3/expand/BatchNorm/FusedBatchNormV3", "StatefulPartitionedCall/model/tf.__operators__.add_2/y"], "attr": {"T": {"type": "DT_FLOAT"}}}, {"name": "StatefulPartitionedCall/model/re_lu_7/Relu6", "op": "Relu6", "input": ["StatefulPartitionedCall/model/tf.__operators__.add_2/AddV2"], "attr": {"T": {"type": "DT_FLOAT"}}}, {"name": "StatefulPartitionedCall/model/tf.math.multiply_2/Mul", "op": "Mul", "input": ["StatefulPartitionedCall/model/tf.math.multiply_2/Mul/y", "StatefulPartitionedCall/model/re_lu_7/Relu6"], "attr": {"T": {"type": "DT_FLOAT"}, "_grappler_ArithmeticOptimizer_MinimizeBroadcasts": {"b": true}}}, {"name": "StatefulPartitionedCall/model/multiply_1/mul", "op": "Mul", "input": ["StatefulPartitionedCall/model/tf.math.multiply_2/Mul", "StatefulPartitionedCall/model/expanded_conv_3/expand/BatchNorm/FusedBatchNormV3"], "attr": {"_grappler_ArithmeticOptimizer_MinimizeBroadcasts": {"b": true}, "T": {"type": "DT_FLOAT"}}}, {"name": "StatefulPartitionedCall/model/expanded_conv_3/depthwise/pad/Pad", "op": "Pad", "input": ["StatefulPartitionedCall/model/multiply_1/mul", "StatefulPartitionedCall/model/expanded_conv_3/depthwise/pad/Pad/paddings"], "attr": {"Tpaddings": {"type": "DT_INT32"}, "T": {"type": "DT_FLOAT"}}}, {"name": "StatefulPartitionedCall/model/expanded_conv_3/depthwise/depthwise", "op": "FusedDepthwiseConv2dNative", "input": ["StatefulPartitionedCall/model/expanded_conv_3/depthwise/pad/Pad", "StatefulPartitionedCall/model/expanded_conv_3/depthwise/depthwise_weights", "StatefulPartitionedCall/model/expanded_conv_3/depthwise/depthwise_bn_offset"], "attr": {"fused_ops": {"list": {"s": ["Qmlhc0FkZA=="]}}, "dilations": {"list": {"i": ["1", "1", "1", "1"]}}, "padding": {"s": "VkFMSUQ="}, "strides": {"list": {"i": ["1", "2", "2", "1"]}}, "data_format": {"s": "TkhXQw=="}, "explicit_paddings": {"list": {}}, "T": {"type": "DT_FLOAT"}, "num_args": {"i": "1"}}}, {"name": "StatefulPartitionedCall/model/tf.__operators__.add_3/AddV2", "op": "AddV2", "input": ["StatefulPartitionedCall/model/expanded_conv_3/depthwise/depthwise", "StatefulPartitionedCall/model/tf.__operators__.add_3/y"], "attr": {"T": {"type": "DT_FLOAT"}}}, {"name": "StatefulPartitionedCall/model/re_lu_8/Relu6", "op": "Relu6", "input": ["StatefulPartitionedCall/model/tf.__operators__.add_3/AddV2"], "attr": {"T": {"type": "DT_FLOAT"}}}, {"name": "StatefulPartitionedCall/model/tf.math.multiply_3/Mul", "op": "Mul", "input": ["StatefulPartitionedCall/model/tf.math.multiply_3/Mul/y", "StatefulPartitionedCall/model/re_lu_8/Relu6"], "attr": {"T": {"type": "DT_FLOAT"}, "_grappler_ArithmeticOptimizer_MinimizeBroadcasts": {"b": true}}}, {"name": "StatefulPartitionedCall/model/multiply_2/mul", "op": "Mul", "input": ["StatefulPartitionedCall/model/tf.math.multiply_3/Mul", "StatefulPartitionedCall/model/expanded_conv_3/depthwise/depthwise"], "attr": {"T": {"type": "DT_FLOAT"}, "_grappler_ArithmeticOptimizer_MinimizeBroadcasts": {"b": true}}}, {"name": "StatefulPartitionedCall/model/expanded_conv_3/squeeze_excite/AvgPool/Mean", "op": "Mean", "input": ["StatefulPartitionedCall/model/multiply_2/mul", "StatefulPartitionedCall/model/expanded_conv_3/squeeze_excite/AvgPool/Mean/reduction_indices"], "attr": {"Tidx": {"type": "DT_INT32"}, "T": {"type": "DT_FLOAT"}, "keep_dims": {"b": false}}}, {"name": "StatefulPartitionedCall/model/reshape_1/Shape", "op": "Shape", "input": ["StatefulPartitionedCall/model/expanded_conv_3/squeeze_excite/AvgPool/Mean"], "attr": {"out_type": {"type": "DT_INT32"}, "T": {"type": "DT_FLOAT"}}}, {"name": "StatefulPartitionedCall/model/reshape_1/strided_slice", "op": "StridedSlice", "input": ["StatefulPartitionedCall/model/reshape_1/Shape", "StatefulPartitionedCall/model/reshape_1/strided_slice/stack", "StatefulPartitionedCall/model/reshape_1/strided_slice/stack_1", "StatefulPartitionedCall/model/reshape_1/strided_slice/stack_2"], "attr": {"new_axis_mask": {"i": "0"}, "begin_mask": {"i": "0"}, "end_mask": {"i": "0"}, "shrink_axis_mask": {"i": "1"}, "T": {"type": "DT_INT32"}, "Index": {"type": "DT_INT32"}, "ellipsis_mask": {"i": "0"}}}, {"name": "StatefulPartitionedCall/model/reshape_1/Reshape/shape", "op": "Pack", "input": ["StatefulPartitionedCall/model/reshape_1/strided_slice", "StatefulPartitionedCall/model/reshape_1/Reshape/shape/1", "StatefulPartitionedCall/model/reshape_1/Reshape/shape/2", "StatefulPartitionedCall/model/reshape_1/Reshape/shape/3"], "attr": {"N": {"i": "4"}, "axis": {"i": "0"}, "T": {"type": "DT_INT32"}}}, {"name": "StatefulPartitionedCall/model/reshape_1/Reshape", "op": "Reshape", "input": ["StatefulPartitionedCall/model/expanded_conv_3/squeeze_excite/AvgPool/Mean", "StatefulPartitionedCall/model/reshape_1/Reshape/shape"], "attr": {"T": {"type": "DT_FLOAT"}, "Tshape": {"type": "DT_INT32"}}}, {"name": "StatefulPartitionedCall/model/expanded_conv_3/squeeze_excite/Relu/Relu", "op": "_FusedConv2D", "input": ["StatefulPartitionedCall/model/reshape_1/Reshape", "StatefulPartitionedCall/model/expanded_conv_3/squeeze_excite/Conv/Conv2D/ReadVariableOp", "StatefulPartitionedCall/model/expanded_conv_3/squeeze_excite/Conv/BiasAdd/ReadVariableOp"], "device": "/device:CPU:0", "attr": {"padding": {"s": "U0FNRQ=="}, "num_args": {"i": "1"}, "epsilon": {"f": 0.0}, "T": {"type": "DT_FLOAT"}, "dilations": {"list": {"i": ["1", "1", "1", "1"]}}, "strides": {"list": {"i": ["1", "1", "1", "1"]}}, "data_format": {"s": "TkhXQw=="}, "use_cudnn_on_gpu": {"b": true}, "explicit_paddings": {"list": {}}, "fused_ops": {"list": {"s": ["Qmlhc0FkZA==", "UmVsdQ=="]}}}}, {"name": "StatefulPartitionedCall/model/expanded_conv_3/squeeze_excite/Conv_1/BiasAdd", "op": "_FusedConv2D", "input": ["StatefulPartitionedCall/model/expanded_conv_3/squeeze_excite/Relu/Relu", "StatefulPartitionedCall/model/expanded_conv_3/squeeze_excite/Conv_1/Conv2D/ReadVariableOp", "StatefulPartitionedCall/model/expanded_conv_3/squeeze_excite/Conv_1/BiasAdd/ReadVariableOp"], "device": "/device:CPU:0", "attr": {"epsilon": {"f": 0.0}, "fused_ops": {"list": {"s": ["Qmlhc0FkZA=="]}}, "padding": {"s": "U0FNRQ=="}, "num_args": {"i": "1"}, "explicit_paddings": {"list": {}}, "T": {"type": "DT_FLOAT"}, "data_format": {"s": "TkhXQw=="}, "use_cudnn_on_gpu": {"b": true}, "strides": {"list": {"i": ["1", "1", "1", "1"]}}, "dilations": {"list": {"i": ["1", "1", "1", "1"]}}}}, {"name": "StatefulPartitionedCall/model/tf.__operators__.add_4/AddV2", "op": "AddV2", "input": ["StatefulPartitionedCall/model/expanded_conv_3/squeeze_excite/Conv_1/BiasAdd", "StatefulPartitionedCall/model/tf.__operators__.add_4/y"], "attr": {"T": {"type": "DT_FLOAT"}}}, {"name": "StatefulPartitionedCall/model/re_lu_9/Relu6", "op": "Relu6", "input": ["StatefulPartitionedCall/model/tf.__operators__.add_4/AddV2"], "attr": {"T": {"type": "DT_FLOAT"}}}, {"name": "StatefulPartitionedCall/model/tf.math.multiply_4/Mul", "op": "Mul", "input": ["StatefulPartitionedCall/model/tf.math.multiply_4/Mul/y", "StatefulPartitionedCall/model/re_lu_9/Relu6"], "attr": {"T": {"type": "DT_FLOAT"}, "_grappler_ArithmeticOptimizer_MinimizeBroadcasts": {"b": true}}}, {"name": "StatefulPartitionedCall/model/expanded_conv_3/squeeze_excite/Mul/mul", "op": "Mul", "input": ["StatefulPartitionedCall/model/tf.math.multiply_4/Mul", "StatefulPartitionedCall/model/multiply_2/mul"], "attr": {"_grappler_ArithmeticOptimizer_MinimizeBroadcasts": {"b": true}, "T": {"type": "DT_FLOAT"}}}, {"name": "StatefulPartitionedCall/model/expanded_conv_3/project/BatchNorm/FusedBatchNormV3", "op": "_FusedConv2D", "input": ["StatefulPartitionedCall/model/expanded_conv_3/squeeze_excite/Mul/mul", "StatefulPartitionedCall/model/expanded_conv_3/project/Conv2D_weights", "StatefulPartitionedCall/model/expanded_conv_3/project/Conv2D_bn_offset"], "device": "/device:CPU:0", "attr": {"data_format": {"s": "TkhXQw=="}, "T": {"type": "DT_FLOAT"}, "padding": {"s": "U0FNRQ=="}, "use_cudnn_on_gpu": {"b": true}, "dilations": {"list": {"i": ["1", "1", "1", "1"]}}, "explicit_paddings": {"list": {}}, "epsilon": {"f": 0.0}, "fused_ops": {"list": {"s": ["Qmlhc0FkZA=="]}}, "num_args": {"i": "1"}, "strides": {"list": {"i": ["1", "1", "1", "1"]}}}}, {"name": "StatefulPartitionedCall/model/expanded_conv_4/expand/BatchNorm/FusedBatchNormV3", "op": "_FusedConv2D", "input": ["StatefulPartitionedCall/model/expanded_conv_3/project/BatchNorm/FusedBatchNormV3", "StatefulPartitionedCall/model/expanded_conv_4/expand/Conv2D_weights", "StatefulPartitionedCall/model/expanded_conv_4/expand/Conv2D_bn_offset"], "device": "/device:CPU:0", "attr": {"strides": {"list": {"i": ["1", "1", "1", "1"]}}, "dilations": {"list": {"i": ["1", "1", "1", "1"]}}, "padding": {"s": "U0FNRQ=="}, "use_cudnn_on_gpu": {"b": true}, "T": {"type": "DT_FLOAT"}, "data_format": {"s": "TkhXQw=="}, "explicit_paddings": {"list": {}}, "epsilon": {"f": 0.0}, "num_args": {"i": "1"}, "fused_ops": {"list": {"s": ["Qmlhc0FkZA=="]}}}}, {"name": "StatefulPartitionedCall/model/tf.__operators__.add_5/AddV2", "op": "AddV2", "input": ["StatefulPartitionedCall/model/expanded_conv_4/expand/BatchNorm/FusedBatchNormV3", "StatefulPartitionedCall/model/tf.__operators__.add_5/y"], "attr": {"T": {"type": "DT_FLOAT"}}}, {"name": "StatefulPartitionedCall/model/re_lu_10/Relu6", "op": "Relu6", "input": ["StatefulPartitionedCall/model/tf.__operators__.add_5/AddV2"], "attr": {"T": {"type": "DT_FLOAT"}}}, {"name": "StatefulPartitionedCall/model/tf.math.multiply_5/Mul", "op": "Mul", "input": ["StatefulPartitionedCall/model/tf.math.multiply_5/Mul/y", "StatefulPartitionedCall/model/re_lu_10/Relu6"], "attr": {"_grappler_ArithmeticOptimizer_MinimizeBroadcasts": {"b": true}, "T": {"type": "DT_FLOAT"}}}, {"name": "StatefulPartitionedCall/model/multiply_3/mul", "op": "Mul", "input": ["StatefulPartitionedCall/model/tf.math.multiply_5/Mul", "StatefulPartitionedCall/model/expanded_conv_4/expand/BatchNorm/FusedBatchNormV3"], "attr": {"_grappler_ArithmeticOptimizer_MinimizeBroadcasts": {"b": true}, "T": {"type": "DT_FLOAT"}}}, {"name": "StatefulPartitionedCall/model/expanded_conv_4/depthwise/depthwise", "op": "FusedDepthwiseConv2dNative", "input": ["StatefulPartitionedCall/model/multiply_3/mul", "StatefulPartitionedCall/model/expanded_conv_4/depthwise/depthwise_weights", "StatefulPartitionedCall/model/expanded_conv_4/depthwise/depthwise_bn_offset"], "attr": {"data_format": {"s": "TkhXQw=="}, "padding": {"s": "U0FNRQ=="}, "explicit_paddings": {"list": {}}, "fused_ops": {"list": {"s": ["Qmlhc0FkZA=="]}}, "dilations": {"list": {"i": ["1", "1", "1", "1"]}}, "num_args": {"i": "1"}, "T": {"type": "DT_FLOAT"}, "strides": {"list": {"i": ["1", "1", "1", "1"]}}}}, {"name": "StatefulPartitionedCall/model/tf.__operators__.add_6/AddV2", "op": "AddV2", "input": ["StatefulPartitionedCall/model/expanded_conv_4/depthwise/depthwise", "StatefulPartitionedCall/model/tf.__operators__.add_6/y"], "attr": {"T": {"type": "DT_FLOAT"}}}, {"name": "StatefulPartitionedCall/model/re_lu_11/Relu6", "op": "Relu6", "input": ["StatefulPartitionedCall/model/tf.__operators__.add_6/AddV2"], "attr": {"T": {"type": "DT_FLOAT"}}}, {"name": "StatefulPartitionedCall/model/tf.math.multiply_6/Mul", "op": "Mul", "input": ["StatefulPartitionedCall/model/tf.math.multiply_6/Mul/y", "StatefulPartitionedCall/model/re_lu_11/Relu6"], "attr": {"_grappler_ArithmeticOptimizer_MinimizeBroadcasts": {"b": true}, "T": {"type": "DT_FLOAT"}}}, {"name": "StatefulPartitionedCall/model/multiply_4/mul", "op": "Mul", "input": ["StatefulPartitionedCall/model/tf.math.multiply_6/Mul", "StatefulPartitionedCall/model/expanded_conv_4/depthwise/depthwise"], "attr": {"T": {"type": "DT_FLOAT"}, "_grappler_ArithmeticOptimizer_MinimizeBroadcasts": {"b": true}}}, {"name": "StatefulPartitionedCall/model/expanded_conv_4/squeeze_excite/AvgPool/Mean", "op": "Mean", "input": ["StatefulPartitionedCall/model/multiply_4/mul", "StatefulPartitionedCall/model/expanded_conv_4/squeeze_excite/AvgPool/Mean/reduction_indices"], "attr": {"Tidx": {"type": "DT_INT32"}, "T": {"type": "DT_FLOAT"}, "keep_dims": {"b": false}}}, {"name": "StatefulPartitionedCall/model/reshape_2/Shape", "op": "Shape", "input": ["StatefulPartitionedCall/model/expanded_conv_4/squeeze_excite/AvgPool/Mean"], "attr": {"T": {"type": "DT_FLOAT"}, "out_type": {"type": "DT_INT32"}}}, {"name": "StatefulPartitionedCall/model/reshape_2/strided_slice", "op": "StridedSlice", "input": ["StatefulPartitionedCall/model/reshape_2/Shape", "StatefulPartitionedCall/model/reshape_2/strided_slice/stack", "StatefulPartitionedCall/model/reshape_2/strided_slice/stack_1", "StatefulPartitionedCall/model/reshape_2/strided_slice/stack_2"], "attr": {"new_axis_mask": {"i": "0"}, "end_mask": {"i": "0"}, "begin_mask": {"i": "0"}, "Index": {"type": "DT_INT32"}, "T": {"type": "DT_INT32"}, "ellipsis_mask": {"i": "0"}, "shrink_axis_mask": {"i": "1"}}}, {"name": "StatefulPartitionedCall/model/reshape_2/Reshape/shape", "op": "Pack", "input": ["StatefulPartitionedCall/model/reshape_2/strided_slice", "StatefulPartitionedCall/model/reshape_2/Reshape/shape/1", "StatefulPartitionedCall/model/reshape_2/Reshape/shape/2", "StatefulPartitionedCall/model/reshape_2/Reshape/shape/3"], "attr": {"T": {"type": "DT_INT32"}, "N": {"i": "4"}, "axis": {"i": "0"}}}, {"name": "StatefulPartitionedCall/model/reshape_2/Reshape", "op": "Reshape", "input": ["StatefulPartitionedCall/model/expanded_conv_4/squeeze_excite/AvgPool/Mean", "StatefulPartitionedCall/model/reshape_2/Reshape/shape"], "attr": {"T": {"type": "DT_FLOAT"}, "Tshape": {"type": "DT_INT32"}}}, {"name": "StatefulPartitionedCall/model/expanded_conv_4/squeeze_excite/Relu/Relu", "op": "_FusedConv2D", "input": ["StatefulPartitionedCall/model/reshape_2/Reshape", "StatefulPartitionedCall/model/expanded_conv_4/squeeze_excite/Conv/Conv2D/ReadVariableOp", "StatefulPartitionedCall/model/expanded_conv_4/squeeze_excite/Conv/BiasAdd/ReadVariableOp"], "device": "/device:CPU:0", "attr": {"T": {"type": "DT_FLOAT"}, "fused_ops": {"list": {"s": ["Qmlhc0FkZA==", "UmVsdQ=="]}}, "num_args": {"i": "1"}, "use_cudnn_on_gpu": {"b": true}, "data_format": {"s": "TkhXQw=="}, "dilations": {"list": {"i": ["1", "1", "1", "1"]}}, "explicit_paddings": {"list": {}}, "padding": {"s": "U0FNRQ=="}, "strides": {"list": {"i": ["1", "1", "1", "1"]}}, "epsilon": {"f": 0.0}}}, {"name": "StatefulPartitionedCall/model/expanded_conv_4/squeeze_excite/Conv_1/BiasAdd", "op": "_FusedConv2D", "input": ["StatefulPartitionedCall/model/expanded_conv_4/squeeze_excite/Relu/Relu", "StatefulPartitionedCall/model/expanded_conv_4/squeeze_excite/Conv_1/Conv2D/ReadVariableOp", "StatefulPartitionedCall/model/expanded_conv_4/squeeze_excite/Conv_1/BiasAdd/ReadVariableOp"], "device": "/device:CPU:0", "attr": {"T": {"type": "DT_FLOAT"}, "epsilon": {"f": 0.0}, "explicit_paddings": {"list": {}}, "data_format": {"s": "TkhXQw=="}, "strides": {"list": {"i": ["1", "1", "1", "1"]}}, "dilations": {"list": {"i": ["1", "1", "1", "1"]}}, "num_args": {"i": "1"}, "fused_ops": {"list": {"s": ["Qmlhc0FkZA=="]}}, "use_cudnn_on_gpu": {"b": true}, "padding": {"s": "U0FNRQ=="}}}, {"name": "StatefulPartitionedCall/model/tf.__operators__.add_7/AddV2", "op": "AddV2", "input": ["StatefulPartitionedCall/model/expanded_conv_4/squeeze_excite/Conv_1/BiasAdd", "StatefulPartitionedCall/model/tf.__operators__.add_7/y"], "attr": {"T": {"type": "DT_FLOAT"}}}, {"name": "StatefulPartitionedCall/model/re_lu_12/Relu6", "op": "Relu6", "input": ["StatefulPartitionedCall/model/tf.__operators__.add_7/AddV2"], "attr": {"T": {"type": "DT_FLOAT"}}}, {"name": "StatefulPartitionedCall/model/tf.math.multiply_7/Mul", "op": "Mul", "input": ["StatefulPartitionedCall/model/tf.math.multiply_7/Mul/y", "StatefulPartitionedCall/model/re_lu_12/Relu6"], "attr": {"_grappler_ArithmeticOptimizer_MinimizeBroadcasts": {"b": true}, "T": {"type": "DT_FLOAT"}}}, {"name": "StatefulPartitionedCall/model/expanded_conv_4/squeeze_excite/Mul/mul", "op": "Mul", "input": ["StatefulPartitionedCall/model/tf.math.multiply_7/Mul", "StatefulPartitionedCall/model/multiply_4/mul"], "attr": {"T": {"type": "DT_FLOAT"}, "_grappler_ArithmeticOptimizer_MinimizeBroadcasts": {"b": true}}}, {"name": "StatefulPartitionedCall/model/expanded_conv_4/project/BatchNorm/FusedBatchNormV3", "op": "_FusedConv2D", "input": ["StatefulPartitionedCall/model/expanded_conv_4/squeeze_excite/Mul/mul", "StatefulPartitionedCall/model/expanded_conv_4/project/Conv2D_weights", "StatefulPartitionedCall/model/expanded_conv_4/project/Conv2D_bn_offset"], "device": "/device:CPU:0", "attr": {"data_format": {"s": "TkhXQw=="}, "fused_ops": {"list": {"s": ["Qmlhc0FkZA=="]}}, "dilations": {"list": {"i": ["1", "1", "1", "1"]}}, "strides": {"list": {"i": ["1", "1", "1", "1"]}}, "use_cudnn_on_gpu": {"b": true}, "padding": {"s": "U0FNRQ=="}, "explicit_paddings": {"list": {}}, "T": {"type": "DT_FLOAT"}, "num_args": {"i": "1"}, "epsilon": {"f": 0.0}}}, {"name": "StatefulPartitionedCall/model/expanded_conv_4/Add/add", "op": "AddV2", "input": ["StatefulPartitionedCall/model/expanded_conv_3/project/BatchNorm/FusedBatchNormV3", "StatefulPartitionedCall/model/expanded_conv_4/project/BatchNorm/FusedBatchNormV3"], "attr": {"T": {"type": "DT_FLOAT"}}}, {"name": "StatefulPartitionedCall/model/expanded_conv_5/expand/BatchNorm/FusedBatchNormV3", "op": "_FusedConv2D", "input": ["StatefulPartitionedCall/model/expanded_conv_4/Add/add", "StatefulPartitionedCall/model/expanded_conv_5/expand/Conv2D_weights", "StatefulPartitionedCall/model/expanded_conv_5/expand/Conv2D_bn_offset"], "device": "/device:CPU:0", "attr": {"epsilon": {"f": 0.0}, "data_format": {"s": "TkhXQw=="}, "strides": {"list": {"i": ["1", "1", "1", "1"]}}, "num_args": {"i": "1"}, "T": {"type": "DT_FLOAT"}, "padding": {"s": "U0FNRQ=="}, "fused_ops": {"list": {"s": ["Qmlhc0FkZA=="]}}, "explicit_paddings": {"list": {}}, "dilations": {"list": {"i": ["1", "1", "1", "1"]}}, "use_cudnn_on_gpu": {"b": true}}}, {"name": "StatefulPartitionedCall/model/tf.__operators__.add_8/AddV2", "op": "AddV2", "input": ["StatefulPartitionedCall/model/expanded_conv_5/expand/BatchNorm/FusedBatchNormV3", "StatefulPartitionedCall/model/tf.__operators__.add_8/y"], "attr": {"T": {"type": "DT_FLOAT"}}}, {"name": "StatefulPartitionedCall/model/re_lu_13/Relu6", "op": "Relu6", "input": ["StatefulPartitionedCall/model/tf.__operators__.add_8/AddV2"], "attr": {"T": {"type": "DT_FLOAT"}}}, {"name": "StatefulPartitionedCall/model/tf.math.multiply_8/Mul", "op": "Mul", "input": ["StatefulPartitionedCall/model/tf.math.multiply_8/Mul/y", "StatefulPartitionedCall/model/re_lu_13/Relu6"], "attr": {"_grappler_ArithmeticOptimizer_MinimizeBroadcasts": {"b": true}, "T": {"type": "DT_FLOAT"}}}, {"name": "StatefulPartitionedCall/model/multiply_5/mul", "op": "Mul", "input": ["StatefulPartitionedCall/model/tf.math.multiply_8/Mul", "StatefulPartitionedCall/model/expanded_conv_5/expand/BatchNorm/FusedBatchNormV3"], "attr": {"_grappler_ArithmeticOptimizer_MinimizeBroadcasts": {"b": true}, "T": {"type": "DT_FLOAT"}}}, {"name": "StatefulPartitionedCall/model/expanded_conv_5/depthwise/depthwise", "op": "FusedDepthwiseConv2dNative", "input": ["StatefulPartitionedCall/model/multiply_5/mul", "StatefulPartitionedCall/model/expanded_conv_5/depthwise/depthwise_weights", "StatefulPartitionedCall/model/expanded_conv_5/depthwise/depthwise_bn_offset"], "attr": {"data_format": {"s": "TkhXQw=="}, "padding": {"s": "U0FNRQ=="}, "explicit_paddings": {"list": {}}, "strides": {"list": {"i": ["1", "1", "1", "1"]}}, "num_args": {"i": "1"}, "fused_ops": {"list": {"s": ["Qmlhc0FkZA=="]}}, "dilations": {"list": {"i": ["1", "1", "1", "1"]}}, "T": {"type": "DT_FLOAT"}}}, {"name": "StatefulPartitionedCall/model/tf.__operators__.add_9/AddV2", "op": "AddV2", "input": ["StatefulPartitionedCall/model/expanded_conv_5/depthwise/depthwise", "StatefulPartitionedCall/model/tf.__operators__.add_9/y"], "attr": {"T": {"type": "DT_FLOAT"}}}, {"name": "StatefulPartitionedCall/model/re_lu_14/Relu6", "op": "Relu6", "input": ["StatefulPartitionedCall/model/tf.__operators__.add_9/AddV2"], "attr": {"T": {"type": "DT_FLOAT"}}}, {"name": "StatefulPartitionedCall/model/tf.math.multiply_9/Mul", "op": "Mul", "input": ["StatefulPartitionedCall/model/tf.math.multiply_9/Mul/y", "StatefulPartitionedCall/model/re_lu_14/Relu6"], "attr": {"_grappler_ArithmeticOptimizer_MinimizeBroadcasts": {"b": true}, "T": {"type": "DT_FLOAT"}}}, {"name": "StatefulPartitionedCall/model/multiply_6/mul", "op": "Mul", "input": ["StatefulPartitionedCall/model/tf.math.multiply_9/Mul", "StatefulPartitionedCall/model/expanded_conv_5/depthwise/depthwise"], "attr": {"_grappler_ArithmeticOptimizer_MinimizeBroadcasts": {"b": true}, "T": {"type": "DT_FLOAT"}}}, {"name": "StatefulPartitionedCall/model/expanded_conv_5/squeeze_excite/AvgPool/Mean", "op": "Mean", "input": ["StatefulPartitionedCall/model/multiply_6/mul", "StatefulPartitionedCall/model/expanded_conv_5/squeeze_excite/AvgPool/Mean/reduction_indices"], "attr": {"Tidx": {"type": "DT_INT32"}, "T": {"type": "DT_FLOAT"}, "keep_dims": {"b": false}}}, {"name": "StatefulPartitionedCall/model/reshape_3/Shape", "op": "Shape", "input": ["StatefulPartitionedCall/model/expanded_conv_5/squeeze_excite/AvgPool/Mean"], "attr": {"T": {"type": "DT_FLOAT"}, "out_type": {"type": "DT_INT32"}}}, {"name": "StatefulPartitionedCall/model/reshape_3/strided_slice", "op": "StridedSlice", "input": ["StatefulPartitionedCall/model/reshape_3/Shape", "StatefulPartitionedCall/model/reshape_3/strided_slice/stack", "StatefulPartitionedCall/model/reshape_3/strided_slice/stack_1", "StatefulPartitionedCall/model/reshape_3/strided_slice/stack_2"], "attr": {"end_mask": {"i": "0"}, "begin_mask": {"i": "0"}, "T": {"type": "DT_INT32"}, "Index": {"type": "DT_INT32"}, "shrink_axis_mask": {"i": "1"}, "new_axis_mask": {"i": "0"}, "ellipsis_mask": {"i": "0"}}}, {"name": "StatefulPartitionedCall/model/reshape_3/Reshape/shape", "op": "Pack", "input": ["StatefulPartitionedCall/model/reshape_3/strided_slice", "StatefulPartitionedCall/model/reshape_3/Reshape/shape/1", "StatefulPartitionedCall/model/reshape_3/Reshape/shape/2", "StatefulPartitionedCall/model/reshape_3/Reshape/shape/3"], "attr": {"N": {"i": "4"}, "T": {"type": "DT_INT32"}, "axis": {"i": "0"}}}, {"name": "StatefulPartitionedCall/model/reshape_3/Reshape", "op": "Reshape", "input": ["StatefulPartitionedCall/model/expanded_conv_5/squeeze_excite/AvgPool/Mean", "StatefulPartitionedCall/model/reshape_3/Reshape/shape"], "attr": {"Tshape": {"type": "DT_INT32"}, "T": {"type": "DT_FLOAT"}}}, {"name": "StatefulPartitionedCall/model/expanded_conv_5/squeeze_excite/Relu/Relu", "op": "_FusedConv2D", "input": ["StatefulPartitionedCall/model/reshape_3/Reshape", "StatefulPartitionedCall/model/expanded_conv_5/squeeze_excite/Conv/Conv2D/ReadVariableOp", "StatefulPartitionedCall/model/expanded_conv_5/squeeze_excite/Conv/BiasAdd/ReadVariableOp"], "device": "/device:CPU:0", "attr": {"strides": {"list": {"i": ["1", "1", "1", "1"]}}, "num_args": {"i": "1"}, "padding": {"s": "U0FNRQ=="}, "use_cudnn_on_gpu": {"b": true}, "epsilon": {"f": 0.0}, "data_format": {"s": "TkhXQw=="}, "explicit_paddings": {"list": {}}, "dilations": {"list": {"i": ["1", "1", "1", "1"]}}, "T": {"type": "DT_FLOAT"}, "fused_ops": {"list": {"s": ["Qmlhc0FkZA==", "UmVsdQ=="]}}}}, {"name": "StatefulPartitionedCall/model/expanded_conv_5/squeeze_excite/Conv_1/BiasAdd", "op": "_FusedConv2D", "input": ["StatefulPartitionedCall/model/expanded_conv_5/squeeze_excite/Relu/Relu", "StatefulPartitionedCall/model/expanded_conv_5/squeeze_excite/Conv_1/Conv2D/ReadVariableOp", "StatefulPartitionedCall/model/expanded_conv_5/squeeze_excite/Conv_1/BiasAdd/ReadVariableOp"], "device": "/device:CPU:0", "attr": {"num_args": {"i": "1"}, "padding": {"s": "U0FNRQ=="}, "T": {"type": "DT_FLOAT"}, "epsilon": {"f": 0.0}, "strides": {"list": {"i": ["1", "1", "1", "1"]}}, "dilations": {"list": {"i": ["1", "1", "1", "1"]}}, "fused_ops": {"list": {"s": ["Qmlhc0FkZA=="]}}, "use_cudnn_on_gpu": {"b": true}, "explicit_paddings": {"list": {}}, "data_format": {"s": "TkhXQw=="}}}, {"name": "StatefulPartitionedCall/model/tf.__operators__.add_10/AddV2", "op": "AddV2", "input": ["StatefulPartitionedCall/model/expanded_conv_5/squeeze_excite/Conv_1/BiasAdd", "StatefulPartitionedCall/model/tf.__operators__.add_10/y"], "attr": {"T": {"type": "DT_FLOAT"}}}, {"name": "StatefulPartitionedCall/model/re_lu_15/Relu6", "op": "Relu6", "input": ["StatefulPartitionedCall/model/tf.__operators__.add_10/AddV2"], "attr": {"T": {"type": "DT_FLOAT"}}}, {"name": "StatefulPartitionedCall/model/tf.math.multiply_10/Mul", "op": "Mul", "input": ["StatefulPartitionedCall/model/tf.math.multiply_10/Mul/y", "StatefulPartitionedCall/model/re_lu_15/Relu6"], "attr": {"_grappler_ArithmeticOptimizer_MinimizeBroadcasts": {"b": true}, "T": {"type": "DT_FLOAT"}}}, {"name": "StatefulPartitionedCall/model/expanded_conv_5/squeeze_excite/Mul/mul", "op": "Mul", "input": ["StatefulPartitionedCall/model/tf.math.multiply_10/Mul", "StatefulPartitionedCall/model/multiply_6/mul"], "attr": {"T": {"type": "DT_FLOAT"}, "_grappler_ArithmeticOptimizer_MinimizeBroadcasts": {"b": true}}}, {"name": "StatefulPartitionedCall/model/expanded_conv_5/project/BatchNorm/FusedBatchNormV3", "op": "_FusedConv2D", "input": ["StatefulPartitionedCall/model/expanded_conv_5/squeeze_excite/Mul/mul", "StatefulPartitionedCall/model/expanded_conv_5/project/Conv2D_weights", "StatefulPartitionedCall/model/expanded_conv_5/project/Conv2D_bn_offset"], "device": "/device:CPU:0", "attr": {"padding": {"s": "U0FNRQ=="}, "num_args": {"i": "1"}, "strides": {"list": {"i": ["1", "1", "1", "1"]}}, "fused_ops": {"list": {"s": ["Qmlhc0FkZA=="]}}, "epsilon": {"f": 0.0}, "use_cudnn_on_gpu": {"b": true}, "explicit_paddings": {"list": {}}, "dilations": {"list": {"i": ["1", "1", "1", "1"]}}, "data_format": {"s": "TkhXQw=="}, "T": {"type": "DT_FLOAT"}}}, {"name": "StatefulPartitionedCall/model/expanded_conv_5/Add/add", "op": "AddV2", "input": ["StatefulPartitionedCall/model/expanded_conv_4/Add/add", "StatefulPartitionedCall/model/expanded_conv_5/project/BatchNorm/FusedBatchNormV3"], "attr": {"T": {"type": "DT_FLOAT"}}}, {"name": "StatefulPartitionedCall/model/expanded_conv_6/expand/BatchNorm/FusedBatchNormV3", "op": "_FusedConv2D", "input": ["StatefulPartitionedCall/model/expanded_conv_5/Add/add", "StatefulPartitionedCall/model/expanded_conv_6/expand/Conv2D_weights", "StatefulPartitionedCall/model/expanded_conv_6/expand/Conv2D_bn_offset"], "device": "/device:CPU:0", "attr": {"use_cudnn_on_gpu": {"b": true}, "data_format": {"s": "TkhXQw=="}, "epsilon": {"f": 0.0}, "padding": {"s": "U0FNRQ=="}, "strides": {"list": {"i": ["1", "1", "1", "1"]}}, "num_args": {"i": "1"}, "T": {"type": "DT_FLOAT"}, "explicit_paddings": {"list": {}}, "dilations": {"list": {"i": ["1", "1", "1", "1"]}}, "fused_ops": {"list": {"s": ["Qmlhc0FkZA=="]}}}}, {"name": "StatefulPartitionedCall/model/tf.__operators__.add_11/AddV2", "op": "AddV2", "input": ["StatefulPartitionedCall/model/expanded_conv_6/expand/BatchNorm/FusedBatchNormV3", "StatefulPartitionedCall/model/tf.__operators__.add_11/y"], "attr": {"T": {"type": "DT_FLOAT"}}}, {"name": "StatefulPartitionedCall/model/re_lu_16/Relu6", "op": "Relu6", "input": ["StatefulPartitionedCall/model/tf.__operators__.add_11/AddV2"], "attr": {"T": {"type": "DT_FLOAT"}}}, {"name": "StatefulPartitionedCall/model/tf.math.multiply_11/Mul", "op": "Mul", "input": ["StatefulPartitionedCall/model/tf.math.multiply_11/Mul/y", "StatefulPartitionedCall/model/re_lu_16/Relu6"], "attr": {"_grappler_ArithmeticOptimizer_MinimizeBroadcasts": {"b": true}, "T": {"type": "DT_FLOAT"}}}, {"name": "StatefulPartitionedCall/model/multiply_7/mul", "op": "Mul", "input": ["StatefulPartitionedCall/model/tf.math.multiply_11/Mul", "StatefulPartitionedCall/model/expanded_conv_6/expand/BatchNorm/FusedBatchNormV3"], "attr": {"T": {"type": "DT_FLOAT"}, "_grappler_ArithmeticOptimizer_MinimizeBroadcasts": {"b": true}}}, {"name": "StatefulPartitionedCall/model/expanded_conv_6/depthwise/depthwise", "op": "FusedDepthwiseConv2dNative", "input": ["StatefulPartitionedCall/model/multiply_7/mul", "StatefulPartitionedCall/model/expanded_conv_6/depthwise/depthwise_weights", "StatefulPartitionedCall/model/expanded_conv_6/depthwise/depthwise_bn_offset"], "attr": {"data_format": {"s": "TkhXQw=="}, "padding": {"s": "U0FNRQ=="}, "explicit_paddings": {"list": {}}, "num_args": {"i": "1"}, "strides": {"list": {"i": ["1", "1", "1", "1"]}}, "fused_ops": {"list": {"s": ["Qmlhc0FkZA=="]}}, "T": {"type": "DT_FLOAT"}, "dilations": {"list": {"i": ["1", "1", "1", "1"]}}}}, {"name": "StatefulPartitionedCall/model/tf.__operators__.add_12/AddV2", "op": "AddV2", "input": ["StatefulPartitionedCall/model/expanded_conv_6/depthwise/depthwise", "StatefulPartitionedCall/model/tf.__operators__.add_12/y"], "attr": {"T": {"type": "DT_FLOAT"}}}, {"name": "StatefulPartitionedCall/model/re_lu_17/Relu6", "op": "Relu6", "input": ["StatefulPartitionedCall/model/tf.__operators__.add_12/AddV2"], "attr": {"T": {"type": "DT_FLOAT"}}}, {"name": "StatefulPartitionedCall/model/tf.math.multiply_12/Mul", "op": "Mul", "input": ["StatefulPartitionedCall/model/tf.math.multiply_12/Mul/y", "StatefulPartitionedCall/model/re_lu_17/Relu6"], "attr": {"_grappler_ArithmeticOptimizer_MinimizeBroadcasts": {"b": true}, "T": {"type": "DT_FLOAT"}}}, {"name": "StatefulPartitionedCall/model/multiply_8/mul", "op": "Mul", "input": ["StatefulPartitionedCall/model/tf.math.multiply_12/Mul", "StatefulPartitionedCall/model/expanded_conv_6/depthwise/depthwise"], "attr": {"T": {"type": "DT_FLOAT"}, "_grappler_ArithmeticOptimizer_MinimizeBroadcasts": {"b": true}}}, {"name": "StatefulPartitionedCall/model/expanded_conv_6/squeeze_excite/AvgPool/Mean", "op": "Mean", "input": ["StatefulPartitionedCall/model/multiply_8/mul", "StatefulPartitionedCall/model/expanded_conv_6/squeeze_excite/AvgPool/Mean/reduction_indices"], "attr": {"keep_dims": {"b": false}, "Tidx": {"type": "DT_INT32"}, "T": {"type": "DT_FLOAT"}}}, {"name": "StatefulPartitionedCall/model/reshape_4/Shape", "op": "Shape", "input": ["StatefulPartitionedCall/model/expanded_conv_6/squeeze_excite/AvgPool/Mean"], "attr": {"out_type": {"type": "DT_INT32"}, "T": {"type": "DT_FLOAT"}}}, {"name": "StatefulPartitionedCall/model/reshape_4/strided_slice", "op": "StridedSlice", "input": ["StatefulPartitionedCall/model/reshape_4/Shape", "StatefulPartitionedCall/model/reshape_4/strided_slice/stack", "StatefulPartitionedCall/model/reshape_4/strided_slice/stack_1", "StatefulPartitionedCall/model/reshape_4/strided_slice/stack_2"], "attr": {"T": {"type": "DT_INT32"}, "new_axis_mask": {"i": "0"}, "begin_mask": {"i": "0"}, "end_mask": {"i": "0"}, "ellipsis_mask": {"i": "0"}, "Index": {"type": "DT_INT32"}, "shrink_axis_mask": {"i": "1"}}}, {"name": "StatefulPartitionedCall/model/reshape_4/Reshape/shape", "op": "Pack", "input": ["StatefulPartitionedCall/model/reshape_4/strided_slice", "StatefulPartitionedCall/model/reshape_4/Reshape/shape/1", "StatefulPartitionedCall/model/reshape_4/Reshape/shape/2", "StatefulPartitionedCall/model/reshape_4/Reshape/shape/3"], "attr": {"axis": {"i": "0"}, "N": {"i": "4"}, "T": {"type": "DT_INT32"}}}, {"name": "StatefulPartitionedCall/model/reshape_4/Reshape", "op": "Reshape", "input": ["StatefulPartitionedCall/model/expanded_conv_6/squeeze_excite/AvgPool/Mean", "StatefulPartitionedCall/model/reshape_4/Reshape/shape"], "attr": {"Tshape": {"type": "DT_INT32"}, "T": {"type": "DT_FLOAT"}}}, {"name": "StatefulPartitionedCall/model/expanded_conv_6/squeeze_excite/Relu/Relu", "op": "_FusedConv2D", "input": ["StatefulPartitionedCall/model/reshape_4/Reshape", "StatefulPartitionedCall/model/expanded_conv_6/squeeze_excite/Conv/Conv2D/ReadVariableOp", "StatefulPartitionedCall/model/expanded_conv_6/squeeze_excite/Conv/BiasAdd/ReadVariableOp"], "device": "/device:CPU:0", "attr": {"fused_ops": {"list": {"s": ["Qmlhc0FkZA==", "UmVsdQ=="]}}, "num_args": {"i": "1"}, "use_cudnn_on_gpu": {"b": true}, "T": {"type": "DT_FLOAT"}, "explicit_paddings": {"list": {}}, "padding": {"s": "U0FNRQ=="}, "data_format": {"s": "TkhXQw=="}, "dilations": {"list": {"i": ["1", "1", "1", "1"]}}, "strides": {"list": {"i": ["1", "1", "1", "1"]}}, "epsilon": {"f": 0.0}}}, {"name": "StatefulPartitionedCall/model/expanded_conv_6/squeeze_excite/Conv_1/BiasAdd", "op": "_FusedConv2D", "input": ["StatefulPartitionedCall/model/expanded_conv_6/squeeze_excite/Relu/Relu", "StatefulPartitionedCall/model/expanded_conv_6/squeeze_excite/Conv_1/Conv2D/ReadVariableOp", "StatefulPartitionedCall/model/expanded_conv_6/squeeze_excite/Conv_1/BiasAdd/ReadVariableOp"], "device": "/device:CPU:0", "attr": {"use_cudnn_on_gpu": {"b": true}, "T": {"type": "DT_FLOAT"}, "num_args": {"i": "1"}, "strides": {"list": {"i": ["1", "1", "1", "1"]}}, "dilations": {"list": {"i": ["1", "1", "1", "1"]}}, "epsilon": {"f": 0.0}, "padding": {"s": "U0FNRQ=="}, "fused_ops": {"list": {"s": ["Qmlhc0FkZA=="]}}, "explicit_paddings": {"list": {}}, "data_format": {"s": "TkhXQw=="}}}, {"name": "StatefulPartitionedCall/model/tf.__operators__.add_13/AddV2", "op": "AddV2", "input": ["StatefulPartitionedCall/model/expanded_conv_6/squeeze_excite/Conv_1/BiasAdd", "StatefulPartitionedCall/model/tf.__operators__.add_13/y"], "attr": {"T": {"type": "DT_FLOAT"}}}, {"name": "StatefulPartitionedCall/model/re_lu_18/Relu6", "op": "Relu6", "input": ["StatefulPartitionedCall/model/tf.__operators__.add_13/AddV2"], "attr": {"T": {"type": "DT_FLOAT"}}}, {"name": "StatefulPartitionedCall/model/tf.math.multiply_13/Mul", "op": "Mul", "input": ["StatefulPartitionedCall/model/tf.math.multiply_13/Mul/y", "StatefulPartitionedCall/model/re_lu_18/Relu6"], "attr": {"T": {"type": "DT_FLOAT"}, "_grappler_ArithmeticOptimizer_MinimizeBroadcasts": {"b": true}}}, {"name": "StatefulPartitionedCall/model/expanded_conv_6/squeeze_excite/Mul/mul", "op": "Mul", "input": ["StatefulPartitionedCall/model/tf.math.multiply_13/Mul", "StatefulPartitionedCall/model/multiply_8/mul"], "attr": {"T": {"type": "DT_FLOAT"}, "_grappler_ArithmeticOptimizer_MinimizeBroadcasts": {"b": true}}}, {"name": "StatefulPartitionedCall/model/expanded_conv_6/project/BatchNorm/FusedBatchNormV3", "op": "_FusedConv2D", "input": ["StatefulPartitionedCall/model/expanded_conv_6/squeeze_excite/Mul/mul", "StatefulPartitionedCall/model/expanded_conv_6/project/Conv2D_weights", "StatefulPartitionedCall/model/expanded_conv_6/project/Conv2D_bn_offset"], "device": "/device:CPU:0", "attr": {"strides": {"list": {"i": ["1", "1", "1", "1"]}}, "padding": {"s": "U0FNRQ=="}, "T": {"type": "DT_FLOAT"}, "num_args": {"i": "1"}, "fused_ops": {"list": {"s": ["Qmlhc0FkZA=="]}}, "explicit_paddings": {"list": {}}, "use_cudnn_on_gpu": {"b": true}, "epsilon": {"f": 0.0}, "dilations": {"list": {"i": ["1", "1", "1", "1"]}}, "data_format": {"s": "TkhXQw=="}}}, {"name": "StatefulPartitionedCall/model/expanded_conv_7/expand/BatchNorm/FusedBatchNormV3", "op": "_FusedConv2D", "input": ["StatefulPartitionedCall/model/expanded_conv_6/project/BatchNorm/FusedBatchNormV3", "StatefulPartitionedCall/model/expanded_conv_7/expand/Conv2D_weights", "StatefulPartitionedCall/model/expanded_conv_7/expand/Conv2D_bn_offset"], "device": "/device:CPU:0", "attr": {"dilations": {"list": {"i": ["1", "1", "1", "1"]}}, "data_format": {"s": "TkhXQw=="}, "fused_ops": {"list": {"s": ["Qmlhc0FkZA=="]}}, "num_args": {"i": "1"}, "explicit_paddings": {"list": {}}, "use_cudnn_on_gpu": {"b": true}, "T": {"type": "DT_FLOAT"}, "epsilon": {"f": 0.0}, "padding": {"s": "U0FNRQ=="}, "strides": {"list": {"i": ["1", "1", "1", "1"]}}}}, {"name": "StatefulPartitionedCall/model/tf.__operators__.add_14/AddV2", "op": "AddV2", "input": ["StatefulPartitionedCall/model/expanded_conv_7/expand/BatchNorm/FusedBatchNormV3", "StatefulPartitionedCall/model/tf.__operators__.add_14/y"], "attr": {"T": {"type": "DT_FLOAT"}}}, {"name": "StatefulPartitionedCall/model/re_lu_19/Relu6", "op": "Relu6", "input": ["StatefulPartitionedCall/model/tf.__operators__.add_14/AddV2"], "attr": {"T": {"type": "DT_FLOAT"}}}, {"name": "StatefulPartitionedCall/model/tf.math.multiply_14/Mul", "op": "Mul", "input": ["StatefulPartitionedCall/model/tf.math.multiply_14/Mul/y", "StatefulPartitionedCall/model/re_lu_19/Relu6"], "attr": {"T": {"type": "DT_FLOAT"}, "_grappler_ArithmeticOptimizer_MinimizeBroadcasts": {"b": true}}}, {"name": "StatefulPartitionedCall/model/multiply_9/mul", "op": "Mul", "input": ["StatefulPartitionedCall/model/tf.math.multiply_14/Mul", "StatefulPartitionedCall/model/expanded_conv_7/expand/BatchNorm/FusedBatchNormV3"], "attr": {"T": {"type": "DT_FLOAT"}, "_grappler_ArithmeticOptimizer_MinimizeBroadcasts": {"b": true}}}, {"name": "StatefulPartitionedCall/model/expanded_conv_7/depthwise/depthwise", "op": "FusedDepthwiseConv2dNative", "input": ["StatefulPartitionedCall/model/multiply_9/mul", "StatefulPartitionedCall/model/expanded_conv_7/depthwise/depthwise_weights", "StatefulPartitionedCall/model/expanded_conv_7/depthwise/depthwise_bn_offset"], "attr": {"strides": {"list": {"i": ["1", "1", "1", "1"]}}, "T": {"type": "DT_FLOAT"}, "padding": {"s": "U0FNRQ=="}, "data_format": {"s": "TkhXQw=="}, "num_args": {"i": "1"}, "dilations": {"list": {"i": ["1", "1", "1", "1"]}}, "explicit_paddings": {"list": {}}, "fused_ops": {"list": {"s": ["Qmlhc0FkZA=="]}}}}, {"name": "StatefulPartitionedCall/model/tf.__operators__.add_15/AddV2", "op": "AddV2", "input": ["StatefulPartitionedCall/model/expanded_conv_7/depthwise/depthwise", "StatefulPartitionedCall/model/tf.__operators__.add_15/y"], "attr": {"T": {"type": "DT_FLOAT"}}}, {"name": "StatefulPartitionedCall/model/re_lu_20/Relu6", "op": "Relu6", "input": ["StatefulPartitionedCall/model/tf.__operators__.add_15/AddV2"], "attr": {"T": {"type": "DT_FLOAT"}}}, {"name": "StatefulPartitionedCall/model/tf.math.multiply_15/Mul", "op": "Mul", "input": ["StatefulPartitionedCall/model/tf.math.multiply_15/Mul/y", "StatefulPartitionedCall/model/re_lu_20/Relu6"], "attr": {"T": {"type": "DT_FLOAT"}, "_grappler_ArithmeticOptimizer_MinimizeBroadcasts": {"b": true}}}, {"name": "StatefulPartitionedCall/model/multiply_10/mul", "op": "Mul", "input": ["StatefulPartitionedCall/model/tf.math.multiply_15/Mul", "StatefulPartitionedCall/model/expanded_conv_7/depthwise/depthwise"], "attr": {"_grappler_ArithmeticOptimizer_MinimizeBroadcasts": {"b": true}, "T": {"type": "DT_FLOAT"}}}, {"name": "StatefulPartitionedCall/model/expanded_conv_7/squeeze_excite/AvgPool/Mean", "op": "Mean", "input": ["StatefulPartitionedCall/model/multiply_10/mul", "StatefulPartitionedCall/model/expanded_conv_7/squeeze_excite/AvgPool/Mean/reduction_indices"], "attr": {"T": {"type": "DT_FLOAT"}, "keep_dims": {"b": false}, "Tidx": {"type": "DT_INT32"}}}, {"name": "StatefulPartitionedCall/model/reshape_5/Shape", "op": "Shape", "input": ["StatefulPartitionedCall/model/expanded_conv_7/squeeze_excite/AvgPool/Mean"], "attr": {"out_type": {"type": "DT_INT32"}, "T": {"type": "DT_FLOAT"}}}, {"name": "StatefulPartitionedCall/model/reshape_5/strided_slice", "op": "StridedSlice", "input": ["StatefulPartitionedCall/model/reshape_5/Shape", "StatefulPartitionedCall/model/reshape_5/strided_slice/stack", "StatefulPartitionedCall/model/reshape_5/strided_slice/stack_1", "StatefulPartitionedCall/model/reshape_5/strided_slice/stack_2"], "attr": {"end_mask": {"i": "0"}, "new_axis_mask": {"i": "0"}, "begin_mask": {"i": "0"}, "Index": {"type": "DT_INT32"}, "T": {"type": "DT_INT32"}, "shrink_axis_mask": {"i": "1"}, "ellipsis_mask": {"i": "0"}}}, {"name": "StatefulPartitionedCall/model/reshape_5/Reshape/shape", "op": "Pack", "input": ["StatefulPartitionedCall/model/reshape_5/strided_slice", "StatefulPartitionedCall/model/reshape_5/Reshape/shape/1", "StatefulPartitionedCall/model/reshape_5/Reshape/shape/2", "StatefulPartitionedCall/model/reshape_5/Reshape/shape/3"], "attr": {"T": {"type": "DT_INT32"}, "axis": {"i": "0"}, "N": {"i": "4"}}}, {"name": "StatefulPartitionedCall/model/reshape_5/Reshape", "op": "Reshape", "input": ["StatefulPartitionedCall/model/expanded_conv_7/squeeze_excite/AvgPool/Mean", "StatefulPartitionedCall/model/reshape_5/Reshape/shape"], "attr": {"Tshape": {"type": "DT_INT32"}, "T": {"type": "DT_FLOAT"}}}, {"name": "StatefulPartitionedCall/model/expanded_conv_7/squeeze_excite/Relu/Relu", "op": "_FusedConv2D", "input": ["StatefulPartitionedCall/model/reshape_5/Reshape", "StatefulPartitionedCall/model/expanded_conv_7/squeeze_excite/Conv/Conv2D/ReadVariableOp", "StatefulPartitionedCall/model/expanded_conv_7/squeeze_excite/Conv/BiasAdd/ReadVariableOp"], "device": "/device:CPU:0", "attr": {"T": {"type": "DT_FLOAT"}, "fused_ops": {"list": {"s": ["Qmlhc0FkZA==", "UmVsdQ=="]}}, "num_args": {"i": "1"}, "padding": {"s": "U0FNRQ=="}, "explicit_paddings": {"list": {}}, "use_cudnn_on_gpu": {"b": true}, "epsilon": {"f": 0.0}, "data_format": {"s": "TkhXQw=="}, "dilations": {"list": {"i": ["1", "1", "1", "1"]}}, "strides": {"list": {"i": ["1", "1", "1", "1"]}}}}, {"name": "StatefulPartitionedCall/model/expanded_conv_7/squeeze_excite/Conv_1/BiasAdd", "op": "_FusedConv2D", "input": ["StatefulPartitionedCall/model/expanded_conv_7/squeeze_excite/Relu/Relu", "StatefulPartitionedCall/model/expanded_conv_7/squeeze_excite/Conv_1/Conv2D/ReadVariableOp", "StatefulPartitionedCall/model/expanded_conv_7/squeeze_excite/Conv_1/BiasAdd/ReadVariableOp"], "device": "/device:CPU:0", "attr": {"data_format": {"s": "TkhXQw=="}, "explicit_paddings": {"list": {}}, "num_args": {"i": "1"}, "dilations": {"list": {"i": ["1", "1", "1", "1"]}}, "strides": {"list": {"i": ["1", "1", "1", "1"]}}, "T": {"type": "DT_FLOAT"}, "fused_ops": {"list": {"s": ["Qmlhc0FkZA=="]}}, "padding": {"s": "U0FNRQ=="}, "epsilon": {"f": 0.0}, "use_cudnn_on_gpu": {"b": true}}}, {"name": "StatefulPartitionedCall/model/tf.__operators__.add_16/AddV2", "op": "AddV2", "input": ["StatefulPartitionedCall/model/expanded_conv_7/squeeze_excite/Conv_1/BiasAdd", "StatefulPartitionedCall/model/tf.__operators__.add_16/y"], "attr": {"T": {"type": "DT_FLOAT"}}}, {"name": "StatefulPartitionedCall/model/re_lu_21/Relu6", "op": "Relu6", "input": ["StatefulPartitionedCall/model/tf.__operators__.add_16/AddV2"], "attr": {"T": {"type": "DT_FLOAT"}}}, {"name": "StatefulPartitionedCall/model/tf.math.multiply_16/Mul", "op": "Mul", "input": ["StatefulPartitionedCall/model/tf.math.multiply_16/Mul/y", "StatefulPartitionedCall/model/re_lu_21/Relu6"], "attr": {"_grappler_ArithmeticOptimizer_MinimizeBroadcasts": {"b": true}, "T": {"type": "DT_FLOAT"}}}, {"name": "StatefulPartitionedCall/model/expanded_conv_7/squeeze_excite/Mul/mul", "op": "Mul", "input": ["StatefulPartitionedCall/model/tf.math.multiply_16/Mul", "StatefulPartitionedCall/model/multiply_10/mul"], "attr": {"T": {"type": "DT_FLOAT"}, "_grappler_ArithmeticOptimizer_MinimizeBroadcasts": {"b": true}}}, {"name": "StatefulPartitionedCall/model/expanded_conv_7/project/BatchNorm/FusedBatchNormV3", "op": "_FusedConv2D", "input": ["StatefulPartitionedCall/model/expanded_conv_7/squeeze_excite/Mul/mul", "StatefulPartitionedCall/model/expanded_conv_7/project/Conv2D_weights", "StatefulPartitionedCall/model/expanded_conv_7/project/Conv2D_bn_offset"], "device": "/device:CPU:0", "attr": {"num_args": {"i": "1"}, "use_cudnn_on_gpu": {"b": true}, "epsilon": {"f": 0.0}, "padding": {"s": "U0FNRQ=="}, "T": {"type": "DT_FLOAT"}, "strides": {"list": {"i": ["1", "1", "1", "1"]}}, "explicit_paddings": {"list": {}}, "fused_ops": {"list": {"s": ["Qmlhc0FkZA=="]}}, "dilations": {"list": {"i": ["1", "1", "1", "1"]}}, "data_format": {"s": "TkhXQw=="}}}, {"name": "StatefulPartitionedCall/model/expanded_conv_7/Add/add", "op": "AddV2", "input": ["StatefulPartitionedCall/model/expanded_conv_6/project/BatchNorm/FusedBatchNormV3", "StatefulPartitionedCall/model/expanded_conv_7/project/BatchNorm/FusedBatchNormV3"], "attr": {"T": {"type": "DT_FLOAT"}}}, {"name": "StatefulPartitionedCall/model/expanded_conv_8/expand/BatchNorm/FusedBatchNormV3", "op": "_FusedConv2D", "input": ["StatefulPartitionedCall/model/expanded_conv_7/Add/add", "StatefulPartitionedCall/model/expanded_conv_8/expand/Conv2D_weights", "StatefulPartitionedCall/model/expanded_conv_8/expand/Conv2D_bn_offset"], "device": "/device:CPU:0", "attr": {"fused_ops": {"list": {"s": ["Qmlhc0FkZA=="]}}, "T": {"type": "DT_FLOAT"}, "padding": {"s": "U0FNRQ=="}, "use_cudnn_on_gpu": {"b": true}, "epsilon": {"f": 0.0}, "dilations": {"list": {"i": ["1", "1", "1", "1"]}}, "strides": {"list": {"i": ["1", "1", "1", "1"]}}, "data_format": {"s": "TkhXQw=="}, "num_args": {"i": "1"}, "explicit_paddings": {"list": {}}}}, {"name": "StatefulPartitionedCall/model/tf.__operators__.add_17/AddV2", "op": "AddV2", "input": ["StatefulPartitionedCall/model/expanded_conv_8/expand/BatchNorm/FusedBatchNormV3", "StatefulPartitionedCall/model/tf.__operators__.add_17/y"], "attr": {"T": {"type": "DT_FLOAT"}}}, {"name": "StatefulPartitionedCall/model/re_lu_22/Relu6", "op": "Relu6", "input": ["StatefulPartitionedCall/model/tf.__operators__.add_17/AddV2"], "attr": {"T": {"type": "DT_FLOAT"}}}, {"name": "StatefulPartitionedCall/model/tf.math.multiply_17/Mul", "op": "Mul", "input": ["StatefulPartitionedCall/model/tf.math.multiply_17/Mul/y", "StatefulPartitionedCall/model/re_lu_22/Relu6"], "attr": {"T": {"type": "DT_FLOAT"}, "_grappler_ArithmeticOptimizer_MinimizeBroadcasts": {"b": true}}}, {"name": "StatefulPartitionedCall/model/multiply_11/mul", "op": "Mul", "input": ["StatefulPartitionedCall/model/tf.math.multiply_17/Mul", "StatefulPartitionedCall/model/expanded_conv_8/expand/BatchNorm/FusedBatchNormV3"], "attr": {"_grappler_ArithmeticOptimizer_MinimizeBroadcasts": {"b": true}, "T": {"type": "DT_FLOAT"}}}, {"name": "StatefulPartitionedCall/model/expanded_conv_8/depthwise/pad/Pad", "op": "Pad", "input": ["StatefulPartitionedCall/model/multiply_11/mul", "StatefulPartitionedCall/model/expanded_conv_8/depthwise/pad/Pad/paddings"], "attr": {"Tpaddings": {"type": "DT_INT32"}, "T": {"type": "DT_FLOAT"}}}, {"name": "StatefulPartitionedCall/model/expanded_conv_8/depthwise/depthwise", "op": "FusedDepthwiseConv2dNative", "input": ["StatefulPartitionedCall/model/expanded_conv_8/depthwise/pad/Pad", "StatefulPartitionedCall/model/expanded_conv_8/depthwise/depthwise_weights", "StatefulPartitionedCall/model/expanded_conv_8/depthwise/depthwise_bn_offset"], "attr": {"padding": {"s": "VkFMSUQ="}, "dilations": {"list": {"i": ["1", "1", "1", "1"]}}, "data_format": {"s": "TkhXQw=="}, "fused_ops": {"list": {"s": ["Qmlhc0FkZA=="]}}, "strides": {"list": {"i": ["1", "2", "2", "1"]}}, "T": {"type": "DT_FLOAT"}, "num_args": {"i": "1"}, "explicit_paddings": {"list": {}}}}, {"name": "StatefulPartitionedCall/model/tf.__operators__.add_18/AddV2", "op": "AddV2", "input": ["StatefulPartitionedCall/model/expanded_conv_8/depthwise/depthwise", "StatefulPartitionedCall/model/tf.__operators__.add_18/y"], "attr": {"T": {"type": "DT_FLOAT"}}}, {"name": "StatefulPartitionedCall/model/re_lu_23/Relu6", "op": "Relu6", "input": ["StatefulPartitionedCall/model/tf.__operators__.add_18/AddV2"], "attr": {"T": {"type": "DT_FLOAT"}}}, {"name": "StatefulPartitionedCall/model/tf.math.multiply_18/Mul", "op": "Mul", "input": ["StatefulPartitionedCall/model/tf.math.multiply_18/Mul/y", "StatefulPartitionedCall/model/re_lu_23/Relu6"], "attr": {"_grappler_ArithmeticOptimizer_MinimizeBroadcasts": {"b": true}, "T": {"type": "DT_FLOAT"}}}, {"name": "StatefulPartitionedCall/model/multiply_12/mul", "op": "Mul", "input": ["StatefulPartitionedCall/model/tf.math.multiply_18/Mul", "StatefulPartitionedCall/model/expanded_conv_8/depthwise/depthwise"], "attr": {"_grappler_ArithmeticOptimizer_MinimizeBroadcasts": {"b": true}, "T": {"type": "DT_FLOAT"}}}, {"name": "StatefulPartitionedCall/model/expanded_conv_8/squeeze_excite/AvgPool/Mean", "op": "Mean", "input": ["StatefulPartitionedCall/model/multiply_12/mul", "StatefulPartitionedCall/model/expanded_conv_8/squeeze_excite/AvgPool/Mean/reduction_indices"], "attr": {"T": {"type": "DT_FLOAT"}, "keep_dims": {"b": false}, "Tidx": {"type": "DT_INT32"}}}, {"name": "StatefulPartitionedCall/model/reshape_6/Shape", "op": "Shape", "input": ["StatefulPartitionedCall/model/expanded_conv_8/squeeze_excite/AvgPool/Mean"], "attr": {"out_type": {"type": "DT_INT32"}, "T": {"type": "DT_FLOAT"}}}, {"name": "StatefulPartitionedCall/model/reshape_6/strided_slice", "op": "StridedSlice", "input": ["StatefulPartitionedCall/model/reshape_6/Shape", "StatefulPartitionedCall/model/reshape_6/strided_slice/stack", "StatefulPartitionedCall/model/reshape_6/strided_slice/stack_1", "StatefulPartitionedCall/model/reshape_6/strided_slice/stack_2"], "attr": {"end_mask": {"i": "0"}, "begin_mask": {"i": "0"}, "shrink_axis_mask": {"i": "1"}, "T": {"type": "DT_INT32"}, "new_axis_mask": {"i": "0"}, "Index": {"type": "DT_INT32"}, "ellipsis_mask": {"i": "0"}}}, {"name": "StatefulPartitionedCall/model/reshape_6/Reshape/shape", "op": "Pack", "input": ["StatefulPartitionedCall/model/reshape_6/strided_slice", "StatefulPartitionedCall/model/reshape_6/Reshape/shape/1", "StatefulPartitionedCall/model/reshape_6/Reshape/shape/2", "StatefulPartitionedCall/model/reshape_6/Reshape/shape/3"], "attr": {"axis": {"i": "0"}, "N": {"i": "4"}, "T": {"type": "DT_INT32"}}}, {"name": "StatefulPartitionedCall/model/reshape_6/Reshape", "op": "Reshape", "input": ["StatefulPartitionedCall/model/expanded_conv_8/squeeze_excite/AvgPool/Mean", "StatefulPartitionedCall/model/reshape_6/Reshape/shape"], "attr": {"T": {"type": "DT_FLOAT"}, "Tshape": {"type": "DT_INT32"}}}, {"name": "StatefulPartitionedCall/model/expanded_conv_8/squeeze_excite/Relu/Relu", "op": "_FusedConv2D", "input": ["StatefulPartitionedCall/model/reshape_6/Reshape", "StatefulPartitionedCall/model/expanded_conv_8/squeeze_excite/Conv/Conv2D/ReadVariableOp", "StatefulPartitionedCall/model/expanded_conv_8/squeeze_excite/Conv/BiasAdd/ReadVariableOp"], "device": "/device:CPU:0", "attr": {"data_format": {"s": "TkhXQw=="}, "explicit_paddings": {"list": {}}, "strides": {"list": {"i": ["1", "1", "1", "1"]}}, "num_args": {"i": "1"}, "fused_ops": {"list": {"s": ["Qmlhc0FkZA==", "UmVsdQ=="]}}, "dilations": {"list": {"i": ["1", "1", "1", "1"]}}, "epsilon": {"f": 0.0}, "use_cudnn_on_gpu": {"b": true}, "padding": {"s": "U0FNRQ=="}, "T": {"type": "DT_FLOAT"}}}, {"name": "StatefulPartitionedCall/model/expanded_conv_8/squeeze_excite/Conv_1/BiasAdd", "op": "_FusedConv2D", "input": ["StatefulPartitionedCall/model/expanded_conv_8/squeeze_excite/Relu/Relu", "StatefulPartitionedCall/model/expanded_conv_8/squeeze_excite/Conv_1/Conv2D/ReadVariableOp", "StatefulPartitionedCall/model/expanded_conv_8/squeeze_excite/Conv_1/BiasAdd/ReadVariableOp"], "device": "/device:CPU:0", "attr": {"fused_ops": {"list": {"s": ["Qmlhc0FkZA=="]}}, "padding": {"s": "U0FNRQ=="}, "explicit_paddings": {"list": {}}, "strides": {"list": {"i": ["1", "1", "1", "1"]}}, "use_cudnn_on_gpu": {"b": true}, "num_args": {"i": "1"}, "dilations": {"list": {"i": ["1", "1", "1", "1"]}}, "T": {"type": "DT_FLOAT"}, "data_format": {"s": "TkhXQw=="}, "epsilon": {"f": 0.0}}}, {"name": "StatefulPartitionedCall/model/tf.__operators__.add_19/AddV2", "op": "AddV2", "input": ["StatefulPartitionedCall/model/expanded_conv_8/squeeze_excite/Conv_1/BiasAdd", "StatefulPartitionedCall/model/tf.__operators__.add_19/y"], "attr": {"T": {"type": "DT_FLOAT"}}}, {"name": "StatefulPartitionedCall/model/re_lu_24/Relu6", "op": "Relu6", "input": ["StatefulPartitionedCall/model/tf.__operators__.add_19/AddV2"], "attr": {"T": {"type": "DT_FLOAT"}}}, {"name": "StatefulPartitionedCall/model/tf.math.multiply_19/Mul", "op": "Mul", "input": ["StatefulPartitionedCall/model/tf.math.multiply_19/Mul/y", "StatefulPartitionedCall/model/re_lu_24/Relu6"], "attr": {"_grappler_ArithmeticOptimizer_MinimizeBroadcasts": {"b": true}, "T": {"type": "DT_FLOAT"}}}, {"name": "StatefulPartitionedCall/model/expanded_conv_8/squeeze_excite/Mul/mul", "op": "Mul", "input": ["StatefulPartitionedCall/model/tf.math.multiply_19/Mul", "StatefulPartitionedCall/model/multiply_12/mul"], "attr": {"T": {"type": "DT_FLOAT"}, "_grappler_ArithmeticOptimizer_MinimizeBroadcasts": {"b": true}}}, {"name": "StatefulPartitionedCall/model/expanded_conv_8/project/BatchNorm/FusedBatchNormV3", "op": "_FusedConv2D", "input": ["StatefulPartitionedCall/model/expanded_conv_8/squeeze_excite/Mul/mul", "StatefulPartitionedCall/model/expanded_conv_8/project/Conv2D_weights", "StatefulPartitionedCall/model/expanded_conv_8/project/Conv2D_bn_offset"], "device": "/device:CPU:0", "attr": {"use_cudnn_on_gpu": {"b": true}, "strides": {"list": {"i": ["1", "1", "1", "1"]}}, "epsilon": {"f": 0.0}, "T": {"type": "DT_FLOAT"}, "num_args": {"i": "1"}, "dilations": {"list": {"i": ["1", "1", "1", "1"]}}, "padding": {"s": "U0FNRQ=="}, "explicit_paddings": {"list": {}}, "fused_ops": {"list": {"s": ["Qmlhc0FkZA=="]}}, "data_format": {"s": "TkhXQw=="}}}, {"name": "StatefulPartitionedCall/model/expanded_conv_9/expand/BatchNorm/FusedBatchNormV3", "op": "_FusedConv2D", "input": ["StatefulPartitionedCall/model/expanded_conv_8/project/BatchNorm/FusedBatchNormV3", "StatefulPartitionedCall/model/expanded_conv_9/expand/Conv2D_weights", "StatefulPartitionedCall/model/expanded_conv_9/expand/Conv2D_bn_offset"], "device": "/device:CPU:0", "attr": {"epsilon": {"f": 0.0}, "data_format": {"s": "TkhXQw=="}, "fused_ops": {"list": {"s": ["Qmlhc0FkZA=="]}}, "num_args": {"i": "1"}, "dilations": {"list": {"i": ["1", "1", "1", "1"]}}, "padding": {"s": "U0FNRQ=="}, "T": {"type": "DT_FLOAT"}, "explicit_paddings": {"list": {}}, "use_cudnn_on_gpu": {"b": true}, "strides": {"list": {"i": ["1", "1", "1", "1"]}}}}, {"name": "StatefulPartitionedCall/model/tf.__operators__.add_20/AddV2", "op": "AddV2", "input": ["StatefulPartitionedCall/model/expanded_conv_9/expand/BatchNorm/FusedBatchNormV3", "StatefulPartitionedCall/model/tf.__operators__.add_20/y"], "attr": {"T": {"type": "DT_FLOAT"}}}, {"name": "StatefulPartitionedCall/model/re_lu_25/Relu6", "op": "Relu6", "input": ["StatefulPartitionedCall/model/tf.__operators__.add_20/AddV2"], "attr": {"T": {"type": "DT_FLOAT"}}}, {"name": "StatefulPartitionedCall/model/tf.math.multiply_20/Mul", "op": "Mul", "input": ["StatefulPartitionedCall/model/tf.math.multiply_20/Mul/y", "StatefulPartitionedCall/model/re_lu_25/Relu6"], "attr": {"T": {"type": "DT_FLOAT"}, "_grappler_ArithmeticOptimizer_MinimizeBroadcasts": {"b": true}}}, {"name": "StatefulPartitionedCall/model/multiply_13/mul", "op": "Mul", "input": ["StatefulPartitionedCall/model/tf.math.multiply_20/Mul", "StatefulPartitionedCall/model/expanded_conv_9/expand/BatchNorm/FusedBatchNormV3"], "attr": {"T": {"type": "DT_FLOAT"}, "_grappler_ArithmeticOptimizer_MinimizeBroadcasts": {"b": true}}}, {"name": "StatefulPartitionedCall/model/expanded_conv_9/depthwise/depthwise", "op": "FusedDepthwiseConv2dNative", "input": ["StatefulPartitionedCall/model/multiply_13/mul", "StatefulPartitionedCall/model/expanded_conv_9/depthwise/depthwise_weights", "StatefulPartitionedCall/model/expanded_conv_9/depthwise/depthwise_bn_offset"], "attr": {"num_args": {"i": "1"}, "explicit_paddings": {"list": {}}, "T": {"type": "DT_FLOAT"}, "strides": {"list": {"i": ["1", "1", "1", "1"]}}, "data_format": {"s": "TkhXQw=="}, "padding": {"s": "U0FNRQ=="}, "fused_ops": {"list": {"s": ["Qmlhc0FkZA=="]}}, "dilations": {"list": {"i": ["1", "1", "1", "1"]}}}}, {"name": "StatefulPartitionedCall/model/tf.__operators__.add_21/AddV2", "op": "AddV2", "input": ["StatefulPartitionedCall/model/expanded_conv_9/depthwise/depthwise", "StatefulPartitionedCall/model/tf.__operators__.add_21/y"], "attr": {"T": {"type": "DT_FLOAT"}}}, {"name": "StatefulPartitionedCall/model/re_lu_26/Relu6", "op": "Relu6", "input": ["StatefulPartitionedCall/model/tf.__operators__.add_21/AddV2"], "attr": {"T": {"type": "DT_FLOAT"}}}, {"name": "StatefulPartitionedCall/model/tf.math.multiply_21/Mul", "op": "Mul", "input": ["StatefulPartitionedCall/model/tf.math.multiply_21/Mul/y", "StatefulPartitionedCall/model/re_lu_26/Relu6"], "attr": {"T": {"type": "DT_FLOAT"}, "_grappler_ArithmeticOptimizer_MinimizeBroadcasts": {"b": true}}}, {"name": "StatefulPartitionedCall/model/multiply_14/mul", "op": "Mul", "input": ["StatefulPartitionedCall/model/tf.math.multiply_21/Mul", "StatefulPartitionedCall/model/expanded_conv_9/depthwise/depthwise"], "attr": {"_grappler_ArithmeticOptimizer_MinimizeBroadcasts": {"b": true}, "T": {"type": "DT_FLOAT"}}}, {"name": "StatefulPartitionedCall/model/expanded_conv_9/squeeze_excite/AvgPool/Mean", "op": "Mean", "input": ["StatefulPartitionedCall/model/multiply_14/mul", "StatefulPartitionedCall/model/expanded_conv_9/squeeze_excite/AvgPool/Mean/reduction_indices"], "attr": {"keep_dims": {"b": false}, "Tidx": {"type": "DT_INT32"}, "T": {"type": "DT_FLOAT"}}}, {"name": "StatefulPartitionedCall/model/reshape_7/Shape", "op": "Shape", "input": ["StatefulPartitionedCall/model/expanded_conv_9/squeeze_excite/AvgPool/Mean"], "attr": {"T": {"type": "DT_FLOAT"}, "out_type": {"type": "DT_INT32"}}}, {"name": "StatefulPartitionedCall/model/reshape_7/strided_slice", "op": "StridedSlice", "input": ["StatefulPartitionedCall/model/reshape_7/Shape", "StatefulPartitionedCall/model/reshape_7/strided_slice/stack", "StatefulPartitionedCall/model/reshape_7/strided_slice/stack_1", "StatefulPartitionedCall/model/reshape_7/strided_slice/stack_2"], "attr": {"end_mask": {"i": "0"}, "T": {"type": "DT_INT32"}, "new_axis_mask": {"i": "0"}, "shrink_axis_mask": {"i": "1"}, "begin_mask": {"i": "0"}, "ellipsis_mask": {"i": "0"}, "Index": {"type": "DT_INT32"}}}, {"name": "StatefulPartitionedCall/model/reshape_7/Reshape/shape", "op": "Pack", "input": ["StatefulPartitionedCall/model/reshape_7/strided_slice", "StatefulPartitionedCall/model/reshape_7/Reshape/shape/1", "StatefulPartitionedCall/model/reshape_7/Reshape/shape/2", "StatefulPartitionedCall/model/reshape_7/Reshape/shape/3"], "attr": {"N": {"i": "4"}, "axis": {"i": "0"}, "T": {"type": "DT_INT32"}}}, {"name": "StatefulPartitionedCall/model/reshape_7/Reshape", "op": "Reshape", "input": ["StatefulPartitionedCall/model/expanded_conv_9/squeeze_excite/AvgPool/Mean", "StatefulPartitionedCall/model/reshape_7/Reshape/shape"], "attr": {"T": {"type": "DT_FLOAT"}, "Tshape": {"type": "DT_INT32"}}}, {"name": "StatefulPartitionedCall/model/expanded_conv_9/squeeze_excite/Relu/Relu", "op": "_FusedConv2D", "input": ["StatefulPartitionedCall/model/reshape_7/Reshape", "StatefulPartitionedCall/model/expanded_conv_9/squeeze_excite/Conv/Conv2D/ReadVariableOp", "StatefulPartitionedCall/model/expanded_conv_9/squeeze_excite/Conv/BiasAdd/ReadVariableOp"], "device": "/device:CPU:0", "attr": {"dilations": {"list": {"i": ["1", "1", "1", "1"]}}, "epsilon": {"f": 0.0}, "T": {"type": "DT_FLOAT"}, "fused_ops": {"list": {"s": ["Qmlhc0FkZA==", "UmVsdQ=="]}}, "data_format": {"s": "TkhXQw=="}, "padding": {"s": "U0FNRQ=="}, "strides": {"list": {"i": ["1", "1", "1", "1"]}}, "num_args": {"i": "1"}, "use_cudnn_on_gpu": {"b": true}, "explicit_paddings": {"list": {}}}}, {"name": "StatefulPartitionedCall/model/expanded_conv_9/squeeze_excite/Conv_1/BiasAdd", "op": "_FusedConv2D", "input": ["StatefulPartitionedCall/model/expanded_conv_9/squeeze_excite/Relu/Relu", "StatefulPartitionedCall/model/expanded_conv_9/squeeze_excite/Conv_1/Conv2D/ReadVariableOp", "StatefulPartitionedCall/model/expanded_conv_9/squeeze_excite/Conv_1/BiasAdd/ReadVariableOp"], "device": "/device:CPU:0", "attr": {"epsilon": {"f": 0.0}, "fused_ops": {"list": {"s": ["Qmlhc0FkZA=="]}}, "dilations": {"list": {"i": ["1", "1", "1", "1"]}}, "num_args": {"i": "1"}, "use_cudnn_on_gpu": {"b": true}, "explicit_paddings": {"list": {}}, "strides": {"list": {"i": ["1", "1", "1", "1"]}}, "padding": {"s": "U0FNRQ=="}, "T": {"type": "DT_FLOAT"}, "data_format": {"s": "TkhXQw=="}}}, {"name": "StatefulPartitionedCall/model/tf.__operators__.add_22/AddV2", "op": "AddV2", "input": ["StatefulPartitionedCall/model/expanded_conv_9/squeeze_excite/Conv_1/BiasAdd", "StatefulPartitionedCall/model/tf.__operators__.add_22/y"], "attr": {"T": {"type": "DT_FLOAT"}}}, {"name": "StatefulPartitionedCall/model/re_lu_27/Relu6", "op": "Relu6", "input": ["StatefulPartitionedCall/model/tf.__operators__.add_22/AddV2"], "attr": {"T": {"type": "DT_FLOAT"}}}, {"name": "StatefulPartitionedCall/model/tf.math.multiply_22/Mul", "op": "Mul", "input": ["StatefulPartitionedCall/model/tf.math.multiply_22/Mul/y", "StatefulPartitionedCall/model/re_lu_27/Relu6"], "attr": {"_grappler_ArithmeticOptimizer_MinimizeBroadcasts": {"b": true}, "T": {"type": "DT_FLOAT"}}}, {"name": "StatefulPartitionedCall/model/expanded_conv_9/squeeze_excite/Mul/mul", "op": "Mul", "input": ["StatefulPartitionedCall/model/tf.math.multiply_22/Mul", "StatefulPartitionedCall/model/multiply_14/mul"], "attr": {"T": {"type": "DT_FLOAT"}, "_grappler_ArithmeticOptimizer_MinimizeBroadcasts": {"b": true}}}, {"name": "StatefulPartitionedCall/model/expanded_conv_9/project/BatchNorm/FusedBatchNormV3", "op": "_FusedConv2D", "input": ["StatefulPartitionedCall/model/expanded_conv_9/squeeze_excite/Mul/mul", "StatefulPartitionedCall/model/expanded_conv_9/project/Conv2D_weights", "StatefulPartitionedCall/model/expanded_conv_9/project/Conv2D_bn_offset"], "device": "/device:CPU:0", "attr": {"padding": {"s": "U0FNRQ=="}, "T": {"type": "DT_FLOAT"}, "fused_ops": {"list": {"s": ["Qmlhc0FkZA=="]}}, "epsilon": {"f": 0.0}, "data_format": {"s": "TkhXQw=="}, "strides": {"list": {"i": ["1", "1", "1", "1"]}}, "explicit_paddings": {"list": {}}, "use_cudnn_on_gpu": {"b": true}, "dilations": {"list": {"i": ["1", "1", "1", "1"]}}, "num_args": {"i": "1"}}}, {"name": "StatefulPartitionedCall/model/expanded_conv_9/Add/add", "op": "AddV2", "input": ["StatefulPartitionedCall/model/expanded_conv_8/project/BatchNorm/FusedBatchNormV3", "StatefulPartitionedCall/model/expanded_conv_9/project/BatchNorm/FusedBatchNormV3"], "attr": {"T": {"type": "DT_FLOAT"}}}, {"name": "StatefulPartitionedCall/model/expanded_conv_10/expand/BatchNorm/FusedBatchNormV3", "op": "_FusedConv2D", "input": ["StatefulPartitionedCall/model/expanded_conv_9/Add/add", "StatefulPartitionedCall/model/expanded_conv_10/expand/Conv2D_weights", "StatefulPartitionedCall/model/expanded_conv_10/expand/Conv2D_bn_offset"], "device": "/device:CPU:0", "attr": {"explicit_paddings": {"list": {}}, "epsilon": {"f": 0.0}, "padding": {"s": "U0FNRQ=="}, "num_args": {"i": "1"}, "data_format": {"s": "TkhXQw=="}, "fused_ops": {"list": {"s": ["Qmlhc0FkZA=="]}}, "strides": {"list": {"i": ["1", "1", "1", "1"]}}, "T": {"type": "DT_FLOAT"}, "dilations": {"list": {"i": ["1", "1", "1", "1"]}}, "use_cudnn_on_gpu": {"b": true}}}, {"name": "StatefulPartitionedCall/model/tf.__operators__.add_23/AddV2", "op": "AddV2", "input": ["StatefulPartitionedCall/model/expanded_conv_10/expand/BatchNorm/FusedBatchNormV3", "StatefulPartitionedCall/model/tf.__operators__.add_23/y"], "attr": {"T": {"type": "DT_FLOAT"}}}, {"name": "StatefulPartitionedCall/model/re_lu_28/Relu6", "op": "Relu6", "input": ["StatefulPartitionedCall/model/tf.__operators__.add_23/AddV2"], "attr": {"T": {"type": "DT_FLOAT"}}}, {"name": "StatefulPartitionedCall/model/tf.math.multiply_23/Mul", "op": "Mul", "input": ["StatefulPartitionedCall/model/tf.math.multiply_23/Mul/y", "StatefulPartitionedCall/model/re_lu_28/Relu6"], "attr": {"_grappler_ArithmeticOptimizer_MinimizeBroadcasts": {"b": true}, "T": {"type": "DT_FLOAT"}}}, {"name": "StatefulPartitionedCall/model/multiply_15/mul", "op": "Mul", "input": ["StatefulPartitionedCall/model/tf.math.multiply_23/Mul", "StatefulPartitionedCall/model/expanded_conv_10/expand/BatchNorm/FusedBatchNormV3"], "attr": {"_grappler_ArithmeticOptimizer_MinimizeBroadcasts": {"b": true}, "T": {"type": "DT_FLOAT"}}}, {"name": "StatefulPartitionedCall/model/expanded_conv_10/depthwise/depthwise", "op": "FusedDepthwiseConv2dNative", "input": ["StatefulPartitionedCall/model/multiply_15/mul", "StatefulPartitionedCall/model/expanded_conv_10/depthwise/depthwise_weights", "StatefulPartitionedCall/model/expanded_conv_10/depthwise/depthwise_bn_offset"], "attr": {"padding": {"s": "U0FNRQ=="}, "dilations": {"list": {"i": ["1", "1", "1", "1"]}}, "fused_ops": {"list": {"s": ["Qmlhc0FkZA=="]}}, "num_args": {"i": "1"}, "strides": {"list": {"i": ["1", "1", "1", "1"]}}, "data_format": {"s": "TkhXQw=="}, "explicit_paddings": {"list": {}}, "T": {"type": "DT_FLOAT"}}}, {"name": "StatefulPartitionedCall/model/tf.__operators__.add_24/AddV2", "op": "AddV2", "input": ["StatefulPartitionedCall/model/expanded_conv_10/depthwise/depthwise", "StatefulPartitionedCall/model/tf.__operators__.add_24/y"], "attr": {"T": {"type": "DT_FLOAT"}}}, {"name": "StatefulPartitionedCall/model/re_lu_29/Relu6", "op": "Relu6", "input": ["StatefulPartitionedCall/model/tf.__operators__.add_24/AddV2"], "attr": {"T": {"type": "DT_FLOAT"}}}, {"name": "StatefulPartitionedCall/model/tf.math.multiply_24/Mul", "op": "Mul", "input": ["StatefulPartitionedCall/model/tf.math.multiply_24/Mul/y", "StatefulPartitionedCall/model/re_lu_29/Relu6"], "attr": {"T": {"type": "DT_FLOAT"}, "_grappler_ArithmeticOptimizer_MinimizeBroadcasts": {"b": true}}}, {"name": "StatefulPartitionedCall/model/multiply_16/mul", "op": "Mul", "input": ["StatefulPartitionedCall/model/tf.math.multiply_24/Mul", "StatefulPartitionedCall/model/expanded_conv_10/depthwise/depthwise"], "attr": {"T": {"type": "DT_FLOAT"}, "_grappler_ArithmeticOptimizer_MinimizeBroadcasts": {"b": true}}}, {"name": "StatefulPartitionedCall/model/expanded_conv_10/squeeze_excite/AvgPool/Mean", "op": "Mean", "input": ["StatefulPartitionedCall/model/multiply_16/mul", "StatefulPartitionedCall/model/expanded_conv_10/squeeze_excite/AvgPool/Mean/reduction_indices"], "attr": {"Tidx": {"type": "DT_INT32"}, "keep_dims": {"b": false}, "T": {"type": "DT_FLOAT"}}}, {"name": "StatefulPartitionedCall/model/reshape_8/Shape", "op": "Shape", "input": ["StatefulPartitionedCall/model/expanded_conv_10/squeeze_excite/AvgPool/Mean"], "attr": {"out_type": {"type": "DT_INT32"}, "T": {"type": "DT_FLOAT"}}}, {"name": "StatefulPartitionedCall/model/reshape_8/strided_slice", "op": "StridedSlice", "input": ["StatefulPartitionedCall/model/reshape_8/Shape", "StatefulPartitionedCall/model/reshape_8/strided_slice/stack", "StatefulPartitionedCall/model/reshape_8/strided_slice/stack_1", "StatefulPartitionedCall/model/reshape_8/strided_slice/stack_2"], "attr": {"shrink_axis_mask": {"i": "1"}, "Index": {"type": "DT_INT32"}, "T": {"type": "DT_INT32"}, "begin_mask": {"i": "0"}, "new_axis_mask": {"i": "0"}, "ellipsis_mask": {"i": "0"}, "end_mask": {"i": "0"}}}, {"name": "StatefulPartitionedCall/model/reshape_8/Reshape/shape", "op": "Pack", "input": ["StatefulPartitionedCall/model/reshape_8/strided_slice", "StatefulPartitionedCall/model/reshape_8/Reshape/shape/1", "StatefulPartitionedCall/model/reshape_8/Reshape/shape/2", "StatefulPartitionedCall/model/reshape_8/Reshape/shape/3"], "attr": {"T": {"type": "DT_INT32"}, "axis": {"i": "0"}, "N": {"i": "4"}}}, {"name": "StatefulPartitionedCall/model/reshape_8/Reshape", "op": "Reshape", "input": ["StatefulPartitionedCall/model/expanded_conv_10/squeeze_excite/AvgPool/Mean", "StatefulPartitionedCall/model/reshape_8/Reshape/shape"], "attr": {"T": {"type": "DT_FLOAT"}, "Tshape": {"type": "DT_INT32"}}}, {"name": "StatefulPartitionedCall/model/expanded_conv_10/squeeze_excite/Relu/Relu", "op": "_FusedConv2D", "input": ["StatefulPartitionedCall/model/reshape_8/Reshape", "StatefulPartitionedCall/model/expanded_conv_10/squeeze_excite/Conv/Conv2D/ReadVariableOp", "StatefulPartitionedCall/model/expanded_conv_10/squeeze_excite/Conv/BiasAdd/ReadVariableOp"], "device": "/device:CPU:0", "attr": {"data_format": {"s": "TkhXQw=="}, "use_cudnn_on_gpu": {"b": true}, "T": {"type": "DT_FLOAT"}, "num_args": {"i": "1"}, "dilations": {"list": {"i": ["1", "1", "1", "1"]}}, "epsilon": {"f": 0.0}, "explicit_paddings": {"list": {}}, "padding": {"s": "U0FNRQ=="}, "fused_ops": {"list": {"s": ["Qmlhc0FkZA==", "UmVsdQ=="]}}, "strides": {"list": {"i": ["1", "1", "1", "1"]}}}}, {"name": "StatefulPartitionedCall/model/expanded_conv_10/squeeze_excite/Conv_1/BiasAdd", "op": "_FusedConv2D", "input": ["StatefulPartitionedCall/model/expanded_conv_10/squeeze_excite/Relu/Relu", "StatefulPartitionedCall/model/expanded_conv_10/squeeze_excite/Conv_1/Conv2D/ReadVariableOp", "StatefulPartitionedCall/model/expanded_conv_10/squeeze_excite/Conv_1/BiasAdd/ReadVariableOp"], "device": "/device:CPU:0", "attr": {"epsilon": {"f": 0.0}, "fused_ops": {"list": {"s": ["Qmlhc0FkZA=="]}}, "num_args": {"i": "1"}, "dilations": {"list": {"i": ["1", "1", "1", "1"]}}, "strides": {"list": {"i": ["1", "1", "1", "1"]}}, "data_format": {"s": "TkhXQw=="}, "padding": {"s": "U0FNRQ=="}, "explicit_paddings": {"list": {}}, "use_cudnn_on_gpu": {"b": true}, "T": {"type": "DT_FLOAT"}}}, {"name": "StatefulPartitionedCall/model/tf.__operators__.add_25/AddV2", "op": "AddV2", "input": ["StatefulPartitionedCall/model/expanded_conv_10/squeeze_excite/Conv_1/BiasAdd", "StatefulPartitionedCall/model/tf.__operators__.add_25/y"], "attr": {"T": {"type": "DT_FLOAT"}}}, {"name": "StatefulPartitionedCall/model/re_lu_30/Relu6", "op": "Relu6", "input": ["StatefulPartitionedCall/model/tf.__operators__.add_25/AddV2"], "attr": {"T": {"type": "DT_FLOAT"}}}, {"name": "StatefulPartitionedCall/model/tf.math.multiply_25/Mul", "op": "Mul", "input": ["StatefulPartitionedCall/model/tf.math.multiply_25/Mul/y", "StatefulPartitionedCall/model/re_lu_30/Relu6"], "attr": {"_grappler_ArithmeticOptimizer_MinimizeBroadcasts": {"b": true}, "T": {"type": "DT_FLOAT"}}}, {"name": "StatefulPartitionedCall/model/expanded_conv_10/squeeze_excite/Mul/mul", "op": "Mul", "input": ["StatefulPartitionedCall/model/tf.math.multiply_25/Mul", "StatefulPartitionedCall/model/multiply_16/mul"], "attr": {"_grappler_ArithmeticOptimizer_MinimizeBroadcasts": {"b": true}, "T": {"type": "DT_FLOAT"}}}, {"name": "StatefulPartitionedCall/model/expanded_conv_10/project/BatchNorm/FusedBatchNormV3", "op": "_FusedConv2D", "input": ["StatefulPartitionedCall/model/expanded_conv_10/squeeze_excite/Mul/mul", "StatefulPartitionedCall/model/expanded_conv_10/project/Conv2D_weights", "StatefulPartitionedCall/model/expanded_conv_10/project/Conv2D_bn_offset"], "device": "/device:CPU:0", "attr": {"padding": {"s": "U0FNRQ=="}, "use_cudnn_on_gpu": {"b": true}, "num_args": {"i": "1"}, "strides": {"list": {"i": ["1", "1", "1", "1"]}}, "T": {"type": "DT_FLOAT"}, "explicit_paddings": {"list": {}}, "fused_ops": {"list": {"s": ["Qmlhc0FkZA=="]}}, "dilations": {"list": {"i": ["1", "1", "1", "1"]}}, "data_format": {"s": "TkhXQw=="}, "epsilon": {"f": 0.0}}}, {"name": "StatefulPartitionedCall/model/expanded_conv_10/Add/add", "op": "AddV2", "input": ["StatefulPartitionedCall/model/expanded_conv_9/Add/add", "StatefulPartitionedCall/model/expanded_conv_10/project/BatchNorm/FusedBatchNormV3"], "attr": {"T": {"type": "DT_FLOAT"}}}, {"name": "StatefulPartitionedCall/model/Conv_1/BatchNorm/FusedBatchNormV3", "op": "_FusedConv2D", "input": ["StatefulPartitionedCall/model/expanded_conv_10/Add/add", "StatefulPartitionedCall/model/Conv_1/Conv2D_weights", "StatefulPartitionedCall/model/Conv_1/Conv2D_bn_offset"], "device": "/device:CPU:0", "attr": {"num_args": {"i": "1"}, "fused_ops": {"list": {"s": ["Qmlhc0FkZA=="]}}, "T": {"type": "DT_FLOAT"}, "epsilon": {"f": 0.0}, "data_format": {"s": "TkhXQw=="}, "use_cudnn_on_gpu": {"b": true}, "dilations": {"list": {"i": ["1", "1", "1", "1"]}}, "padding": {"s": "U0FNRQ=="}, "strides": {"list": {"i": ["1", "1", "1", "1"]}}, "explicit_paddings": {"list": {}}}}, {"name": "StatefulPartitionedCall/model/tf.__operators__.add_26/AddV2", "op": "AddV2", "input": ["StatefulPartitionedCall/model/Conv_1/BatchNorm/FusedBatchNormV3", "StatefulPartitionedCall/model/tf.__operators__.add_26/y"], "attr": {"T": {"type": "DT_FLOAT"}}}, {"name": "StatefulPartitionedCall/model/re_lu_31/Relu6", "op": "Relu6", "input": ["StatefulPartitionedCall/model/tf.__operators__.add_26/AddV2"], "attr": {"T": {"type": "DT_FLOAT"}}}, {"name": "StatefulPartitionedCall/model/tf.math.multiply_26/Mul", "op": "Mul", "input": ["StatefulPartitionedCall/model/tf.math.multiply_26/Mul/y", "StatefulPartitionedCall/model/re_lu_31/Relu6"], "attr": {"_grappler_ArithmeticOptimizer_MinimizeBroadcasts": {"b": true}, "T": {"type": "DT_FLOAT"}}}, {"name": "StatefulPartitionedCall/model/multiply_17/mul", "op": "Mul", "input": ["StatefulPartitionedCall/model/tf.math.multiply_26/Mul", "StatefulPartitionedCall/model/Conv_1/BatchNorm/FusedBatchNormV3"], "attr": {"_grappler_ArithmeticOptimizer_MinimizeBroadcasts": {"b": true}, "T": {"type": "DT_FLOAT"}}}, {"name": "StatefulPartitionedCall/model/Conv_2/BiasAdd", "op": "_FusedConv2D", "input": ["StatefulPartitionedCall/model/multiply_17/mul", "StatefulPartitionedCall/model/Conv_2/Conv2D/ReadVariableOp", "StatefulPartitionedCall/model/Conv_2/BiasAdd/ReadVariableOp"], "device": "/device:CPU:0", "attr": {"T": {"type": "DT_FLOAT"}, "data_format": {"s": "TkhXQw=="}, "dilations": {"list": {"i": ["1", "1", "1", "1"]}}, "strides": {"list": {"i": ["1", "1", "1", "1"]}}, "padding": {"s": "U0FNRQ=="}, "num_args": {"i": "1"}, "fused_ops": {"list": {"s": ["Qmlhc0FkZA=="]}}, "epsilon": {"f": 0.0}, "explicit_paddings": {"list": {}}, "use_cudnn_on_gpu": {"b": true}}}, {"name": "StatefulPartitionedCall/model/tf.__operators__.add_27/AddV2", "op": "AddV2", "input": ["StatefulPartitionedCall/model/Conv_2/BiasAdd", "StatefulPartitionedCall/model/tf.__operators__.add_27/y"], "attr": {"T": {"type": "DT_FLOAT"}}}, {"name": "StatefulPartitionedCall/model/re_lu_32/Relu6", "op": "Relu6", "input": ["StatefulPartitionedCall/model/tf.__operators__.add_27/AddV2"], "attr": {"T": {"type": "DT_FLOAT"}}}, {"name": "StatefulPartitionedCall/model/tf.math.multiply_27/Mul", "op": "Mul", "input": ["StatefulPartitionedCall/model/tf.math.multiply_27/Mul/y", "StatefulPartitionedCall/model/re_lu_32/Relu6"], "attr": {"_grappler_ArithmeticOptimizer_MinimizeBroadcasts": {"b": true}, "T": {"type": "DT_FLOAT"}}}, {"name": "StatefulPartitionedCall/model/multiply_18/mul", "op": "Mul", "input": ["StatefulPartitionedCall/model/tf.math.multiply_27/Mul", "StatefulPartitionedCall/model/Conv_2/BiasAdd"], "attr": {"T": {"type": "DT_FLOAT"}, "_grappler_ArithmeticOptimizer_MinimizeBroadcasts": {"b": true}}}, {"name": "StatefulPartitionedCall/model/global_max_pooling2d/Max", "op": "Max", "input": ["StatefulPartitionedCall/model/multiply_18/mul", "StatefulPartitionedCall/model/global_max_pooling2d/Max/reduction_indices"], "attr": {"Tidx": {"type": "DT_INT32"}, "T": {"type": "DT_FLOAT"}, "keep_dims": {"b": false}}}, {"name": "StatefulPartitionedCall/model/dense/BiasAdd", "op": "_FusedMatMul", "input": ["StatefulPartitionedCall/model/global_max_pooling2d/Max", "StatefulPartitionedCall/model/dense/MatMul/ReadVariableOp", "StatefulPartitionedCall/model/dense/BiasAdd/ReadVariableOp"], "device": "/device:CPU:0", "attr": {"transpose_b": {"b": false}, "T": {"type": "DT_FLOAT"}, "num_args": {"i": "1"}, "fused_ops": {"list": {"s": ["Qmlhc0FkZA=="]}}, "transpose_a": {"b": false}, "epsilon": {"f": 0.0}}}, {"name": "StatefulPartitionedCall/model/dense/Softmax", "op": "Softmax", "input": ["StatefulPartitionedCall/model/dense/BiasAdd"], "attr": {"T": {"type": "DT_FLOAT"}}}, {"name": "Identity", "op": "Identity", "input": ["StatefulPartitionedCall/model/dense/Softmax"], "attr": {"T": {"type": "DT_FLOAT"}}}], "library": {}, "versions": {"producer": 808}}, "weightsManifest": [{"paths": ["group1-shard1of1.bin"], "weights": [{"name": "StatefulPartitionedCall/model/tf.math.multiply_27/Mul/y", "shape": [], "dtype": "float32", "quantization": {"dtype": "uint16", "min": 0.1666666716337204, "scale": 1.0, "original_dtype": "float32"}}, {"name": "StatefulPartitionedCall/model/tf.__operators__.add_27/y", "shape": [], "dtype": "float32", "quantization": {"dtype": "uint16", "min": 3.0, "scale": 1.0, "original_dtype": "float32"}}, {"name": "StatefulPartitionedCall/model/tf.math.multiply_26/Mul/y", "shape": [], "dtype": "float32", "quantization": {"dtype": "uint16", "min": 0.1666666716337204, "scale": 1.0, "original_dtype": "float32"}}, {"name": "StatefulPartitionedCall/model/tf.__operators__.add_26/y", "shape": [], "dtype": "float32", "quantization": {"dtype": "uint16", "min": 3.0, "scale": 1.0, "original_dtype": "float32"}}, {"name": "StatefulPartitionedCall/model/tf.math.multiply_25/Mul/y", "shape": [], "dtype": "float32", "quantization": {"dtype": "uint16", "min": 0.1666666716337204, "scale": 1.0, "original_dtype": "float32"}}, {"name": "StatefulPartitionedCall/model/expanded_conv_10/squeeze_excite/AvgPool/Mean/reduction_indices", "shape": [2], "dtype": "int32"}, {"name": "StatefulPartitionedCall/model/reshape_8/strided_slice/stack", "shape": [1], "dtype": "int32"}, {"name": "StatefulPartitionedCall/model/reshape_8/strided_slice/stack_1", "shape": [1], "dtype": "int32"}, {"name": "StatefulPartitionedCall/model/reshape_8/strided_slice/stack_2", "shape": [1], "dtype": "int32"}, {"name": "StatefulPartitionedCall/model/reshape_8/Reshape/shape/1", "shape": [], "dtype": "int32"}, {"name": "StatefulPartitionedCall/model/reshape_8/Reshape/shape/2", "shape": [], "dtype": "int32"}, {"name": "StatefulPartitionedCall/model/reshape_8/Reshape/shape/3", "shape": [], "dtype": "int32"}, {"name": "StatefulPartitionedCall/model/expanded_conv_10/squeeze_excite/Conv/Conv2D/ReadVariableOp", "shape": [1, 1, 576, 144], "dtype": "float32", "quantization": {"dtype": "uint16", "min": -0.6518826682771144, "scale": 2.6107680254600282e-05, "original_dtype": "float32"}}, {"name": "StatefulPartitionedCall/model/expanded_conv_10/squeeze_excite/Conv/BiasAdd/ReadVariableOp", "shape": [144], "dtype": "float32", "quantization": {"dtype": "uint16", "min": -2.1996700465929284, "scale": 7.871989573749878e-05, "original_dtype": "float32"}}, {"name": "StatefulPartitionedCall/model/expanded_conv_10/squeeze_excite/Conv_1/Conv2D/ReadVariableOp", "shape": [1, 1, 144, 576], "dtype": "float32", "quantization": {"dtype": "uint16", "min": -0.806640534158283, "scale": 3.402111067727891e-05, "original_dtype": "float32"}}, {"name": "StatefulPartitionedCall/model/expanded_conv_10/squeeze_excite/Conv_1/BiasAdd/ReadVariableOp", "shape": [576], "dtype": "float32", "quantization": {"dtype": "uint16", "min": -3.576856342103795, "scale": 0.0001287472587324093, "original_dtype": "float32"}}, {"name": "StatefulPartitionedCall/model/tf.__operators__.add_25/y", "shape": [], "dtype": "float32", "quantization": {"dtype": "uint16", "min": 3.0, "scale": 1.0, "original_dtype": "float32"}}, {"name": "StatefulPartitionedCall/model/tf.math.multiply_24/Mul/y", "shape": [], "dtype": "float32", "quantization": {"dtype": "uint16", "min": 0.1666666716337204, "scale": 1.0, "original_dtype": "float32"}}, {"name": "StatefulPartitionedCall/model/tf.__operators__.add_24/y", "shape": [], "dtype": "float32", "quantization": {"dtype": "uint16", "min": 3.0, "scale": 1.0, "original_dtype": "float32"}}, {"name": "StatefulPartitionedCall/model/tf.math.multiply_23/Mul/y", "shape": [], "dtype": "float32", "quantization": {"dtype": "uint16", "min": 0.1666666716337204, "scale": 1.0, "original_dtype": "float32"}}, {"name": "StatefulPartitionedCall/model/tf.__operators__.add_23/y", "shape": [], "dtype": "float32", "quantization": {"dtype": "uint16", "min": 3.0, "scale": 1.0, "original_dtype": "float32"}}, {"name": "StatefulPartitionedCall/model/tf.math.multiply_22/Mul/y", "shape": [], "dtype": "float32", "quantization": {"dtype": "uint16", "min": 0.1666666716337204, "scale": 1.0, "original_dtype": "float32"}}, {"name": "StatefulPartitionedCall/model/expanded_conv_9/squeeze_excite/AvgPool/Mean/reduction_indices", "shape": [2], "dtype": "int32"}, {"name": "StatefulPartitionedCall/model/reshape_7/strided_slice/stack", "shape": [1], "dtype": "int32"}, {"name": "StatefulPartitionedCall/model/reshape_7/strided_slice/stack_1", "shape": [1], "dtype": "int32"}, {"name": "StatefulPartitionedCall/model/reshape_7/strided_slice/stack_2", "shape": [1], "dtype": "int32"}, {"name": "StatefulPartitionedCall/model/reshape_7/Reshape/shape/1", "shape": [], "dtype": "int32"}, {"name": "StatefulPartitionedCall/model/reshape_7/Reshape/shape/2", "shape": [], "dtype": "int32"}, {"name": "StatefulPartitionedCall/model/reshape_7/Reshape/shape/3", "shape": [], "dtype": "int32"}, {"name": "StatefulPartitionedCall/model/expanded_conv_9/squeeze_excite/Conv/Conv2D/ReadVariableOp", "shape": [1, 1, 576, 144], "dtype": "float32", "quantization": {"dtype": "uint16", "min": -0.7616123626759117, "scale": 2.5788520051329418e-05, "original_dtype": "float32"}}, {"name": "StatefulPartitionedCall/model/expanded_conv_9/squeeze_excite/Conv/BiasAdd/ReadVariableOp", "shape": [144], "dtype": "float32", "quantization": {"dtype": "uint16", "min": -1.3452881808720054, "scale": 3.921437010645384e-05, "original_dtype": "float32"}}, {"name": "StatefulPartitionedCall/model/expanded_conv_9/squeeze_excite/Conv_1/Conv2D/ReadVariableOp", "shape": [1, 1, 144, 576], "dtype": "float32", "quantization": {"dtype": "uint16", "min": -0.8092133964855229, "scale": 3.633647941111463e-05, "original_dtype": "float32"}}, {"name": "StatefulPartitionedCall/model/expanded_conv_9/squeeze_excite/Conv_1/BiasAdd/ReadVariableOp", "shape": [576], "dtype": "float32", "quantization": {"dtype": "uint16", "min": -3.046681670559765, "scale": 9.095386663163165e-05, "original_dtype": "float32"}}, {"name": "StatefulPartitionedCall/model/tf.__operators__.add_22/y", "shape": [], "dtype": "float32", "quantization": {"dtype": "uint16", "min": 3.0, "scale": 1.0, "original_dtype": "float32"}}, {"name": "StatefulPartitionedCall/model/tf.math.multiply_21/Mul/y", "shape": [], "dtype": "float32", "quantization": {"dtype": "uint16", "min": 0.1666666716337204, "scale": 1.0, "original_dtype": "float32"}}, {"name": "StatefulPartitionedCall/model/tf.__operators__.add_21/y", "shape": [], "dtype": "float32", "quantization": {"dtype": "uint16", "min": 3.0, "scale": 1.0, "original_dtype": "float32"}}, {"name": "StatefulPartitionedCall/model/tf.math.multiply_20/Mul/y", "shape": [], "dtype": "float32", "quantization": {"dtype": "uint16", "min": 0.1666666716337204, "scale": 1.0, "original_dtype": "float32"}}, {"name": "StatefulPartitionedCall/model/tf.__operators__.add_20/y", "shape": [], "dtype": "float32", "quantization": {"dtype": "uint16", "min": 3.0, "scale": 1.0, "original_dtype": "float32"}}, {"name": "StatefulPartitionedCall/model/tf.math.multiply_19/Mul/y", "shape": [], "dtype": "float32", "quantization": {"dtype": "uint16", "min": 0.1666666716337204, "scale": 1.0, "original_dtype": "float32"}}, {"name": "StatefulPartitionedCall/model/expanded_conv_8/squeeze_excite/AvgPool/Mean/reduction_indices", "shape": [2], "dtype": "int32"}, {"name": "StatefulPartitionedCall/model/reshape_6/strided_slice/stack", "shape": [1], "dtype": "int32"}, {"name": "StatefulPartitionedCall/model/reshape_6/strided_slice/stack_1", "shape": [1], "dtype": "int32"}, {"name": "StatefulPartitionedCall/model/reshape_6/strided_slice/stack_2", "shape": [1], "dtype": "int32"}, {"name": "StatefulPartitionedCall/model/reshape_6/Reshape/shape/1", "shape": [], "dtype": "int32"}, {"name": "StatefulPartitionedCall/model/reshape_6/Reshape/shape/2", "shape": [], "dtype": "int32"}, {"name": "StatefulPartitionedCall/model/reshape_6/Reshape/shape/3", "shape": [], "dtype": "int32"}, {"name": "StatefulPartitionedCall/model/expanded_conv_8/squeeze_excite/Conv/Conv2D/ReadVariableOp", "shape": [1, 1, 288, 72], "dtype": "float32", "quantization": {"dtype": "uint16", "min": -0.9105619124601496, "scale": 3.044441179779162e-05, "original_dtype": "float32"}}, {"name": "StatefulPartitionedCall/model/expanded_conv_8/squeeze_excite/Conv/BiasAdd/ReadVariableOp", "shape": [72], "dtype": "float32", "quantization": {"dtype": "uint16", "min": -3.155323576139551, "scale": 8.526518878396884e-05, "original_dtype": "float32"}}, {"name": "StatefulPartitionedCall/model/expanded_conv_8/squeeze_excite/Conv_1/Conv2D/ReadVariableOp", "shape": [1, 1, 72, 288], "dtype": "float32", "quantization": {"dtype": "uint16", "min": -0.967757692938767, "scale": 2.3242175247100413e-05, "original_dtype": "float32"}}, {"name": "StatefulPartitionedCall/model/expanded_conv_8/squeeze_excite/Conv_1/BiasAdd/ReadVariableOp", "shape": [288], "dtype": "float32", "quantization": {"dtype": "uint16", "min": -1.2863528039113985, "scale": 7.451070458244893e-05, "original_dtype": "float32"}}, {"name": "StatefulPartitionedCall/model/tf.__operators__.add_19/y", "shape": [], "dtype": "float32", "quantization": {"dtype": "uint16", "min": 3.0, "scale": 1.0, "original_dtype": "float32"}}, {"name": "StatefulPartitionedCall/model/tf.math.multiply_18/Mul/y", "shape": [], "dtype": "float32", "quantization": {"dtype": "uint16", "min": 0.1666666716337204, "scale": 1.0, "original_dtype": "float32"}}, {"name": "StatefulPartitionedCall/model/tf.__operators__.add_18/y", "shape": [], "dtype": "float32", "quantization": {"dtype": "uint16", "min": 3.0, "scale": 1.0, "original_dtype": "float32"}}, {"name": "StatefulPartitionedCall/model/tf.math.multiply_17/Mul/y", "shape": [], "dtype": "float32", "quantization": {"dtype": "uint16", "min": 0.1666666716337204, "scale": 1.0, "original_dtype": "float32"}}, {"name": "StatefulPartitionedCall/model/tf.__operators__.add_17/y", "shape": [], "dtype": "float32", "quantization": {"dtype": "uint16", "min": 3.0, "scale": 1.0, "original_dtype": "float32"}}, {"name": "StatefulPartitionedCall/model/tf.math.multiply_16/Mul/y", "shape": [], "dtype": "float32", "quantization": {"dtype": "uint16", "min": 0.1666666716337204, "scale": 1.0, "original_dtype": "float32"}}, {"name": "StatefulPartitionedCall/model/expanded_conv_7/squeeze_excite/AvgPool/Mean/reduction_indices", "shape": [2], "dtype": "int32"}, {"name": "StatefulPartitionedCall/model/reshape_5/strided_slice/stack", "shape": [1], "dtype": "int32"}, {"name": "StatefulPartitionedCall/model/reshape_5/strided_slice/stack_1", "shape": [1], "dtype": "int32"}, {"name": "StatefulPartitionedCall/model/reshape_5/strided_slice/stack_2", "shape": [1], "dtype": "int32"}, {"name": "StatefulPartitionedCall/model/reshape_5/Reshape/shape/1", "shape": [], "dtype": "int32"}, {"name": "StatefulPartitionedCall/model/reshape_5/Reshape/shape/2", "shape": [], "dtype": "int32"}, {"name": "StatefulPartitionedCall/model/reshape_5/Reshape/shape/3", "shape": [], "dtype": "int32"}, {"name": "StatefulPartitionedCall/model/expanded_conv_7/squeeze_excite/Conv/Conv2D/ReadVariableOp", "shape": [1, 1, 144, 40], "dtype": "float32", "quantization": {"dtype": "uint16", "min": -0.9999316232732134, "scale": 2.7824571424248363e-05, "original_dtype": "float32"}}, {"name": "StatefulPartitionedCall/model/expanded_conv_7/squeeze_excite/Conv/BiasAdd/ReadVariableOp", "shape": [40], "dtype": "float32", "quantization": {"dtype": "uint16", "min": -0.19803264044083674, "scale": 2.122536339130083e-05, "original_dtype": "float32"}}, {"name": "StatefulPartitionedCall/model/expanded_conv_7/squeeze_excite/Conv_1/Conv2D/ReadVariableOp", "shape": [1, 1, 40, 144], "dtype": "float32", "quantization": {"dtype": "uint16", "min": -0.6200563751497049, "scale": 1.953364127995794e-05, "original_dtype": "float32"}}, {"name": "StatefulPartitionedCall/model/expanded_conv_7/squeeze_excite/Conv_1/BiasAdd/ReadVariableOp", "shape": [144], "dtype": "float32", "quantization": {"dtype": "uint16", "min": -3.0429671772522973, "scale": 8.833765428781309e-05, "original_dtype": "float32"}}, {"name": "StatefulPartitionedCall/model/tf.__operators__.add_16/y", "shape": [], "dtype": "float32", "quantization": {"dtype": "uint16", "min": 3.0, "scale": 1.0, "original_dtype": "float32"}}, {"name": "StatefulPartitionedCall/model/tf.math.multiply_15/Mul/y", "shape": [], "dtype": "float32", "quantization": {"dtype": "uint16", "min": 0.1666666716337204, "scale": 1.0, "original_dtype": "float32"}}, {"name": "StatefulPartitionedCall/model/tf.__operators__.add_15/y", "shape": [], "dtype": "float32", "quantization": {"dtype": "uint16", "min": 3.0, "scale": 1.0, "original_dtype": "float32"}}, {"name": "StatefulPartitionedCall/model/tf.math.multiply_14/Mul/y", "shape": [], "dtype": "float32", "quantization": {"dtype": "uint16", "min": 0.1666666716337204, "scale": 1.0, "original_dtype": "float32"}}, {"name": "StatefulPartitionedCall/model/tf.__operators__.add_14/y", "shape": [], "dtype": "float32", "quantization": {"dtype": "uint16", "min": 3.0, "scale": 1.0, "original_dtype": "float32"}}, {"name": "StatefulPartitionedCall/model/tf.math.multiply_13/Mul/y", "shape": [], "dtype": "float32", "quantization": {"dtype": "uint16", "min": 0.1666666716337204, "scale": 1.0, "original_dtype": "float32"}}, {"name": "StatefulPartitionedCall/model/expanded_conv_6/squeeze_excite/AvgPool/Mean/reduction_indices", "shape": [2], "dtype": "int32"}, {"name": "StatefulPartitionedCall/model/reshape_4/strided_slice/stack", "shape": [1], "dtype": "int32"}, {"name": "StatefulPartitionedCall/model/reshape_4/strided_slice/stack_1", "shape": [1], "dtype": "int32"}, {"name": "StatefulPartitionedCall/model/reshape_4/strided_slice/stack_2", "shape": [1], "dtype": "int32"}, {"name": "StatefulPartitionedCall/model/reshape_4/Reshape/shape/1", "shape": [], "dtype": "int32"}, {"name": "StatefulPartitionedCall/model/reshape_4/Reshape/shape/2", "shape": [], "dtype": "int32"}, {"name": "StatefulPartitionedCall/model/reshape_4/Reshape/shape/3", "shape": [], "dtype": "int32"}, {"name": "StatefulPartitionedCall/model/expanded_conv_6/squeeze_excite/Conv/Conv2D/ReadVariableOp", "shape": [1, 1, 120, 32], "dtype": "float32", "quantization": {"dtype": "uint16", "min": -0.00891020906913039, "scale": 1.589519243101611e-07, "original_dtype": "float32"}}, {"name": "StatefulPartitionedCall/model/expanded_conv_6/squeeze_excite/Conv/BiasAdd/ReadVariableOp", "shape": [32], "dtype": "float32", "quantization": {"dtype": "uint16", "min": -0.5464356451865109, "scale": 2.159397926048255e-05, "original_dtype": "float32"}}, {"name": "StatefulPartitionedCall/model/expanded_conv_6/squeeze_excite/Conv_1/Conv2D/ReadVariableOp", "shape": [1, 1, 32, 120], "dtype": "float32", "quantization": {"dtype": "uint16", "min": -0.005973038192250945, "scale": 1.6225350262817333e-07, "original_dtype": "float32"}}, {"name": "StatefulPartitionedCall/model/expanded_conv_6/squeeze_excite/Conv_1/BiasAdd/ReadVariableOp", "shape": [120], "dtype": "float32", "quantization": {"dtype": "uint16", "min": -2.009667370144195, "scale": 7.702531026576962e-05, "original_dtype": "float32"}}, {"name": "StatefulPartitionedCall/model/tf.__operators__.add_13/y", "shape": [], "dtype": "float32", "quantization": {"dtype": "uint16", "min": 3.0, "scale": 1.0, "original_dtype": "float32"}}, {"name": "StatefulPartitionedCall/model/tf.math.multiply_12/Mul/y", "shape": [], "dtype": "float32", "quantization": {"dtype": "uint16", "min": 0.1666666716337204, "scale": 1.0, "original_dtype": "float32"}}, {"name": "StatefulPartitionedCall/model/tf.__operators__.add_12/y", "shape": [], "dtype": "float32", "quantization": {"dtype": "uint16", "min": 3.0, "scale": 1.0, "original_dtype": "float32"}}, {"name": "StatefulPartitionedCall/model/tf.math.multiply_11/Mul/y", "shape": [], "dtype": "float32", "quantization": {"dtype": "uint16", "min": 0.1666666716337204, "scale": 1.0, "original_dtype": "float32"}}, {"name": "StatefulPartitionedCall/model/tf.__operators__.add_11/y", "shape": [], "dtype": "float32", "quantization": {"dtype": "uint16", "min": 3.0, "scale": 1.0, "original_dtype": "float32"}}, {"name": "StatefulPartitionedCall/model/tf.math.multiply_10/Mul/y", "shape": [], "dtype": "float32", "quantization": {"dtype": "uint16", "min": 0.1666666716337204, "scale": 1.0, "original_dtype": "float32"}}, {"name": "StatefulPartitionedCall/model/expanded_conv_5/squeeze_excite/AvgPool/Mean/reduction_indices", "shape": [2], "dtype": "int32"}, {"name": "StatefulPartitionedCall/model/reshape_3/strided_slice/stack", "shape": [1], "dtype": "int32"}, {"name": "StatefulPartitionedCall/model/reshape_3/strided_slice/stack_1", "shape": [1], "dtype": "int32"}, {"name": "StatefulPartitionedCall/model/reshape_3/strided_slice/stack_2", "shape": [1], "dtype": "int32"}, {"name": "StatefulPartitionedCall/model/reshape_3/Reshape/shape/1", "shape": [], "dtype": "int32"}, {"name": "StatefulPartitionedCall/model/reshape_3/Reshape/shape/2", "shape": [], "dtype": "int32"}, {"name": "StatefulPartitionedCall/model/reshape_3/Reshape/shape/3", "shape": [], "dtype": "int32"}, {"name": "StatefulPartitionedCall/model/expanded_conv_5/squeeze_excite/Conv/Conv2D/ReadVariableOp", "shape": [1, 1, 240, 64], "dtype": "float32", "quantization": {"dtype": "uint16", "min": -1.4480629280156105, "scale": 3.307287886021402e-05, "original_dtype": "float32"}}, {"name": "StatefulPartitionedCall/model/expanded_conv_5/squeeze_excite/Conv/BiasAdd/ReadVariableOp", "shape": [64], "dtype": "float32", "quantization": {"dtype": "uint16", "min": -0.7630412453779996, "scale": 2.5508683361013593e-05, "original_dtype": "float32"}}, {"name": "StatefulPartitionedCall/model/expanded_conv_5/squeeze_excite/Conv_1/Conv2D/ReadVariableOp", "shape": [1, 1, 64, 240], "dtype": "float32", "quantization": {"dtype": "uint16", "min": -0.7417663145731068, "scale": 2.638892577370617e-05, "original_dtype": "float32"}}, {"name": "StatefulPartitionedCall/model/expanded_conv_5/squeeze_excite/Conv_1/BiasAdd/ReadVariableOp", "shape": [240], "dtype": "float32", "quantization": {"dtype": "uint16", "min": -3.938847521869016, "scale": 0.00010214588630660553, "original_dtype": "float32"}}, {"name": "StatefulPartitionedCall/model/tf.__operators__.add_10/y", "shape": [], "dtype": "float32", "quantization": {"dtype": "uint16", "min": 3.0, "scale": 1.0, "original_dtype": "float32"}}, {"name": "StatefulPartitionedCall/model/tf.math.multiply_9/Mul/y", "shape": [], "dtype": "float32", "quantization": {"dtype": "uint16", "min": 0.1666666716337204, "scale": 1.0, "original_dtype": "float32"}}, {"name": "StatefulPartitionedCall/model/tf.__operators__.add_9/y", "shape": [], "dtype": "float32", "quantization": {"dtype": "uint16", "min": 3.0, "scale": 1.0, "original_dtype": "float32"}}, {"name": "StatefulPartitionedCall/model/tf.math.multiply_8/Mul/y", "shape": [], "dtype": "float32", "quantization": {"dtype": "uint16", "min": 0.1666666716337204, "scale": 1.0, "original_dtype": "float32"}}, {"name": "StatefulPartitionedCall/model/tf.__operators__.add_8/y", "shape": [], "dtype": "float32", "quantization": {"dtype": "uint16", "min": 3.0, "scale": 1.0, "original_dtype": "float32"}}, {"name": "StatefulPartitionedCall/model/tf.math.multiply_7/Mul/y", "shape": [], "dtype": "float32", "quantization": {"dtype": "uint16", "min": 0.1666666716337204, "scale": 1.0, "original_dtype": "float32"}}, {"name": "StatefulPartitionedCall/model/expanded_conv_4/squeeze_excite/AvgPool/Mean/reduction_indices", "shape": [2], "dtype": "int32"}, {"name": "StatefulPartitionedCall/model/reshape_2/strided_slice/stack", "shape": [1], "dtype": "int32"}, {"name": "StatefulPartitionedCall/model/reshape_2/strided_slice/stack_1", "shape": [1], "dtype": "int32"}, {"name": "StatefulPartitionedCall/model/reshape_2/strided_slice/stack_2", "shape": [1], "dtype": "int32"}, {"name": "StatefulPartitionedCall/model/reshape_2/Reshape/shape/1", "shape": [], "dtype": "int32"}, {"name": "StatefulPartitionedCall/model/reshape_2/Reshape/shape/2", "shape": [], "dtype": "int32"}, {"name": "StatefulPartitionedCall/model/reshape_2/Reshape/shape/3", "shape": [], "dtype": "int32"}, {"name": "StatefulPartitionedCall/model/expanded_conv_4/squeeze_excite/Conv/Conv2D/ReadVariableOp", "shape": [1, 1, 240, 64], "dtype": "float32", "quantization": {"dtype": "uint16", "min": -1.5484753522336678, "scale": 4.0749351374570206e-05, "original_dtype": "float32"}}, {"name": "StatefulPartitionedCall/model/expanded_conv_4/squeeze_excite/Conv/BiasAdd/ReadVariableOp", "shape": [64], "dtype": "float32", "quantization": {"dtype": "uint16", "min": -1.5823815581508784, "scale": 4.5458977797433954e-05, "original_dtype": "float32"}}, {"name": "StatefulPartitionedCall/model/expanded_conv_4/squeeze_excite/Conv_1/Conv2D/ReadVariableOp", "shape": [1, 1, 64, 240], "dtype": "float32", "quantization": {"dtype": "uint16", "min": -0.6938125518527576, "scale": 2.6193466922861583e-05, "original_dtype": "float32"}}, {"name": "StatefulPartitionedCall/model/expanded_conv_4/squeeze_excite/Conv_1/BiasAdd/ReadVariableOp", "shape": [240], "dtype": "float32", "quantization": {"dtype": "uint16", "min": -3.2407021349533442, "scale": 0.00010053364774168898, "original_dtype": "float32"}}, {"name": "StatefulPartitionedCall/model/tf.__operators__.add_7/y", "shape": [], "dtype": "float32", "quantization": {"dtype": "uint16", "min": 3.0, "scale": 1.0, "original_dtype": "float32"}}, {"name": "StatefulPartitionedCall/model/tf.math.multiply_6/Mul/y", "shape": [], "dtype": "float32", "quantization": {"dtype": "uint16", "min": 0.1666666716337204, "scale": 1.0, "original_dtype": "float32"}}, {"name": "StatefulPartitionedCall/model/tf.__operators__.add_6/y", "shape": [], "dtype": "float32", "quantization": {"dtype": "uint16", "min": 3.0, "scale": 1.0, "original_dtype": "float32"}}, {"name": "StatefulPartitionedCall/model/tf.math.multiply_5/Mul/y", "shape": [], "dtype": "float32", "quantization": {"dtype": "uint16", "min": 0.1666666716337204, "scale": 1.0, "original_dtype": "float32"}}, {"name": "StatefulPartitionedCall/model/tf.__operators__.add_5/y", "shape": [], "dtype": "float32", "quantization": {"dtype": "uint16", "min": 3.0, "scale": 1.0, "original_dtype": "float32"}}, {"name": "StatefulPartitionedCall/model/tf.math.multiply_4/Mul/y", "shape": [], "dtype": "float32", "quantization": {"dtype": "uint16", "min": 0.1666666716337204, "scale": 1.0, "original_dtype": "float32"}}, {"name": "StatefulPartitionedCall/model/expanded_conv_3/squeeze_excite/AvgPool/Mean/reduction_indices", "shape": [2], "dtype": "int32"}, {"name": "StatefulPartitionedCall/model/reshape_1/strided_slice/stack", "shape": [1], "dtype": "int32"}, {"name": "StatefulPartitionedCall/model/reshape_1/strided_slice/stack_1", "shape": [1], "dtype": "int32"}, {"name": "StatefulPartitionedCall/model/reshape_1/strided_slice/stack_2", "shape": [1], "dtype": "int32"}, {"name": "StatefulPartitionedCall/model/reshape_1/Reshape/shape/1", "shape": [], "dtype": "int32"}, {"name": "StatefulPartitionedCall/model/reshape_1/Reshape/shape/2", "shape": [], "dtype": "int32"}, {"name": "StatefulPartitionedCall/model/reshape_1/Reshape/shape/3", "shape": [], "dtype": "int32"}, {"name": "StatefulPartitionedCall/model/expanded_conv_3/squeeze_excite/Conv/Conv2D/ReadVariableOp", "shape": [1, 1, 96, 24], "dtype": "float32", "quantization": {"dtype": "uint16", "min": -0.7194254424521603, "scale": 3.00725428437972e-05, "original_dtype": "float32"}}, {"name": "StatefulPartitionedCall/model/expanded_conv_3/squeeze_excite/Conv/BiasAdd/ReadVariableOp", "shape": [24], "dtype": "float32", "quantization": {"dtype": "uint16", "min": -0.48050366511304526, "scale": 2.8420397770925965e-05, "original_dtype": "float32"}}, {"name": "StatefulPartitionedCall/model/expanded_conv_3/squeeze_excite/Conv_1/Conv2D/ReadVariableOp", "shape": [1, 1, 24, 96], "dtype": "float32", "quantization": {"dtype": "uint16", "min": -0.5249728236253359, "scale": 1.894798323920219e-05, "original_dtype": "float32"}}, {"name": "StatefulPartitionedCall/model/expanded_conv_3/squeeze_excite/Conv_1/BiasAdd/ReadVariableOp", "shape": [96], "dtype": "float32", "quantization": {"dtype": "uint16", "min": -4.982356499828881, "scale": 0.00012214352430263737, "original_dtype": "float32"}}, {"name": "StatefulPartitionedCall/model/tf.__operators__.add_4/y", "shape": [], "dtype": "float32", "quantization": {"dtype": "uint16", "min": 3.0, "scale": 1.0, "original_dtype": "float32"}}, {"name": "StatefulPartitionedCall/model/tf.math.multiply_3/Mul/y", "shape": [], "dtype": "float32", "quantization": {"dtype": "uint16", "min": 0.1666666716337204, "scale": 1.0, "original_dtype": "float32"}}, {"name": "StatefulPartitionedCall/model/tf.__operators__.add_3/y", "shape": [], "dtype": "float32", "quantization": {"dtype": "uint16", "min": 3.0, "scale": 1.0, "original_dtype": "float32"}}, {"name": "StatefulPartitionedCall/model/tf.math.multiply_2/Mul/y", "shape": [], "dtype": "float32", "quantization": {"dtype": "uint16", "min": 0.1666666716337204, "scale": 1.0, "original_dtype": "float32"}}, {"name": "StatefulPartitionedCall/model/tf.__operators__.add_2/y", "shape": [], "dtype": "float32", "quantization": {"dtype": "uint16", "min": 3.0, "scale": 1.0, "original_dtype": "float32"}}, {"name": "StatefulPartitionedCall/model/tf.math.multiply_1/Mul/y", "shape": [], "dtype": "float32", "quantization": {"dtype": "uint16", "min": 0.1666666716337204, "scale": 1.0, "original_dtype": "float32"}}, {"name": "StatefulPartitionedCall/model/expanded_conv/squeeze_excite/AvgPool/Mean/reduction_indices", "shape": [2], "dtype": "int32"}, {"name": "StatefulPartitionedCall/model/reshape/strided_slice/stack", "shape": [1], "dtype": "int32"}, {"name": "StatefulPartitionedCall/model/reshape/strided_slice/stack_1", "shape": [1], "dtype": "int32"}, {"name": "StatefulPartitionedCall/model/reshape/strided_slice/stack_2", "shape": [1], "dtype": "int32"}, {"name": "StatefulPartitionedCall/model/reshape/Reshape/shape/1", "shape": [], "dtype": "int32"}, {"name": "StatefulPartitionedCall/model/reshape/Reshape/shape/2", "shape": [], "dtype": "int32"}, {"name": "StatefulPartitionedCall/model/reshape/Reshape/shape/3", "shape": [], "dtype": "int32"}, {"name": "StatefulPartitionedCall/model/expanded_conv/squeeze_excite/Conv/Conv2D/ReadVariableOp", "shape": [1, 1, 16, 8], "dtype": "float32", "quantization": {"dtype": "uint16", "min": -0.044838710041607124, "scale": 2.127679132656692e-06, "original_dtype": "float32"}}, {"name": "StatefulPartitionedCall/model/expanded_conv/squeeze_excite/Conv/BiasAdd/ReadVariableOp", "shape": [8], "dtype": "float32", "quantization": {"dtype": "uint16", "min": -2.2445616387626055, "scale": 7.941977350373667e-05, "original_dtype": "float32"}}, {"name": "StatefulPartitionedCall/model/expanded_conv/squeeze_excite/Conv_1/Conv2D/ReadVariableOp", "shape": [1, 1, 8, 16], "dtype": "float32", "quantization": {"dtype": "uint16", "min": -0.0, "scale": 2.315973557041269e-06, "original_dtype": "float32"}}, {"name": "StatefulPartitionedCall/model/expanded_conv/squeeze_excite/Conv_1/BiasAdd/ReadVariableOp", "shape": [16], "dtype": "float32", "quantization": {"dtype": "uint16", "min": -0.7837212928692809, "scale": 4.4958770816273574e-05, "original_dtype": "float32"}}, {"name": "StatefulPartitionedCall/model/tf.__operators__.add_1/y", "shape": [], "dtype": "float32", "quantization": {"dtype": "uint16", "min": 3.0, "scale": 1.0, "original_dtype": "float32"}}, {"name": "StatefulPartitionedCall/model/tf.math.multiply/Mul/y", "shape": [], "dtype": "float32", "quantization": {"dtype": "uint16", "min": 0.1666666716337204, "scale": 1.0, "original_dtype": "float32"}}, {"name": "StatefulPartitionedCall/model/tf.__operators__.add/y", "shape": [], "dtype": "float32", "quantization": {"dtype": "uint16", "min": 3.0, "scale": 1.0, "original_dtype": "float32"}}, {"name": "StatefulPartitionedCall/model/rescaling/Cast/x", "shape": [], "dtype": "float32", "quantization": {"dtype": "uint16", "min": 0.007843137718737125, "scale": 1.0, "original_dtype": "float32"}}, {"name": "StatefulPartitionedCall/model/rescaling/Cast_1/x", "shape": [], "dtype": "float32", "quantization": {"dtype": "uint16", "min": -1.0, "scale": 1.0, "original_dtype": "float32"}}, {"name": "StatefulPartitionedCall/model/expanded_conv/depthwise/pad/Pad/paddings", "shape": [4, 2], "dtype": "int32"}, {"name": "StatefulPartitionedCall/model/expanded_conv_1/depthwise/pad/Pad/paddings", "shape": [4, 2], "dtype": "int32"}, {"name": "StatefulPartitionedCall/model/expanded_conv_3/depthwise/pad/Pad/paddings", "shape": [4, 2], "dtype": "int32"}, {"name": "StatefulPartitionedCall/model/expanded_conv_8/depthwise/pad/Pad/paddings", "shape": [4, 2], "dtype": "int32"}, {"name": "StatefulPartitionedCall/model/Conv_2/Conv2D/ReadVariableOp", "shape": [1, 1, 576, 1024], "dtype": "float32", "quantization": {"dtype": "uint16", "min": -0.7386337477573134, "scale": 2.8719380526354578e-05, "original_dtype": "float32"}}, {"name": "StatefulPartitionedCall/model/Conv_2/BiasAdd/ReadVariableOp", "shape": [1024], "dtype": "float32", "quantization": {"dtype": "uint16", "min": -3.761061473988537, "scale": 8.618973517859928e-05, "original_dtype": "float32"}}, {"name": "StatefulPartitionedCall/model/global_max_pooling2d/Max/reduction_indices", "shape": [2], "dtype": "int32"}, {"name": "StatefulPartitionedCall/model/dense/MatMul/ReadVariableOp", "shape": [1024, 8], "dtype": "float32", "quantization": {"dtype": "uint16", "min": -0.1364978653351002, "scale": 3.718983879658344e-06, "original_dtype": "float32"}}, {"name": "StatefulPartitionedCall/model/dense/BiasAdd/ReadVariableOp", "shape": [8], "dtype": "float32", "quantization": {"dtype": "uint16", "min": -0.0034955270789591222, "scale": 1.4734759848919287e-07, "original_dtype": "float32"}}, {"name": "StatefulPartitionedCall/model/Conv/Conv2D_weights", "shape": [3, 3, 3, 16], "dtype": "float32", "quantization": {"dtype": "uint16", "min": -1.9841442273084582, "scale": 6.264465719409144e-05, "original_dtype": "float32"}}, {"name": "StatefulPartitionedCall/model/expanded_conv_10/expand/Conv2D_weights", "shape": [1, 1, 96, 576], "dtype": "float32", "quantization": {"dtype": "uint16", "min": -0.42680312510376034, "scale": 1.36844119754965e-05, "original_dtype": "float32"}}, {"name": "StatefulPartitionedCall/model/Conv/Conv2D_bn_offset", "shape": [16], "dtype": "float32", "quantization": {"dtype": "uint16", "min": -0.6306867165597142, "scale": 0.00023306974004424027, "original_dtype": "float32"}}, {"name": "StatefulPartitionedCall/model/expanded_conv/depthwise/depthwise_weights", "shape": [3, 3, 16, 1], "dtype": "float32", "quantization": {"dtype": "uint16", "min": -44.89096831879573, "scale": 0.0014068434710832595, "original_dtype": "float32"}}, {"name": "StatefulPartitionedCall/model/expanded_conv/depthwise/depthwise_bn_offset", "shape": [16], "dtype": "float32", "quantization": {"dtype": "uint16", "min": -23.895282530921033, "scale": 0.0006288563221990903, "original_dtype": "float32"}}, {"name": "StatefulPartitionedCall/model/expanded_conv_10/expand/Conv2D_bn_offset", "shape": [576], "dtype": "float32", "quantization": {"dtype": "uint16", "min": -20.830899468175495, "scale": 0.0003650508993248777, "original_dtype": "float32"}}, {"name": "StatefulPartitionedCall/model/expanded_conv/project/Conv2D_weights", "shape": [1, 1, 16, 16], "dtype": "float32", "quantization": {"dtype": "uint16", "min": -2.2791600510031222, "scale": 7.177326565904967e-05, "original_dtype": "float32"}}, {"name": "StatefulPartitionedCall/model/expanded_conv/project/Conv2D_bn_offset", "shape": [16], "dtype": "float32", "quantization": {"dtype": "uint16", "min": -52.15357774632777, "scale": 0.0012967720360616583, "original_dtype": "float32"}}, {"name": "StatefulPartitionedCall/model/expanded_conv_1/expand/Conv2D_weights", "shape": [1, 1, 16, 72], "dtype": "float32", "quantization": {"dtype": "uint16", "min": -0.756275087200714, "scale": 2.324282645524353e-05, "original_dtype": "float32"}}, {"name": "StatefulPartitionedCall/model/expanded_conv_1/expand/Conv2D_bn_offset", "shape": [72], "dtype": "float32", "quantization": {"dtype": "uint16", "min": -5.5260513946612955, "scale": 0.0005562205731918767, "original_dtype": "float32"}}, {"name": "StatefulPartitionedCall/model/expanded_conv_1/depthwise/depthwise_weights", "shape": [3, 3, 72, 1], "dtype": "float32", "quantization": {"dtype": "uint16", "min": -13.46894128051022, "scale": 0.0004674118989627367, "original_dtype": "float32"}}, {"name": "StatefulPartitionedCall/model/expanded_conv_1/depthwise/depthwise_bn_offset", "shape": [72], "dtype": "float32", "quantization": {"dtype": "uint16", "min": -55.09189678287309, "scale": 0.0014531902820519927, "original_dtype": "float32"}}, {"name": "StatefulPartitionedCall/model/expanded_conv_1/project/Conv2D_weights", "shape": [1, 1, 72, 24], "dtype": "float32", "quantization": {"dtype": "uint16", "min": -2.400796846165813, "scale": 6.41238473869074e-05, "original_dtype": "float32"}}, {"name": "StatefulPartitionedCall/model/expanded_conv_1/project/Conv2D_bn_offset", "shape": [24], "dtype": "float32", "quantization": {"dtype": "uint16", "min": -67.59339518862475, "scale": 0.002785748235601086, "original_dtype": "float32"}}, {"name": "StatefulPartitionedCall/model/expanded_conv_2/expand/Conv2D_weights", "shape": [1, 1, 24, 88], "dtype": "float32", "quantization": {"dtype": "uint16", "min": -0.6078705127792027, "scale": 2.357732188267794e-05, "original_dtype": "float32"}}, {"name": "StatefulPartitionedCall/model/expanded_conv_10/depthwise/depthwise_weights", "shape": [5, 5, 576, 1], "dtype": "float32", "quantization": {"dtype": "uint16", "min": -97.13258520562762, "scale": 0.0021976692430794973, "original_dtype": "float32"}}, {"name": "StatefulPartitionedCall/model/expanded_conv_2/expand/Conv2D_bn_offset", "shape": [88], "dtype": "float32", "quantization": {"dtype": "uint16", "min": -4.369501281823266, "scale": 0.00020591429226311336, "original_dtype": "float32"}}, {"name": "StatefulPartitionedCall/model/expanded_conv_2/depthwise/depthwise_weights", "shape": [3, 3, 88, 1], "dtype": "float32", "quantization": {"dtype": "uint16", "min": -12.257539972637232, "scale": 0.00027319722675100256, "original_dtype": "float32"}}, {"name": "StatefulPartitionedCall/model/expanded_conv_2/depthwise/depthwise_bn_offset", "shape": [88], "dtype": "float32", "quantization": {"dtype": "uint16", "min": -27.421032626133922, "scale": 0.0009359033627814574, "original_dtype": "float32"}}, {"name": "StatefulPartitionedCall/model/expanded_conv_2/project/Conv2D_weights", "shape": [1, 1, 88, 24], "dtype": "float32", "quantization": {"dtype": "uint16", "min": -2.390492186717677, "scale": 6.622595818699238e-05, "original_dtype": "float32"}}, {"name": "StatefulPartitionedCall/model/expanded_conv_10/depthwise/depthwise_bn_offset", "shape": [576], "dtype": "float32", "quantization": {"dtype": "uint16", "min": -19.852096915337825, "scale": 0.0005823607883873926, "original_dtype": "float32"}}, {"name": "StatefulPartitionedCall/model/expanded_conv_2/project/Conv2D_bn_offset", "shape": [24], "dtype": "float32", "quantization": {"dtype": "uint16", "min": -34.527771810926126, "scale": 0.0009578010988079038, "original_dtype": "float32"}}, {"name": "StatefulPartitionedCall/model/expanded_conv_3/expand/Conv2D_weights", "shape": [1, 1, 24, 96], "dtype": "float32", "quantization": {"dtype": "uint16", "min": -0.41382892546996086, "scale": 1.2046018672351425e-05, "original_dtype": "float32"}}, {"name": "StatefulPartitionedCall/model/expanded_conv_3/expand/Conv2D_bn_offset", "shape": [96], "dtype": "float32", "quantization": {"dtype": "uint16", "min": -2.6209822242825873, "scale": 0.00017844377888634173, "original_dtype": "float32"}}, {"name": "StatefulPartitionedCall/model/expanded_conv_3/depthwise/depthwise_weights", "shape": [5, 5, 96, 1], "dtype": "float32", "quantization": {"dtype": "uint16", "min": -25.42047485886499, "scale": 0.0006672215769144857, "original_dtype": "float32"}}, {"name": "StatefulPartitionedCall/model/expanded_conv_3/depthwise/depthwise_bn_offset", "shape": [96], "dtype": "float32", "quantization": {"dtype": "uint16", "min": -3.091952227221898, "scale": 0.00024465518493605777, "original_dtype": "float32"}}, {"name": "StatefulPartitionedCall/model/expanded_conv_3/project/Conv2D_weights", "shape": [1, 1, 96, 40], "dtype": "float32", "quantization": {"dtype": "uint16", "min": -4.805150973290249, "scale": 0.00014426416996788304, "original_dtype": "float32"}}, {"name": "StatefulPartitionedCall/model/expanded_conv_3/project/Conv2D_bn_offset", "shape": [40], "dtype": "float32", "quantization": {"dtype": "uint16", "min": -21.072621729769203, "scale": 0.0008250830747756148, "original_dtype": "float32"}}, {"name": "StatefulPartitionedCall/model/expanded_conv_4/expand/Conv2D_weights", "shape": [1, 1, 40, 240], "dtype": "float32", "quantization": {"dtype": "uint16", "min": -0.44399803309434427, "scale": 1.1952138287238728e-05, "original_dtype": "float32"}}, {"name": "StatefulPartitionedCall/model/expanded_conv_4/expand/Conv2D_bn_offset", "shape": [240], "dtype": "float32", "quantization": {"dtype": "uint16", "min": -5.3040585588388405, "scale": 0.00017073516251975924, "original_dtype": "float32"}}, {"name": "StatefulPartitionedCall/model/expanded_conv_4/depthwise/depthwise_weights", "shape": [5, 5, 240, 1], "dtype": "float32", "quantization": {"dtype": "uint16", "min": -94.65074598924004, "scale": 0.0027501161051003875, "original_dtype": "float32"}}, {"name": "StatefulPartitionedCall/model/expanded_conv_4/depthwise/depthwise_bn_offset", "shape": [240], "dtype": "float32", "quantization": {"dtype": "uint16", "min": -5.676157771359595, "scale": 0.0001654181317059974, "original_dtype": "float32"}}, {"name": "StatefulPartitionedCall/model/expanded_conv_4/project/Conv2D_weights", "shape": [1, 1, 240, 40], "dtype": "float32", "quantization": {"dtype": "uint16", "min": -16.813939476435195, "scale": 0.0005146441638283247, "original_dtype": "float32"}}, {"name": "StatefulPartitionedCall/model/expanded_conv_4/project/Conv2D_bn_offset", "shape": [40], "dtype": "float32", "quantization": {"dtype": "uint16", "min": -12.000447669712822, "scale": 0.0002916765347619965, "original_dtype": "float32"}}, {"name": "StatefulPartitionedCall/model/expanded_conv_5/expand/Conv2D_weights", "shape": [1, 1, 40, 240], "dtype": "float32", "quantization": {"dtype": "uint16", "min": -0.15625198101064222, "scale": 4.613694186395081e-06, "original_dtype": "float32"}}, {"name": "StatefulPartitionedCall/model/expanded_conv_5/expand/Conv2D_bn_offset", "shape": [240], "dtype": "float32", "quantization": {"dtype": "uint16", "min": -2.18271942403157, "scale": 0.00010094433815990241, "original_dtype": "float32"}}, {"name": "StatefulPartitionedCall/model/expanded_conv_5/depthwise/depthwise_weights", "shape": [5, 5, 240, 1], "dtype": "float32", "quantization": {"dtype": "uint16", "min": -59.72370975419005, "scale": 0.0017751667386217468, "original_dtype": "float32"}}, {"name": "StatefulPartitionedCall/model/expanded_conv_5/depthwise/depthwise_bn_offset", "shape": [240], "dtype": "float32", "quantization": {"dtype": "uint16", "min": -14.349449150627953, "scale": 0.00032349909034939137, "original_dtype": "float32"}}, {"name": "StatefulPartitionedCall/model/expanded_conv_5/project/Conv2D_weights", "shape": [1, 1, 240, 40], "dtype": "float32", "quantization": {"dtype": "uint16", "min": -32.08765914895455, "scale": 0.0009396918953042595, "original_dtype": "float32"}}, {"name": "StatefulPartitionedCall/model/expanded_conv_5/project/Conv2D_bn_offset", "shape": [40], "dtype": "float32", "quantization": {"dtype": "uint16", "min": -35.16489260519197, "scale": 0.0008004209274393275, "original_dtype": "float32"}}, {"name": "StatefulPartitionedCall/model/expanded_conv_6/expand/Conv2D_weights", "shape": [1, 1, 40, 120], "dtype": "float32", "quantization": {"dtype": "uint16", "min": -0.18933308569837637, "scale": 8.613488271615321e-06, "original_dtype": "float32"}}, {"name": "StatefulPartitionedCall/model/expanded_conv_6/expand/Conv2D_bn_offset", "shape": [120], "dtype": "float32", "quantization": {"dtype": "uint16", "min": -1.5810447891362247, "scale": 0.00011010061205684015, "original_dtype": "float32"}}, {"name": "StatefulPartitionedCall/model/expanded_conv_6/depthwise/depthwise_weights", "shape": [5, 5, 120, 1], "dtype": "float32", "quantization": {"dtype": "uint16", "min": -26.15535418789183, "scale": 0.0009774048650183793, "original_dtype": "float32"}}, {"name": "StatefulPartitionedCall/model/expanded_conv_6/depthwise/depthwise_bn_offset", "shape": [120], "dtype": "float32", "quantization": {"dtype": "uint16", "min": -6.303249514460373, "scale": 0.00023578534075713062, "original_dtype": "float32"}}, {"name": "StatefulPartitionedCall/model/expanded_conv_6/project/Conv2D_weights", "shape": [1, 1, 120, 48], "dtype": "float32", "quantization": {"dtype": "uint16", "min": -3.9535104519625848, "scale": 0.0001519879460234732, "original_dtype": "float32"}}, {"name": "StatefulPartitionedCall/model/expanded_conv_10/project/Conv2D_weights", "shape": [1, 1, 576, 96], "dtype": "float32", "quantization": {"dtype": "uint16", "min": -5.183213584224974, "scale": 0.0001433926351903332, "original_dtype": "float32"}}, {"name": "StatefulPartitionedCall/model/expanded_conv_6/project/Conv2D_bn_offset", "shape": [48], "dtype": "float32", "quantization": {"dtype": "uint16", "min": -50.247347552950785, "scale": 0.0011634292887760954, "original_dtype": "float32"}}, {"name": "StatefulPartitionedCall/model/expanded_conv_7/expand/Conv2D_weights", "shape": [1, 1, 48, 144], "dtype": "float32", "quantization": {"dtype": "uint16", "min": -0.2700262356838554, "scale": 7.832977567483406e-06, "original_dtype": "float32"}}, {"name": "StatefulPartitionedCall/model/expanded_conv_7/expand/Conv2D_bn_offset", "shape": [144], "dtype": "float32", "quantization": {"dtype": "uint16", "min": -2.4464853729237275, "scale": 0.00012961511909529683, "original_dtype": "float32"}}, {"name": "StatefulPartitionedCall/model/expanded_conv_7/depthwise/depthwise_weights", "shape": [5, 5, 144, 1], "dtype": "float32", "quantization": {"dtype": "uint16", "min": -131.20778150563564, "scale": 0.002827083697951685, "original_dtype": "float32"}}, {"name": "StatefulPartitionedCall/model/expanded_conv_7/depthwise/depthwise_bn_offset", "shape": [144], "dtype": "float32", "quantization": {"dtype": "uint16", "min": -5.666432579327496, "scale": 0.0002350631618405167, "original_dtype": "float32"}}, {"name": "StatefulPartitionedCall/model/expanded_conv_10/project/Conv2D_bn_offset", "shape": [96], "dtype": "float32", "quantization": {"dtype": "uint16", "min": -7.006410313023667, "scale": 0.00020349133957839351, "original_dtype": "float32"}}, {"name": "StatefulPartitionedCall/model/expanded_conv_7/project/Conv2D_weights", "shape": [1, 1, 144, 48], "dtype": "float32", "quantization": {"dtype": "uint16", "min": -14.190856774160533, "scale": 0.0004456087663807239, "original_dtype": "float32"}}, {"name": "StatefulPartitionedCall/model/Conv_1/Conv2D_weights", "shape": [1, 1, 96, 576], "dtype": "float32", "quantization": {"dtype": "uint16", "min": -0.25857895870835207, "scale": 7.643932798520518e-06, "original_dtype": "float32"}}, {"name": "StatefulPartitionedCall/model/expanded_conv_7/project/Conv2D_bn_offset", "shape": [48], "dtype": "float32", "quantization": {"dtype": "uint16", "min": -6.649472973306146, "scale": 0.00018575503459245597, "original_dtype": "float32"}}, {"name": "StatefulPartitionedCall/model/expanded_conv_8/expand/Conv2D_weights", "shape": [1, 1, 48, 288], "dtype": "float32", "quantization": {"dtype": "uint16", "min": -0.2562823476030669, "scale": 7.92683021258442e-06, "original_dtype": "float32"}}, {"name": "StatefulPartitionedCall/model/expanded_conv_8/expand/Conv2D_bn_offset", "shape": [288], "dtype": "float32", "quantization": {"dtype": "uint16", "min": -2.663203371752588, "scale": 0.0001228244879284503, "original_dtype": "float32"}}, {"name": "StatefulPartitionedCall/model/expanded_conv_8/depthwise/depthwise_weights", "shape": [5, 5, 288, 1], "dtype": "float32", "quantization": {"dtype": "uint16", "min": -24.79582034130159, "scale": 0.00043587083991881574, "original_dtype": "float32"}}, {"name": "StatefulPartitionedCall/model/expanded_conv_8/depthwise/depthwise_bn_offset", "shape": [288], "dtype": "float32", "quantization": {"dtype": "uint16", "min": -2.776261804763609, "scale": 0.0001882083794158775, "original_dtype": "float32"}}, {"name": "StatefulPartitionedCall/model/Conv_1/Conv2D_bn_offset", "shape": [576], "dtype": "float32", "quantization": {"dtype": "uint16", "min": -14.316571139530776, "scale": 0.00022757588166289047, "original_dtype": "float32"}}, {"name": "StatefulPartitionedCall/model/expanded_conv_8/project/Conv2D_weights", "shape": [1, 1, 288, 96], "dtype": "float32", "quantization": {"dtype": "uint16", "min": -3.4245408872686007, "scale": 9.05747543513079e-05, "original_dtype": "float32"}}, {"name": "StatefulPartitionedCall/model/expanded_conv_8/project/Conv2D_bn_offset", "shape": [96], "dtype": "float32", "quantization": {"dtype": "uint16", "min": -7.073031021901651, "scale": 0.00027286875590840055, "original_dtype": "float32"}}, {"name": "StatefulPartitionedCall/model/expanded_conv_9/expand/Conv2D_weights", "shape": [1, 1, 96, 576], "dtype": "float32", "quantization": {"dtype": "uint16", "min": -0.40993487626471053, "scale": 1.0483731682898842e-05, "original_dtype": "float32"}}, {"name": "StatefulPartitionedCall/model/expanded_conv_9/expand/Conv2D_bn_offset", "shape": [576], "dtype": "float32", "quantization": {"dtype": "uint16", "min": -3.2027942670458485, "scale": 0.00011211517719907055, "original_dtype": "float32"}}, {"name": "StatefulPartitionedCall/model/expanded_conv_9/depthwise/depthwise_weights", "shape": [5, 5, 576, 1], "dtype": "float32", "quantization": {"dtype": "uint16", "min": -96.75223977649257, "scale": 0.0028798737878465465, "original_dtype": "float32"}}, {"name": "StatefulPartitionedCall/model/expanded_conv_9/depthwise/depthwise_bn_offset", "shape": [576], "dtype": "float32", "quantization": {"dtype": "uint16", "min": -10.290093281318732, "scale": 0.00030619809799793885, "original_dtype": "float32"}}, {"name": "StatefulPartitionedCall/model/expanded_conv_9/project/Conv2D_weights", "shape": [1, 1, 576, 96], "dtype": "float32", "quantization": {"dtype": "uint16", "min": -5.875911874808226, "scale": 0.0002041594063725453, "original_dtype": "float32"}}, {"name": "StatefulPartitionedCall/model/expanded_conv_9/project/Conv2D_bn_offset", "shape": [96], "dtype": "float32", "quantization": {"dtype": "uint16", "min": -2.820314156175105, "scale": 9.265462584760029e-05, "original_dtype": "float32"}}]}]}