{"format": "graph-model", "generatedBy": "2.6.0", "convertedBy": "TensorFlow.js Converter v3.8.0", "signature": {"inputs": {"input_1": {"name": "input_1:0", "dtype": "DT_FLOAT", "tensorShape": {"dim": [{"size": "-1"}, {"size": "128"}, {"size": "128"}, {"size": "3"}]}}}, "outputs": {"dense": {"name": "Identity:0", "dtype": "DT_FLOAT", "tensorShape": {"dim": [{"size": "-1"}, {"size": "5"}]}}}}, "modelTopology": {"node": [{"name": "StatefulPartitionedCall/model/block_1_pad/Pad/paddings", "op": "Const", "attr": {"value": {"tensor": {"dtype": "DT_INT32", "tensorShape": {"dim": [{"size": "4"}, {"size": "2"}]}}}, "dtype": {"type": "DT_INT32"}}}, {"name": "StatefulPartitionedCall/model/block_3_pad/Pad/paddings", "op": "Const", "attr": {"dtype": {"type": "DT_INT32"}, "value": {"tensor": {"dtype": "DT_INT32", "tensorShape": {"dim": [{"size": "4"}, {"size": "2"}]}}}}}, {"name": "StatefulPartitionedCall/model/block_6_pad/Pad/paddings", "op": "Const", "attr": {"dtype": {"type": "DT_INT32"}, "value": {"tensor": {"dtype": "DT_INT32", "tensorShape": {"dim": [{"size": "4"}, {"size": "2"}]}}}}}, {"name": "StatefulPartitionedCall/model/block_13_pad/Pad/paddings", "op": "Const", "attr": {"value": {"tensor": {"dtype": "DT_INT32", "tensorShape": {"dim": [{"size": "4"}, {"size": "2"}]}}}, "dtype": {"type": "DT_INT32"}}}, {"name": "StatefulPartitionedCall/model/global_average_pooling2d/Mean/reduction_indices", "op": "Const", "attr": {"dtype": {"type": "DT_INT32"}, "value": {"tensor": {"dtype": "DT_INT32", "tensorShape": {"dim": [{"size": "2"}]}}}}}, {"name": "StatefulPartitionedCall/model/dense/MatMul/ReadVariableOp", "op": "Const", "attr": {"dtype": {"type": "DT_FLOAT"}, "value": {"tensor": {"dtype": "DT_FLOAT", "tensorShape": {"dim": [{"size": "1280"}, {"size": "5"}]}}}}}, {"name": "StatefulPartitionedCall/model/dense/BiasAdd/ReadVariableOp", "op": "Const", "attr": {"value": {"tensor": {"dtype": "DT_FLOAT", "tensorShape": {"dim": [{"size": "5"}]}}}, "dtype": {"type": "DT_FLOAT"}}}, {"name": "input_1", "op": "Placeholder", "attr": {"shape": {"shape": {"dim": [{"size": "-1"}, {"size": "128"}, {"size": "128"}, {"size": "3"}]}}, "dtype": {"type": "DT_FLOAT"}}}, {"name": "StatefulPartitionedCall/model/Conv1/Conv2D_weights", "op": "Const", "attr": {"value": {"tensor": {"dtype": "DT_FLOAT", "tensorShape": {"dim": [{"size": "3"}, {"size": "3"}, {"size": "3"}, {"size": "32"}]}}}, "dtype": {"type": "DT_FLOAT"}}}, {"name": "StatefulPartitionedCall/model/block_14_expand/Conv2D_weights", "op": "Const", "attr": {"dtype": {"type": "DT_FLOAT"}, "value": {"tensor": {"dtype": "DT_FLOAT", "tensorShape": {"dim": [{"size": "1"}, {"size": "1"}, {"size": "160"}, {"size": "960"}]}}}}}, {"name": "StatefulPartitionedCall/model/Conv1/Conv2D_bn_offset", "op": "Const", "attr": {"dtype": {"type": "DT_FLOAT"}, "value": {"tensor": {"dtype": "DT_FLOAT", "tensorShape": {"dim": [{"size": "32"}]}}}}}, {"name": "StatefulPartitionedCall/model/block_16_project/Conv2D_bn_offset", "op": "Const", "attr": {"dtype": {"type": "DT_FLOAT"}, "value": {"tensor": {"dtype": "DT_FLOAT", "tensorShape": {"dim": [{"size": "320"}]}}}}}, {"name": "StatefulPartitionedCall/model/expanded_conv_depthwise/depthwise_weights", "op": "Const", "attr": {"value": {"tensor": {"dtype": "DT_FLOAT", "tensorShape": {"dim": [{"size": "3"}, {"size": "3"}, {"size": "32"}, {"size": "1"}]}}}, "dtype": {"type": "DT_FLOAT"}}}, {"name": "StatefulPartitionedCall/model/expanded_conv_depthwise/depthwise_bn_offset", "op": "Const", "attr": {"dtype": {"type": "DT_FLOAT"}, "value": {"tensor": {"dtype": "DT_FLOAT", "tensorShape": {"dim": [{"size": "32"}]}}}}}, {"name": "StatefulPartitionedCall/model/expanded_conv_project/Conv2D_weights", "op": "Const", "attr": {"dtype": {"type": "DT_FLOAT"}, "value": {"tensor": {"dtype": "DT_FLOAT", "tensorShape": {"dim": [{"size": "1"}, {"size": "1"}, {"size": "32"}, {"size": "16"}]}}}}}, {"name": "StatefulPartitionedCall/model/block_14_expand/Conv2D_bn_offset", "op": "Const", "attr": {"value": {"tensor": {"dtype": "DT_FLOAT", "tensorShape": {"dim": [{"size": "960"}]}}}, "dtype": {"type": "DT_FLOAT"}}}, {"name": "StatefulPartitionedCall/model/expanded_conv_project/Conv2D_bn_offset", "op": "Const", "attr": {"value": {"tensor": {"dtype": "DT_FLOAT", "tensorShape": {"dim": [{"size": "16"}]}}}, "dtype": {"type": "DT_FLOAT"}}}, {"name": "StatefulPartitionedCall/model/block_1_expand/Conv2D_weights", "op": "Const", "attr": {"value": {"tensor": {"dtype": "DT_FLOAT", "tensorShape": {"dim": [{"size": "1"}, {"size": "1"}, {"size": "16"}, {"size": "96"}]}}}, "dtype": {"type": "DT_FLOAT"}}}, {"name": "StatefulPartitionedCall/model/block_1_expand/Conv2D_bn_offset", "op": "Const", "attr": {"value": {"tensor": {"dtype": "DT_FLOAT", "tensorShape": {"dim": [{"size": "96"}]}}}, "dtype": {"type": "DT_FLOAT"}}}, {"name": "StatefulPartitionedCall/model/block_1_depthwise/depthwise_weights", "op": "Const", "attr": {"value": {"tensor": {"dtype": "DT_FLOAT", "tensorShape": {"dim": [{"size": "3"}, {"size": "3"}, {"size": "96"}, {"size": "1"}]}}}, "dtype": {"type": "DT_FLOAT"}}}, {"name": "StatefulPartitionedCall/model/block_1_depthwise/depthwise_bn_offset", "op": "Const", "attr": {"dtype": {"type": "DT_FLOAT"}, "value": {"tensor": {"dtype": "DT_FLOAT", "tensorShape": {"dim": [{"size": "96"}]}}}}}, {"name": "StatefulPartitionedCall/model/block_1_project/Conv2D_weights", "op": "Const", "attr": {"value": {"tensor": {"dtype": "DT_FLOAT", "tensorShape": {"dim": [{"size": "1"}, {"size": "1"}, {"size": "96"}, {"size": "24"}]}}}, "dtype": {"type": "DT_FLOAT"}}}, {"name": "StatefulPartitionedCall/model/block_14_depthwise/depthwise_weights", "op": "Const", "attr": {"value": {"tensor": {"dtype": "DT_FLOAT", "tensorShape": {"dim": [{"size": "3"}, {"size": "3"}, {"size": "960"}, {"size": "1"}]}}}, "dtype": {"type": "DT_FLOAT"}}}, {"name": "StatefulPartitionedCall/model/block_1_project/Conv2D_bn_offset", "op": "Const", "attr": {"value": {"tensor": {"dtype": "DT_FLOAT", "tensorShape": {"dim": [{"size": "24"}]}}}, "dtype": {"type": "DT_FLOAT"}}}, {"name": "StatefulPartitionedCall/model/block_2_expand/Conv2D_weights", "op": "Const", "attr": {"value": {"tensor": {"dtype": "DT_FLOAT", "tensorShape": {"dim": [{"size": "1"}, {"size": "1"}, {"size": "24"}, {"size": "144"}]}}}, "dtype": {"type": "DT_FLOAT"}}}, {"name": "StatefulPartitionedCall/model/block_2_expand/Conv2D_bn_offset", "op": "Const", "attr": {"value": {"tensor": {"dtype": "DT_FLOAT", "tensorShape": {"dim": [{"size": "144"}]}}}, "dtype": {"type": "DT_FLOAT"}}}, {"name": "StatefulPartitionedCall/model/block_14_depthwise/depthwise_bn_offset", "op": "Const", "attr": {"value": {"tensor": {"dtype": "DT_FLOAT", "tensorShape": {"dim": [{"size": "960"}]}}}, "dtype": {"type": "DT_FLOAT"}}}, {"name": "StatefulPartitionedCall/model/block_2_depthwise/depthwise_weights", "op": "Const", "attr": {"value": {"tensor": {"dtype": "DT_FLOAT", "tensorShape": {"dim": [{"size": "3"}, {"size": "3"}, {"size": "144"}, {"size": "1"}]}}}, "dtype": {"type": "DT_FLOAT"}}}, {"name": "StatefulPartitionedCall/model/block_2_depthwise/depthwise_bn_offset", "op": "Const", "attr": {"dtype": {"type": "DT_FLOAT"}, "value": {"tensor": {"dtype": "DT_FLOAT", "tensorShape": {"dim": [{"size": "144"}]}}}}}, {"name": "StatefulPartitionedCall/model/block_2_project/Conv2D_weights", "op": "Const", "attr": {"dtype": {"type": "DT_FLOAT"}, "value": {"tensor": {"dtype": "DT_FLOAT", "tensorShape": {"dim": [{"size": "1"}, {"size": "1"}, {"size": "144"}, {"size": "24"}]}}}}}, {"name": "StatefulPartitionedCall/model/block_2_project/Conv2D_bn_offset", "op": "Const", "attr": {"value": {"tensor": {"dtype": "DT_FLOAT", "tensorShape": {"dim": [{"size": "24"}]}}}, "dtype": {"type": "DT_FLOAT"}}}, {"name": "StatefulPartitionedCall/model/block_3_expand/Conv2D_weights", "op": "Const", "attr": {"value": {"tensor": {"dtype": "DT_FLOAT", "tensorShape": {"dim": [{"size": "1"}, {"size": "1"}, {"size": "24"}, {"size": "144"}]}}}, "dtype": {"type": "DT_FLOAT"}}}, {"name": "StatefulPartitionedCall/model/block_3_expand/Conv2D_bn_offset", "op": "Const", "attr": {"value": {"tensor": {"dtype": "DT_FLOAT", "tensorShape": {"dim": [{"size": "144"}]}}}, "dtype": {"type": "DT_FLOAT"}}}, {"name": "StatefulPartitionedCall/model/block_14_project/Conv2D_weights", "op": "Const", "attr": {"value": {"tensor": {"dtype": "DT_FLOAT", "tensorShape": {"dim": [{"size": "1"}, {"size": "1"}, {"size": "960"}, {"size": "160"}]}}}, "dtype": {"type": "DT_FLOAT"}}}, {"name": "StatefulPartitionedCall/model/block_3_depthwise/depthwise_weights", "op": "Const", "attr": {"dtype": {"type": "DT_FLOAT"}, "value": {"tensor": {"dtype": "DT_FLOAT", "tensorShape": {"dim": [{"size": "3"}, {"size": "3"}, {"size": "144"}, {"size": "1"}]}}}}}, {"name": "StatefulPartitionedCall/model/block_3_depthwise/depthwise_bn_offset", "op": "Const", "attr": {"dtype": {"type": "DT_FLOAT"}, "value": {"tensor": {"dtype": "DT_FLOAT", "tensorShape": {"dim": [{"size": "144"}]}}}}}, {"name": "StatefulPartitionedCall/model/block_3_project/Conv2D_weights", "op": "Const", "attr": {"value": {"tensor": {"dtype": "DT_FLOAT", "tensorShape": {"dim": [{"size": "1"}, {"size": "1"}, {"size": "144"}, {"size": "32"}]}}}, "dtype": {"type": "DT_FLOAT"}}}, {"name": "StatefulPartitionedCall/model/Conv_1/Conv2D_weights", "op": "Const", "attr": {"value": {"tensor": {"dtype": "DT_FLOAT", "tensorShape": {"dim": [{"size": "1"}, {"size": "1"}, {"size": "320"}, {"size": "1280"}]}}}, "dtype": {"type": "DT_FLOAT"}}}, {"name": "StatefulPartitionedCall/model/block_3_project/Conv2D_bn_offset", "op": "Const", "attr": {"dtype": {"type": "DT_FLOAT"}, "value": {"tensor": {"dtype": "DT_FLOAT", "tensorShape": {"dim": [{"size": "32"}]}}}}}, {"name": "StatefulPartitionedCall/model/block_4_expand/Conv2D_weights", "op": "Const", "attr": {"value": {"tensor": {"dtype": "DT_FLOAT", "tensorShape": {"dim": [{"size": "1"}, {"size": "1"}, {"size": "32"}, {"size": "192"}]}}}, "dtype": {"type": "DT_FLOAT"}}}, {"name": "StatefulPartitionedCall/model/block_14_project/Conv2D_bn_offset", "op": "Const", "attr": {"value": {"tensor": {"dtype": "DT_FLOAT", "tensorShape": {"dim": [{"size": "160"}]}}}, "dtype": {"type": "DT_FLOAT"}}}, {"name": "StatefulPartitionedCall/model/block_4_expand/Conv2D_bn_offset", "op": "Const", "attr": {"value": {"tensor": {"dtype": "DT_FLOAT", "tensorShape": {"dim": [{"size": "192"}]}}}, "dtype": {"type": "DT_FLOAT"}}}, {"name": "StatefulPartitionedCall/model/block_4_depthwise/depthwise_weights", "op": "Const", "attr": {"dtype": {"type": "DT_FLOAT"}, "value": {"tensor": {"dtype": "DT_FLOAT", "tensorShape": {"dim": [{"size": "3"}, {"size": "3"}, {"size": "192"}, {"size": "1"}]}}}}}, {"name": "StatefulPartitionedCall/model/block_4_depthwise/depthwise_bn_offset", "op": "Const", "attr": {"dtype": {"type": "DT_FLOAT"}, "value": {"tensor": {"dtype": "DT_FLOAT", "tensorShape": {"dim": [{"size": "192"}]}}}}}, {"name": "StatefulPartitionedCall/model/block_4_project/Conv2D_weights", "op": "Const", "attr": {"value": {"tensor": {"dtype": "DT_FLOAT", "tensorShape": {"dim": [{"size": "1"}, {"size": "1"}, {"size": "192"}, {"size": "32"}]}}}, "dtype": {"type": "DT_FLOAT"}}}, {"name": "StatefulPartitionedCall/model/block_4_project/Conv2D_bn_offset", "op": "Const", "attr": {"value": {"tensor": {"dtype": "DT_FLOAT", "tensorShape": {"dim": [{"size": "32"}]}}}, "dtype": {"type": "DT_FLOAT"}}}, {"name": "StatefulPartitionedCall/model/block_5_expand/Conv2D_weights", "op": "Const", "attr": {"value": {"tensor": {"dtype": "DT_FLOAT", "tensorShape": {"dim": [{"size": "1"}, {"size": "1"}, {"size": "32"}, {"size": "192"}]}}}, "dtype": {"type": "DT_FLOAT"}}}, {"name": "StatefulPartitionedCall/model/block_15_expand/Conv2D_weights", "op": "Const", "attr": {"value": {"tensor": {"dtype": "DT_FLOAT", "tensorShape": {"dim": [{"size": "1"}, {"size": "1"}, {"size": "160"}, {"size": "960"}]}}}, "dtype": {"type": "DT_FLOAT"}}}, {"name": "StatefulPartitionedCall/model/block_5_expand/Conv2D_bn_offset", "op": "Const", "attr": {"dtype": {"type": "DT_FLOAT"}, "value": {"tensor": {"dtype": "DT_FLOAT", "tensorShape": {"dim": [{"size": "192"}]}}}}}, {"name": "StatefulPartitionedCall/model/block_5_depthwise/depthwise_weights", "op": "Const", "attr": {"value": {"tensor": {"dtype": "DT_FLOAT", "tensorShape": {"dim": [{"size": "3"}, {"size": "3"}, {"size": "192"}, {"size": "1"}]}}}, "dtype": {"type": "DT_FLOAT"}}}, {"name": "StatefulPartitionedCall/model/block_5_depthwise/depthwise_bn_offset", "op": "Const", "attr": {"value": {"tensor": {"dtype": "DT_FLOAT", "tensorShape": {"dim": [{"size": "192"}]}}}, "dtype": {"type": "DT_FLOAT"}}}, {"name": "StatefulPartitionedCall/model/block_5_project/Conv2D_weights", "op": "Const", "attr": {"dtype": {"type": "DT_FLOAT"}, "value": {"tensor": {"dtype": "DT_FLOAT", "tensorShape": {"dim": [{"size": "1"}, {"size": "1"}, {"size": "192"}, {"size": "32"}]}}}}}, {"name": "StatefulPartitionedCall/model/block_15_expand/Conv2D_bn_offset", "op": "Const", "attr": {"value": {"tensor": {"dtype": "DT_FLOAT", "tensorShape": {"dim": [{"size": "960"}]}}}, "dtype": {"type": "DT_FLOAT"}}}, {"name": "StatefulPartitionedCall/model/block_5_project/Conv2D_bn_offset", "op": "Const", "attr": {"value": {"tensor": {"dtype": "DT_FLOAT", "tensorShape": {"dim": [{"size": "32"}]}}}, "dtype": {"type": "DT_FLOAT"}}}, {"name": "StatefulPartitionedCall/model/block_6_expand/Conv2D_weights", "op": "Const", "attr": {"dtype": {"type": "DT_FLOAT"}, "value": {"tensor": {"dtype": "DT_FLOAT", "tensorShape": {"dim": [{"size": "1"}, {"size": "1"}, {"size": "32"}, {"size": "192"}]}}}}}, {"name": "StatefulPartitionedCall/model/Conv_1/Conv2D_bn_offset", "op": "Const", "attr": {"dtype": {"type": "DT_FLOAT"}, "value": {"tensor": {"dtype": "DT_FLOAT", "tensorShape": {"dim": [{"size": "1280"}]}}}}}, {"name": "StatefulPartitionedCall/model/block_6_expand/Conv2D_bn_offset", "op": "Const", "attr": {"value": {"tensor": {"dtype": "DT_FLOAT", "tensorShape": {"dim": [{"size": "192"}]}}}, "dtype": {"type": "DT_FLOAT"}}}, {"name": "StatefulPartitionedCall/model/block_6_depthwise/depthwise_weights", "op": "Const", "attr": {"value": {"tensor": {"dtype": "DT_FLOAT", "tensorShape": {"dim": [{"size": "3"}, {"size": "3"}, {"size": "192"}, {"size": "1"}]}}}, "dtype": {"type": "DT_FLOAT"}}}, {"name": "StatefulPartitionedCall/model/block_6_depthwise/depthwise_bn_offset", "op": "Const", "attr": {"value": {"tensor": {"dtype": "DT_FLOAT", "tensorShape": {"dim": [{"size": "192"}]}}}, "dtype": {"type": "DT_FLOAT"}}}, {"name": "StatefulPartitionedCall/model/block_6_project/Conv2D_weights", "op": "Const", "attr": {"value": {"tensor": {"dtype": "DT_FLOAT", "tensorShape": {"dim": [{"size": "1"}, {"size": "1"}, {"size": "192"}, {"size": "64"}]}}}, "dtype": {"type": "DT_FLOAT"}}}, {"name": "StatefulPartitionedCall/model/block_15_depthwise/depthwise_weights", "op": "Const", "attr": {"dtype": {"type": "DT_FLOAT"}, "value": {"tensor": {"dtype": "DT_FLOAT", "tensorShape": {"dim": [{"size": "3"}, {"size": "3"}, {"size": "960"}, {"size": "1"}]}}}}}, {"name": "StatefulPartitionedCall/model/block_6_project/Conv2D_bn_offset", "op": "Const", "attr": {"dtype": {"type": "DT_FLOAT"}, "value": {"tensor": {"dtype": "DT_FLOAT", "tensorShape": {"dim": [{"size": "64"}]}}}}}, {"name": "StatefulPartitionedCall/model/block_7_expand/Conv2D_weights", "op": "Const", "attr": {"value": {"tensor": {"dtype": "DT_FLOAT", "tensorShape": {"dim": [{"size": "1"}, {"size": "1"}, {"size": "64"}, {"size": "384"}]}}}, "dtype": {"type": "DT_FLOAT"}}}, {"name": "StatefulPartitionedCall/model/block_7_expand/Conv2D_bn_offset", "op": "Const", "attr": {"dtype": {"type": "DT_FLOAT"}, "value": {"tensor": {"dtype": "DT_FLOAT", "tensorShape": {"dim": [{"size": "384"}]}}}}}, {"name": "StatefulPartitionedCall/model/block_15_depthwise/depthwise_bn_offset", "op": "Const", "attr": {"value": {"tensor": {"dtype": "DT_FLOAT", "tensorShape": {"dim": [{"size": "960"}]}}}, "dtype": {"type": "DT_FLOAT"}}}, {"name": "StatefulPartitionedCall/model/block_7_depthwise/depthwise_weights", "op": "Const", "attr": {"value": {"tensor": {"dtype": "DT_FLOAT", "tensorShape": {"dim": [{"size": "3"}, {"size": "3"}, {"size": "384"}, {"size": "1"}]}}}, "dtype": {"type": "DT_FLOAT"}}}, {"name": "StatefulPartitionedCall/model/block_7_depthwise/depthwise_bn_offset", "op": "Const", "attr": {"value": {"tensor": {"dtype": "DT_FLOAT", "tensorShape": {"dim": [{"size": "384"}]}}}, "dtype": {"type": "DT_FLOAT"}}}, {"name": "StatefulPartitionedCall/model/block_7_project/Conv2D_weights", "op": "Const", "attr": {"value": {"tensor": {"dtype": "DT_FLOAT", "tensorShape": {"dim": [{"size": "1"}, {"size": "1"}, {"size": "384"}, {"size": "64"}]}}}, "dtype": {"type": "DT_FLOAT"}}}, {"name": "StatefulPartitionedCall/model/block_7_project/Conv2D_bn_offset", "op": "Const", "attr": {"dtype": {"type": "DT_FLOAT"}, "value": {"tensor": {"dtype": "DT_FLOAT", "tensorShape": {"dim": [{"size": "64"}]}}}}}, {"name": "StatefulPartitionedCall/model/block_8_expand/Conv2D_weights", "op": "Const", "attr": {"value": {"tensor": {"dtype": "DT_FLOAT", "tensorShape": {"dim": [{"size": "1"}, {"size": "1"}, {"size": "64"}, {"size": "384"}]}}}, "dtype": {"type": "DT_FLOAT"}}}, {"name": "StatefulPartitionedCall/model/block_8_expand/Conv2D_bn_offset", "op": "Const", "attr": {"dtype": {"type": "DT_FLOAT"}, "value": {"tensor": {"dtype": "DT_FLOAT", "tensorShape": {"dim": [{"size": "384"}]}}}}}, {"name": "StatefulPartitionedCall/model/block_15_project/Conv2D_weights", "op": "Const", "attr": {"dtype": {"type": "DT_FLOAT"}, "value": {"tensor": {"dtype": "DT_FLOAT", "tensorShape": {"dim": [{"size": "1"}, {"size": "1"}, {"size": "960"}, {"size": "160"}]}}}}}, {"name": "StatefulPartitionedCall/model/block_8_depthwise/depthwise_weights", "op": "Const", "attr": {"dtype": {"type": "DT_FLOAT"}, "value": {"tensor": {"dtype": "DT_FLOAT", "tensorShape": {"dim": [{"size": "3"}, {"size": "3"}, {"size": "384"}, {"size": "1"}]}}}}}, {"name": "StatefulPartitionedCall/model/block_8_depthwise/depthwise_bn_offset", "op": "Const", "attr": {"value": {"tensor": {"dtype": "DT_FLOAT", "tensorShape": {"dim": [{"size": "384"}]}}}, "dtype": {"type": "DT_FLOAT"}}}, {"name": "StatefulPartitionedCall/model/block_8_project/Conv2D_weights", "op": "Const", "attr": {"dtype": {"type": "DT_FLOAT"}, "value": {"tensor": {"dtype": "DT_FLOAT", "tensorShape": {"dim": [{"size": "1"}, {"size": "1"}, {"size": "384"}, {"size": "64"}]}}}}}, {"name": "StatefulPartitionedCall/model/block_8_project/Conv2D_bn_offset", "op": "Const", "attr": {"dtype": {"type": "DT_FLOAT"}, "value": {"tensor": {"dtype": "DT_FLOAT", "tensorShape": {"dim": [{"size": "64"}]}}}}}, {"name": "StatefulPartitionedCall/model/block_9_expand/Conv2D_weights", "op": "Const", "attr": {"value": {"tensor": {"dtype": "DT_FLOAT", "tensorShape": {"dim": [{"size": "1"}, {"size": "1"}, {"size": "64"}, {"size": "384"}]}}}, "dtype": {"type": "DT_FLOAT"}}}, {"name": "StatefulPartitionedCall/model/block_15_project/Conv2D_bn_offset", "op": "Const", "attr": {"value": {"tensor": {"dtype": "DT_FLOAT", "tensorShape": {"dim": [{"size": "160"}]}}}, "dtype": {"type": "DT_FLOAT"}}}, {"name": "StatefulPartitionedCall/model/block_9_expand/Conv2D_bn_offset", "op": "Const", "attr": {"value": {"tensor": {"dtype": "DT_FLOAT", "tensorShape": {"dim": [{"size": "384"}]}}}, "dtype": {"type": "DT_FLOAT"}}}, {"name": "StatefulPartitionedCall/model/block_9_depthwise/depthwise_weights", "op": "Const", "attr": {"dtype": {"type": "DT_FLOAT"}, "value": {"tensor": {"dtype": "DT_FLOAT", "tensorShape": {"dim": [{"size": "3"}, {"size": "3"}, {"size": "384"}, {"size": "1"}]}}}}}, {"name": "StatefulPartitionedCall/model/block_9_depthwise/depthwise_bn_offset", "op": "Const", "attr": {"dtype": {"type": "DT_FLOAT"}, "value": {"tensor": {"dtype": "DT_FLOAT", "tensorShape": {"dim": [{"size": "384"}]}}}}}, {"name": "StatefulPartitionedCall/model/block_9_project/Conv2D_weights", "op": "Const", "attr": {"value": {"tensor": {"dtype": "DT_FLOAT", "tensorShape": {"dim": [{"size": "1"}, {"size": "1"}, {"size": "384"}, {"size": "64"}]}}}, "dtype": {"type": "DT_FLOAT"}}}, {"name": "StatefulPartitionedCall/model/block_9_project/Conv2D_bn_offset", "op": "Const", "attr": {"dtype": {"type": "DT_FLOAT"}, "value": {"tensor": {"dtype": "DT_FLOAT", "tensorShape": {"dim": [{"size": "64"}]}}}}}, {"name": "StatefulPartitionedCall/model/block_10_expand/Conv2D_weights", "op": "Const", "attr": {"dtype": {"type": "DT_FLOAT"}, "value": {"tensor": {"dtype": "DT_FLOAT", "tensorShape": {"dim": [{"size": "1"}, {"size": "1"}, {"size": "64"}, {"size": "384"}]}}}}}, {"name": "StatefulPartitionedCall/model/block_16_expand/Conv2D_weights", "op": "Const", "attr": {"value": {"tensor": {"dtype": "DT_FLOAT", "tensorShape": {"dim": [{"size": "1"}, {"size": "1"}, {"size": "160"}, {"size": "960"}]}}}, "dtype": {"type": "DT_FLOAT"}}}, {"name": "StatefulPartitionedCall/model/block_10_expand/Conv2D_bn_offset", "op": "Const", "attr": {"value": {"tensor": {"dtype": "DT_FLOAT", "tensorShape": {"dim": [{"size": "384"}]}}}, "dtype": {"type": "DT_FLOAT"}}}, {"name": "StatefulPartitionedCall/model/block_10_depthwise/depthwise_weights", "op": "Const", "attr": {"dtype": {"type": "DT_FLOAT"}, "value": {"tensor": {"dtype": "DT_FLOAT", "tensorShape": {"dim": [{"size": "3"}, {"size": "3"}, {"size": "384"}, {"size": "1"}]}}}}}, {"name": "StatefulPartitionedCall/model/block_10_depthwise/depthwise_bn_offset", "op": "Const", "attr": {"value": {"tensor": {"dtype": "DT_FLOAT", "tensorShape": {"dim": [{"size": "384"}]}}}, "dtype": {"type": "DT_FLOAT"}}}, {"name": "StatefulPartitionedCall/model/block_10_project/Conv2D_weights", "op": "Const", "attr": {"dtype": {"type": "DT_FLOAT"}, "value": {"tensor": {"dtype": "DT_FLOAT", "tensorShape": {"dim": [{"size": "1"}, {"size": "1"}, {"size": "384"}, {"size": "96"}]}}}}}, {"name": "StatefulPartitionedCall/model/block_16_expand/Conv2D_bn_offset", "op": "Const", "attr": {"value": {"tensor": {"dtype": "DT_FLOAT", "tensorShape": {"dim": [{"size": "960"}]}}}, "dtype": {"type": "DT_FLOAT"}}}, {"name": "StatefulPartitionedCall/model/block_10_project/Conv2D_bn_offset", "op": "Const", "attr": {"value": {"tensor": {"dtype": "DT_FLOAT", "tensorShape": {"dim": [{"size": "96"}]}}}, "dtype": {"type": "DT_FLOAT"}}}, {"name": "StatefulPartitionedCall/model/block_11_expand/Conv2D_weights", "op": "Const", "attr": {"value": {"tensor": {"dtype": "DT_FLOAT", "tensorShape": {"dim": [{"size": "1"}, {"size": "1"}, {"size": "96"}, {"size": "576"}]}}}, "dtype": {"type": "DT_FLOAT"}}}, {"name": "StatefulPartitionedCall/model/block_11_expand/Conv2D_bn_offset", "op": "Const", "attr": {"dtype": {"type": "DT_FLOAT"}, "value": {"tensor": {"dtype": "DT_FLOAT", "tensorShape": {"dim": [{"size": "576"}]}}}}}, {"name": "StatefulPartitionedCall/model/block_11_depthwise/depthwise_weights", "op": "Const", "attr": {"dtype": {"type": "DT_FLOAT"}, "value": {"tensor": {"dtype": "DT_FLOAT", "tensorShape": {"dim": [{"size": "3"}, {"size": "3"}, {"size": "576"}, {"size": "1"}]}}}}}, {"name": "StatefulPartitionedCall/model/block_11_depthwise/depthwise_bn_offset", "op": "Const", "attr": {"dtype": {"type": "DT_FLOAT"}, "value": {"tensor": {"dtype": "DT_FLOAT", "tensorShape": {"dim": [{"size": "576"}]}}}}}, {"name": "StatefulPartitionedCall/model/block_11_project/Conv2D_weights", "op": "Const", "attr": {"dtype": {"type": "DT_FLOAT"}, "value": {"tensor": {"dtype": "DT_FLOAT", "tensorShape": {"dim": [{"size": "1"}, {"size": "1"}, {"size": "576"}, {"size": "96"}]}}}}}, {"name": "StatefulPartitionedCall/model/block_16_depthwise/depthwise_weights", "op": "Const", "attr": {"value": {"tensor": {"dtype": "DT_FLOAT", "tensorShape": {"dim": [{"size": "3"}, {"size": "3"}, {"size": "960"}, {"size": "1"}]}}}, "dtype": {"type": "DT_FLOAT"}}}, {"name": "StatefulPartitionedCall/model/block_11_project/Conv2D_bn_offset", "op": "Const", "attr": {"value": {"tensor": {"dtype": "DT_FLOAT", "tensorShape": {"dim": [{"size": "96"}]}}}, "dtype": {"type": "DT_FLOAT"}}}, {"name": "StatefulPartitionedCall/model/block_12_expand/Conv2D_weights", "op": "Const", "attr": {"dtype": {"type": "DT_FLOAT"}, "value": {"tensor": {"dtype": "DT_FLOAT", "tensorShape": {"dim": [{"size": "1"}, {"size": "1"}, {"size": "96"}, {"size": "576"}]}}}}}, {"name": "StatefulPartitionedCall/model/block_12_expand/Conv2D_bn_offset", "op": "Const", "attr": {"value": {"tensor": {"dtype": "DT_FLOAT", "tensorShape": {"dim": [{"size": "576"}]}}}, "dtype": {"type": "DT_FLOAT"}}}, {"name": "StatefulPartitionedCall/model/block_16_depthwise/depthwise_bn_offset", "op": "Const", "attr": {"dtype": {"type": "DT_FLOAT"}, "value": {"tensor": {"dtype": "DT_FLOAT", "tensorShape": {"dim": [{"size": "960"}]}}}}}, {"name": "StatefulPartitionedCall/model/block_12_depthwise/depthwise_weights", "op": "Const", "attr": {"dtype": {"type": "DT_FLOAT"}, "value": {"tensor": {"dtype": "DT_FLOAT", "tensorShape": {"dim": [{"size": "3"}, {"size": "3"}, {"size": "576"}, {"size": "1"}]}}}}}, {"name": "StatefulPartitionedCall/model/block_12_depthwise/depthwise_bn_offset", "op": "Const", "attr": {"dtype": {"type": "DT_FLOAT"}, "value": {"tensor": {"dtype": "DT_FLOAT", "tensorShape": {"dim": [{"size": "576"}]}}}}}, {"name": "StatefulPartitionedCall/model/block_12_project/Conv2D_weights", "op": "Const", "attr": {"dtype": {"type": "DT_FLOAT"}, "value": {"tensor": {"dtype": "DT_FLOAT", "tensorShape": {"dim": [{"size": "1"}, {"size": "1"}, {"size": "576"}, {"size": "96"}]}}}}}, {"name": "StatefulPartitionedCall/model/block_12_project/Conv2D_bn_offset", "op": "Const", "attr": {"dtype": {"type": "DT_FLOAT"}, "value": {"tensor": {"dtype": "DT_FLOAT", "tensorShape": {"dim": [{"size": "96"}]}}}}}, {"name": "StatefulPartitionedCall/model/block_13_expand/Conv2D_weights", "op": "Const", "attr": {"dtype": {"type": "DT_FLOAT"}, "value": {"tensor": {"dtype": "DT_FLOAT", "tensorShape": {"dim": [{"size": "1"}, {"size": "1"}, {"size": "96"}, {"size": "576"}]}}}}}, {"name": "StatefulPartitionedCall/model/block_13_expand/Conv2D_bn_offset", "op": "Const", "attr": {"dtype": {"type": "DT_FLOAT"}, "value": {"tensor": {"dtype": "DT_FLOAT", "tensorShape": {"dim": [{"size": "576"}]}}}}}, {"name": "StatefulPartitionedCall/model/block_16_project/Conv2D_weights", "op": "Const", "attr": {"value": {"tensor": {"dtype": "DT_FLOAT", "tensorShape": {"dim": [{"size": "1"}, {"size": "1"}, {"size": "960"}, {"size": "320"}]}}}, "dtype": {"type": "DT_FLOAT"}}}, {"name": "StatefulPartitionedCall/model/block_13_depthwise/depthwise_weights", "op": "Const", "attr": {"value": {"tensor": {"dtype": "DT_FLOAT", "tensorShape": {"dim": [{"size": "3"}, {"size": "3"}, {"size": "576"}, {"size": "1"}]}}}, "dtype": {"type": "DT_FLOAT"}}}, {"name": "StatefulPartitionedCall/model/block_13_depthwise/depthwise_bn_offset", "op": "Const", "attr": {"value": {"tensor": {"dtype": "DT_FLOAT", "tensorShape": {"dim": [{"size": "576"}]}}}, "dtype": {"type": "DT_FLOAT"}}}, {"name": "StatefulPartitionedCall/model/block_13_project/Conv2D_weights", "op": "Const", "attr": {"value": {"tensor": {"dtype": "DT_FLOAT", "tensorShape": {"dim": [{"size": "1"}, {"size": "1"}, {"size": "576"}, {"size": "160"}]}}}, "dtype": {"type": "DT_FLOAT"}}}, {"name": "StatefulPartitionedCall/model/block_13_project/Conv2D_bn_offset", "op": "Const", "attr": {"value": {"tensor": {"dtype": "DT_FLOAT", "tensorShape": {"dim": [{"size": "160"}]}}}, "dtype": {"type": "DT_FLOAT"}}}, {"name": "StatefulPartitionedCall/model/Conv1_relu/Relu6", "op": "_FusedConv2D", "input": ["input_1", "StatefulPartitionedCall/model/Conv1/Conv2D_weights", "StatefulPartitionedCall/model/Conv1/Conv2D_bn_offset"], "device": "/device:CPU:0", "attr": {"num_args": {"i": "1"}, "explicit_paddings": {"list": {}}, "T": {"type": "DT_FLOAT"}, "padding": {"s": "U0FNRQ=="}, "data_format": {"s": "TkhXQw=="}, "fused_ops": {"list": {"s": ["Qmlhc0FkZA==", "UmVsdTY="]}}, "dilations": {"list": {"i": ["1", "1", "1", "1"]}}, "use_cudnn_on_gpu": {"b": true}, "epsilon": {"f": 0.0}, "strides": {"list": {"i": ["1", "2", "2", "1"]}}}}, {"name": "StatefulPartitionedCall/model/expanded_conv_depthwise/depthwise", "op": "FusedDepthwiseConv2dNative", "input": ["StatefulPartitionedCall/model/Conv1_relu/Relu6", "StatefulPartitionedCall/model/expanded_conv_depthwise/depthwise_weights", "StatefulPartitionedCall/model/expanded_conv_depthwise/depthwise_bn_offset"], "attr": {"strides": {"list": {"i": ["1", "1", "1", "1"]}}, "T": {"type": "DT_FLOAT"}, "data_format": {"s": "TkhXQw=="}, "num_args": {"i": "1"}, "padding": {"s": "U0FNRQ=="}, "dilations": {"list": {"i": ["1", "1", "1", "1"]}}, "fused_ops": {"list": {"s": ["Qmlhc0FkZA==", "UmVsdTY="]}}, "explicit_paddings": {"list": {}}}}, {"name": "StatefulPartitionedCall/model/expanded_conv_project_BN/FusedBatchNormV3", "op": "_FusedConv2D", "input": ["StatefulPartitionedCall/model/expanded_conv_depthwise/depthwise", "StatefulPartitionedCall/model/expanded_conv_project/Conv2D_weights", "StatefulPartitionedCall/model/expanded_conv_project/Conv2D_bn_offset"], "device": "/device:CPU:0", "attr": {"epsilon": {"f": 0.0}, "dilations": {"list": {"i": ["1", "1", "1", "1"]}}, "padding": {"s": "U0FNRQ=="}, "T": {"type": "DT_FLOAT"}, "data_format": {"s": "TkhXQw=="}, "fused_ops": {"list": {"s": ["Qmlhc0FkZA=="]}}, "strides": {"list": {"i": ["1", "1", "1", "1"]}}, "use_cudnn_on_gpu": {"b": true}, "num_args": {"i": "1"}, "explicit_paddings": {"list": {}}}}, {"name": "StatefulPartitionedCall/model/block_1_expand_relu/Relu6", "op": "_FusedConv2D", "input": ["StatefulPartitionedCall/model/expanded_conv_project_BN/FusedBatchNormV3", "StatefulPartitionedCall/model/block_1_expand/Conv2D_weights", "StatefulPartitionedCall/model/block_1_expand/Conv2D_bn_offset"], "device": "/device:CPU:0", "attr": {"strides": {"list": {"i": ["1", "1", "1", "1"]}}, "T": {"type": "DT_FLOAT"}, "explicit_paddings": {"list": {}}, "dilations": {"list": {"i": ["1", "1", "1", "1"]}}, "data_format": {"s": "TkhXQw=="}, "num_args": {"i": "1"}, "padding": {"s": "U0FNRQ=="}, "epsilon": {"f": 0.0}, "use_cudnn_on_gpu": {"b": true}, "fused_ops": {"list": {"s": ["Qmlhc0FkZA==", "UmVsdTY="]}}}}, {"name": "StatefulPartitionedCall/model/block_1_pad/Pad", "op": "Pad", "input": ["StatefulPartitionedCall/model/block_1_expand_relu/Relu6", "StatefulPartitionedCall/model/block_1_pad/Pad/paddings"], "attr": {"T": {"type": "DT_FLOAT"}, "Tpaddings": {"type": "DT_INT32"}}}, {"name": "StatefulPartitionedCall/model/block_1_depthwise/depthwise", "op": "FusedDepthwiseConv2dNative", "input": ["StatefulPartitionedCall/model/block_1_pad/Pad", "StatefulPartitionedCall/model/block_1_depthwise/depthwise_weights", "StatefulPartitionedCall/model/block_1_depthwise/depthwise_bn_offset"], "attr": {"fused_ops": {"list": {"s": ["Qmlhc0FkZA==", "UmVsdTY="]}}, "dilations": {"list": {"i": ["1", "1", "1", "1"]}}, "explicit_paddings": {"list": {}}, "data_format": {"s": "TkhXQw=="}, "T": {"type": "DT_FLOAT"}, "padding": {"s": "VkFMSUQ="}, "strides": {"list": {"i": ["1", "2", "2", "1"]}}, "num_args": {"i": "1"}}}, {"name": "StatefulPartitionedCall/model/block_1_project_BN/FusedBatchNormV3", "op": "_FusedConv2D", "input": ["StatefulPartitionedCall/model/block_1_depthwise/depthwise", "StatefulPartitionedCall/model/block_1_project/Conv2D_weights", "StatefulPartitionedCall/model/block_1_project/Conv2D_bn_offset"], "device": "/device:CPU:0", "attr": {"strides": {"list": {"i": ["1", "1", "1", "1"]}}, "dilations": {"list": {"i": ["1", "1", "1", "1"]}}, "num_args": {"i": "1"}, "use_cudnn_on_gpu": {"b": true}, "epsilon": {"f": 0.0}, "padding": {"s": "U0FNRQ=="}, "T": {"type": "DT_FLOAT"}, "data_format": {"s": "TkhXQw=="}, "explicit_paddings": {"list": {}}, "fused_ops": {"list": {"s": ["Qmlhc0FkZA=="]}}}}, {"name": "StatefulPartitionedCall/model/block_2_expand_relu/Relu6", "op": "_FusedConv2D", "input": ["StatefulPartitionedCall/model/block_1_project_BN/FusedBatchNormV3", "StatefulPartitionedCall/model/block_2_expand/Conv2D_weights", "StatefulPartitionedCall/model/block_2_expand/Conv2D_bn_offset"], "device": "/device:CPU:0", "attr": {"fused_ops": {"list": {"s": ["Qmlhc0FkZA==", "UmVsdTY="]}}, "use_cudnn_on_gpu": {"b": true}, "dilations": {"list": {"i": ["1", "1", "1", "1"]}}, "epsilon": {"f": 0.0}, "T": {"type": "DT_FLOAT"}, "data_format": {"s": "TkhXQw=="}, "num_args": {"i": "1"}, "padding": {"s": "U0FNRQ=="}, "explicit_paddings": {"list": {}}, "strides": {"list": {"i": ["1", "1", "1", "1"]}}}}, {"name": "StatefulPartitionedCall/model/block_2_depthwise/depthwise", "op": "FusedDepthwiseConv2dNative", "input": ["StatefulPartitionedCall/model/block_2_expand_relu/Relu6", "StatefulPartitionedCall/model/block_2_depthwise/depthwise_weights", "StatefulPartitionedCall/model/block_2_depthwise/depthwise_bn_offset"], "attr": {"explicit_paddings": {"list": {}}, "dilations": {"list": {"i": ["1", "1", "1", "1"]}}, "padding": {"s": "U0FNRQ=="}, "fused_ops": {"list": {"s": ["Qmlhc0FkZA==", "UmVsdTY="]}}, "strides": {"list": {"i": ["1", "1", "1", "1"]}}, "T": {"type": "DT_FLOAT"}, "num_args": {"i": "1"}, "data_format": {"s": "TkhXQw=="}}}, {"name": "StatefulPartitionedCall/model/block_2_project_BN/FusedBatchNormV3", "op": "_FusedConv2D", "input": ["StatefulPartitionedCall/model/block_2_depthwise/depthwise", "StatefulPartitionedCall/model/block_2_project/Conv2D_weights", "StatefulPartitionedCall/model/block_2_project/Conv2D_bn_offset"], "device": "/device:CPU:0", "attr": {"explicit_paddings": {"list": {}}, "num_args": {"i": "1"}, "padding": {"s": "U0FNRQ=="}, "strides": {"list": {"i": ["1", "1", "1", "1"]}}, "T": {"type": "DT_FLOAT"}, "epsilon": {"f": 0.0}, "use_cudnn_on_gpu": {"b": true}, "data_format": {"s": "TkhXQw=="}, "fused_ops": {"list": {"s": ["Qmlhc0FkZA=="]}}, "dilations": {"list": {"i": ["1", "1", "1", "1"]}}}}, {"name": "StatefulPartitionedCall/model/block_2_add/add", "op": "AddV2", "input": ["StatefulPartitionedCall/model/block_1_project_BN/FusedBatchNormV3", "StatefulPartitionedCall/model/block_2_project_BN/FusedBatchNormV3"], "attr": {"T": {"type": "DT_FLOAT"}}}, {"name": "StatefulPartitionedCall/model/block_3_expand_relu/Relu6", "op": "_FusedConv2D", "input": ["StatefulPartitionedCall/model/block_2_add/add", "StatefulPartitionedCall/model/block_3_expand/Conv2D_weights", "StatefulPartitionedCall/model/block_3_expand/Conv2D_bn_offset"], "device": "/device:CPU:0", "attr": {"dilations": {"list": {"i": ["1", "1", "1", "1"]}}, "use_cudnn_on_gpu": {"b": true}, "data_format": {"s": "TkhXQw=="}, "explicit_paddings": {"list": {}}, "num_args": {"i": "1"}, "padding": {"s": "U0FNRQ=="}, "T": {"type": "DT_FLOAT"}, "epsilon": {"f": 0.0}, "fused_ops": {"list": {"s": ["Qmlhc0FkZA==", "UmVsdTY="]}}, "strides": {"list": {"i": ["1", "1", "1", "1"]}}}}, {"name": "StatefulPartitionedCall/model/block_3_pad/Pad", "op": "Pad", "input": ["StatefulPartitionedCall/model/block_3_expand_relu/Relu6", "StatefulPartitionedCall/model/block_3_pad/Pad/paddings"], "attr": {"Tpaddings": {"type": "DT_INT32"}, "T": {"type": "DT_FLOAT"}}}, {"name": "StatefulPartitionedCall/model/block_3_depthwise/depthwise", "op": "FusedDepthwiseConv2dNative", "input": ["StatefulPartitionedCall/model/block_3_pad/Pad", "StatefulPartitionedCall/model/block_3_depthwise/depthwise_weights", "StatefulPartitionedCall/model/block_3_depthwise/depthwise_bn_offset"], "attr": {"data_format": {"s": "TkhXQw=="}, "dilations": {"list": {"i": ["1", "1", "1", "1"]}}, "T": {"type": "DT_FLOAT"}, "num_args": {"i": "1"}, "fused_ops": {"list": {"s": ["Qmlhc0FkZA==", "UmVsdTY="]}}, "padding": {"s": "VkFMSUQ="}, "strides": {"list": {"i": ["1", "2", "2", "1"]}}, "explicit_paddings": {"list": {}}}}, {"name": "StatefulPartitionedCall/model/block_3_project_BN/FusedBatchNormV3", "op": "_FusedConv2D", "input": ["StatefulPartitionedCall/model/block_3_depthwise/depthwise", "StatefulPartitionedCall/model/block_3_project/Conv2D_weights", "StatefulPartitionedCall/model/block_3_project/Conv2D_bn_offset"], "device": "/device:CPU:0", "attr": {"use_cudnn_on_gpu": {"b": true}, "fused_ops": {"list": {"s": ["Qmlhc0FkZA=="]}}, "dilations": {"list": {"i": ["1", "1", "1", "1"]}}, "T": {"type": "DT_FLOAT"}, "epsilon": {"f": 0.0}, "strides": {"list": {"i": ["1", "1", "1", "1"]}}, "padding": {"s": "U0FNRQ=="}, "num_args": {"i": "1"}, "data_format": {"s": "TkhXQw=="}, "explicit_paddings": {"list": {}}}}, {"name": "StatefulPartitionedCall/model/block_4_expand_relu/Relu6", "op": "_FusedConv2D", "input": ["StatefulPartitionedCall/model/block_3_project_BN/FusedBatchNormV3", "StatefulPartitionedCall/model/block_4_expand/Conv2D_weights", "StatefulPartitionedCall/model/block_4_expand/Conv2D_bn_offset"], "device": "/device:CPU:0", "attr": {"T": {"type": "DT_FLOAT"}, "strides": {"list": {"i": ["1", "1", "1", "1"]}}, "num_args": {"i": "1"}, "dilations": {"list": {"i": ["1", "1", "1", "1"]}}, "data_format": {"s": "TkhXQw=="}, "explicit_paddings": {"list": {}}, "use_cudnn_on_gpu": {"b": true}, "fused_ops": {"list": {"s": ["Qmlhc0FkZA==", "UmVsdTY="]}}, "epsilon": {"f": 0.0}, "padding": {"s": "U0FNRQ=="}}}, {"name": "StatefulPartitionedCall/model/block_4_depthwise/depthwise", "op": "FusedDepthwiseConv2dNative", "input": ["StatefulPartitionedCall/model/block_4_expand_relu/Relu6", "StatefulPartitionedCall/model/block_4_depthwise/depthwise_weights", "StatefulPartitionedCall/model/block_4_depthwise/depthwise_bn_offset"], "attr": {"padding": {"s": "U0FNRQ=="}, "explicit_paddings": {"list": {}}, "strides": {"list": {"i": ["1", "1", "1", "1"]}}, "fused_ops": {"list": {"s": ["Qmlhc0FkZA==", "UmVsdTY="]}}, "data_format": {"s": "TkhXQw=="}, "T": {"type": "DT_FLOAT"}, "dilations": {"list": {"i": ["1", "1", "1", "1"]}}, "num_args": {"i": "1"}}}, {"name": "StatefulPartitionedCall/model/block_4_project_BN/FusedBatchNormV3", "op": "_FusedConv2D", "input": ["StatefulPartitionedCall/model/block_4_depthwise/depthwise", "StatefulPartitionedCall/model/block_4_project/Conv2D_weights", "StatefulPartitionedCall/model/block_4_project/Conv2D_bn_offset"], "device": "/device:CPU:0", "attr": {"explicit_paddings": {"list": {}}, "epsilon": {"f": 0.0}, "strides": {"list": {"i": ["1", "1", "1", "1"]}}, "data_format": {"s": "TkhXQw=="}, "padding": {"s": "U0FNRQ=="}, "dilations": {"list": {"i": ["1", "1", "1", "1"]}}, "use_cudnn_on_gpu": {"b": true}, "fused_ops": {"list": {"s": ["Qmlhc0FkZA=="]}}, "T": {"type": "DT_FLOAT"}, "num_args": {"i": "1"}}}, {"name": "StatefulPartitionedCall/model/block_4_add/add", "op": "AddV2", "input": ["StatefulPartitionedCall/model/block_3_project_BN/FusedBatchNormV3", "StatefulPartitionedCall/model/block_4_project_BN/FusedBatchNormV3"], "attr": {"T": {"type": "DT_FLOAT"}}}, {"name": "StatefulPartitionedCall/model/block_5_expand_relu/Relu6", "op": "_FusedConv2D", "input": ["StatefulPartitionedCall/model/block_4_add/add", "StatefulPartitionedCall/model/block_5_expand/Conv2D_weights", "StatefulPartitionedCall/model/block_5_expand/Conv2D_bn_offset"], "device": "/device:CPU:0", "attr": {"epsilon": {"f": 0.0}, "use_cudnn_on_gpu": {"b": true}, "explicit_paddings": {"list": {}}, "fused_ops": {"list": {"s": ["Qmlhc0FkZA==", "UmVsdTY="]}}, "T": {"type": "DT_FLOAT"}, "dilations": {"list": {"i": ["1", "1", "1", "1"]}}, "num_args": {"i": "1"}, "padding": {"s": "U0FNRQ=="}, "strides": {"list": {"i": ["1", "1", "1", "1"]}}, "data_format": {"s": "TkhXQw=="}}}, {"name": "StatefulPartitionedCall/model/block_5_depthwise/depthwise", "op": "FusedDepthwiseConv2dNative", "input": ["StatefulPartitionedCall/model/block_5_expand_relu/Relu6", "StatefulPartitionedCall/model/block_5_depthwise/depthwise_weights", "StatefulPartitionedCall/model/block_5_depthwise/depthwise_bn_offset"], "attr": {"num_args": {"i": "1"}, "explicit_paddings": {"list": {}}, "dilations": {"list": {"i": ["1", "1", "1", "1"]}}, "padding": {"s": "U0FNRQ=="}, "fused_ops": {"list": {"s": ["Qmlhc0FkZA==", "UmVsdTY="]}}, "T": {"type": "DT_FLOAT"}, "strides": {"list": {"i": ["1", "1", "1", "1"]}}, "data_format": {"s": "TkhXQw=="}}}, {"name": "StatefulPartitionedCall/model/block_5_project_BN/FusedBatchNormV3", "op": "_FusedConv2D", "input": ["StatefulPartitionedCall/model/block_5_depthwise/depthwise", "StatefulPartitionedCall/model/block_5_project/Conv2D_weights", "StatefulPartitionedCall/model/block_5_project/Conv2D_bn_offset"], "device": "/device:CPU:0", "attr": {"strides": {"list": {"i": ["1", "1", "1", "1"]}}, "fused_ops": {"list": {"s": ["Qmlhc0FkZA=="]}}, "num_args": {"i": "1"}, "epsilon": {"f": 0.0}, "use_cudnn_on_gpu": {"b": true}, "T": {"type": "DT_FLOAT"}, "padding": {"s": "U0FNRQ=="}, "explicit_paddings": {"list": {}}, "data_format": {"s": "TkhXQw=="}, "dilations": {"list": {"i": ["1", "1", "1", "1"]}}}}, {"name": "StatefulPartitionedCall/model/block_5_add/add", "op": "AddV2", "input": ["StatefulPartitionedCall/model/block_4_add/add", "StatefulPartitionedCall/model/block_5_project_BN/FusedBatchNormV3"], "attr": {"T": {"type": "DT_FLOAT"}}}, {"name": "StatefulPartitionedCall/model/block_6_expand_relu/Relu6", "op": "_FusedConv2D", "input": ["StatefulPartitionedCall/model/block_5_add/add", "StatefulPartitionedCall/model/block_6_expand/Conv2D_weights", "StatefulPartitionedCall/model/block_6_expand/Conv2D_bn_offset"], "device": "/device:CPU:0", "attr": {"fused_ops": {"list": {"s": ["Qmlhc0FkZA==", "UmVsdTY="]}}, "use_cudnn_on_gpu": {"b": true}, "epsilon": {"f": 0.0}, "num_args": {"i": "1"}, "strides": {"list": {"i": ["1", "1", "1", "1"]}}, "explicit_paddings": {"list": {}}, "dilations": {"list": {"i": ["1", "1", "1", "1"]}}, "padding": {"s": "U0FNRQ=="}, "data_format": {"s": "TkhXQw=="}, "T": {"type": "DT_FLOAT"}}}, {"name": "StatefulPartitionedCall/model/block_6_pad/Pad", "op": "Pad", "input": ["StatefulPartitionedCall/model/block_6_expand_relu/Relu6", "StatefulPartitionedCall/model/block_6_pad/Pad/paddings"], "attr": {"T": {"type": "DT_FLOAT"}, "Tpaddings": {"type": "DT_INT32"}}}, {"name": "StatefulPartitionedCall/model/block_6_depthwise/depthwise", "op": "FusedDepthwiseConv2dNative", "input": ["StatefulPartitionedCall/model/block_6_pad/Pad", "StatefulPartitionedCall/model/block_6_depthwise/depthwise_weights", "StatefulPartitionedCall/model/block_6_depthwise/depthwise_bn_offset"], "attr": {"T": {"type": "DT_FLOAT"}, "explicit_paddings": {"list": {}}, "dilations": {"list": {"i": ["1", "1", "1", "1"]}}, "strides": {"list": {"i": ["1", "2", "2", "1"]}}, "num_args": {"i": "1"}, "padding": {"s": "VkFMSUQ="}, "fused_ops": {"list": {"s": ["Qmlhc0FkZA==", "UmVsdTY="]}}, "data_format": {"s": "TkhXQw=="}}}, {"name": "StatefulPartitionedCall/model/block_6_project_BN/FusedBatchNormV3", "op": "_FusedConv2D", "input": ["StatefulPartitionedCall/model/block_6_depthwise/depthwise", "StatefulPartitionedCall/model/block_6_project/Conv2D_weights", "StatefulPartitionedCall/model/block_6_project/Conv2D_bn_offset"], "device": "/device:CPU:0", "attr": {"explicit_paddings": {"list": {}}, "use_cudnn_on_gpu": {"b": true}, "num_args": {"i": "1"}, "padding": {"s": "U0FNRQ=="}, "fused_ops": {"list": {"s": ["Qmlhc0FkZA=="]}}, "data_format": {"s": "TkhXQw=="}, "T": {"type": "DT_FLOAT"}, "dilations": {"list": {"i": ["1", "1", "1", "1"]}}, "strides": {"list": {"i": ["1", "1", "1", "1"]}}, "epsilon": {"f": 0.0}}}, {"name": "StatefulPartitionedCall/model/block_7_expand_relu/Relu6", "op": "_FusedConv2D", "input": ["StatefulPartitionedCall/model/block_6_project_BN/FusedBatchNormV3", "StatefulPartitionedCall/model/block_7_expand/Conv2D_weights", "StatefulPartitionedCall/model/block_7_expand/Conv2D_bn_offset"], "device": "/device:CPU:0", "attr": {"use_cudnn_on_gpu": {"b": true}, "num_args": {"i": "1"}, "explicit_paddings": {"list": {}}, "fused_ops": {"list": {"s": ["Qmlhc0FkZA==", "UmVsdTY="]}}, "data_format": {"s": "TkhXQw=="}, "dilations": {"list": {"i": ["1", "1", "1", "1"]}}, "T": {"type": "DT_FLOAT"}, "epsilon": {"f": 0.0}, "strides": {"list": {"i": ["1", "1", "1", "1"]}}, "padding": {"s": "U0FNRQ=="}}}, {"name": "StatefulPartitionedCall/model/block_7_depthwise/depthwise", "op": "FusedDepthwiseConv2dNative", "input": ["StatefulPartitionedCall/model/block_7_expand_relu/Relu6", "StatefulPartitionedCall/model/block_7_depthwise/depthwise_weights", "StatefulPartitionedCall/model/block_7_depthwise/depthwise_bn_offset"], "attr": {"explicit_paddings": {"list": {}}, "fused_ops": {"list": {"s": ["Qmlhc0FkZA==", "UmVsdTY="]}}, "strides": {"list": {"i": ["1", "1", "1", "1"]}}, "T": {"type": "DT_FLOAT"}, "num_args": {"i": "1"}, "padding": {"s": "U0FNRQ=="}, "data_format": {"s": "TkhXQw=="}, "dilations": {"list": {"i": ["1", "1", "1", "1"]}}}}, {"name": "StatefulPartitionedCall/model/block_7_project_BN/FusedBatchNormV3", "op": "_FusedConv2D", "input": ["StatefulPartitionedCall/model/block_7_depthwise/depthwise", "StatefulPartitionedCall/model/block_7_project/Conv2D_weights", "StatefulPartitionedCall/model/block_7_project/Conv2D_bn_offset"], "device": "/device:CPU:0", "attr": {"data_format": {"s": "TkhXQw=="}, "padding": {"s": "U0FNRQ=="}, "use_cudnn_on_gpu": {"b": true}, "fused_ops": {"list": {"s": ["Qmlhc0FkZA=="]}}, "T": {"type": "DT_FLOAT"}, "strides": {"list": {"i": ["1", "1", "1", "1"]}}, "epsilon": {"f": 0.0}, "explicit_paddings": {"list": {}}, "num_args": {"i": "1"}, "dilations": {"list": {"i": ["1", "1", "1", "1"]}}}}, {"name": "StatefulPartitionedCall/model/block_7_add/add", "op": "AddV2", "input": ["StatefulPartitionedCall/model/block_6_project_BN/FusedBatchNormV3", "StatefulPartitionedCall/model/block_7_project_BN/FusedBatchNormV3"], "attr": {"T": {"type": "DT_FLOAT"}}}, {"name": "StatefulPartitionedCall/model/block_8_expand_relu/Relu6", "op": "_FusedConv2D", "input": ["StatefulPartitionedCall/model/block_7_add/add", "StatefulPartitionedCall/model/block_8_expand/Conv2D_weights", "StatefulPartitionedCall/model/block_8_expand/Conv2D_bn_offset"], "device": "/device:CPU:0", "attr": {"strides": {"list": {"i": ["1", "1", "1", "1"]}}, "data_format": {"s": "TkhXQw=="}, "fused_ops": {"list": {"s": ["Qmlhc0FkZA==", "UmVsdTY="]}}, "num_args": {"i": "1"}, "use_cudnn_on_gpu": {"b": true}, "epsilon": {"f": 0.0}, "dilations": {"list": {"i": ["1", "1", "1", "1"]}}, "T": {"type": "DT_FLOAT"}, "padding": {"s": "U0FNRQ=="}, "explicit_paddings": {"list": {}}}}, {"name": "StatefulPartitionedCall/model/block_8_depthwise/depthwise", "op": "FusedDepthwiseConv2dNative", "input": ["StatefulPartitionedCall/model/block_8_expand_relu/Relu6", "StatefulPartitionedCall/model/block_8_depthwise/depthwise_weights", "StatefulPartitionedCall/model/block_8_depthwise/depthwise_bn_offset"], "attr": {"padding": {"s": "U0FNRQ=="}, "T": {"type": "DT_FLOAT"}, "data_format": {"s": "TkhXQw=="}, "fused_ops": {"list": {"s": ["Qmlhc0FkZA==", "UmVsdTY="]}}, "dilations": {"list": {"i": ["1", "1", "1", "1"]}}, "explicit_paddings": {"list": {}}, "num_args": {"i": "1"}, "strides": {"list": {"i": ["1", "1", "1", "1"]}}}}, {"name": "StatefulPartitionedCall/model/block_8_project_BN/FusedBatchNormV3", "op": "_FusedConv2D", "input": ["StatefulPartitionedCall/model/block_8_depthwise/depthwise", "StatefulPartitionedCall/model/block_8_project/Conv2D_weights", "StatefulPartitionedCall/model/block_8_project/Conv2D_bn_offset"], "device": "/device:CPU:0", "attr": {"explicit_paddings": {"list": {}}, "strides": {"list": {"i": ["1", "1", "1", "1"]}}, "padding": {"s": "U0FNRQ=="}, "T": {"type": "DT_FLOAT"}, "fused_ops": {"list": {"s": ["Qmlhc0FkZA=="]}}, "dilations": {"list": {"i": ["1", "1", "1", "1"]}}, "num_args": {"i": "1"}, "use_cudnn_on_gpu": {"b": true}, "data_format": {"s": "TkhXQw=="}, "epsilon": {"f": 0.0}}}, {"name": "StatefulPartitionedCall/model/block_8_add/add", "op": "AddV2", "input": ["StatefulPartitionedCall/model/block_7_add/add", "StatefulPartitionedCall/model/block_8_project_BN/FusedBatchNormV3"], "attr": {"T": {"type": "DT_FLOAT"}}}, {"name": "StatefulPartitionedCall/model/block_9_expand_relu/Relu6", "op": "_FusedConv2D", "input": ["StatefulPartitionedCall/model/block_8_add/add", "StatefulPartitionedCall/model/block_9_expand/Conv2D_weights", "StatefulPartitionedCall/model/block_9_expand/Conv2D_bn_offset"], "device": "/device:CPU:0", "attr": {"fused_ops": {"list": {"s": ["Qmlhc0FkZA==", "UmVsdTY="]}}, "padding": {"s": "U0FNRQ=="}, "dilations": {"list": {"i": ["1", "1", "1", "1"]}}, "use_cudnn_on_gpu": {"b": true}, "data_format": {"s": "TkhXQw=="}, "num_args": {"i": "1"}, "T": {"type": "DT_FLOAT"}, "strides": {"list": {"i": ["1", "1", "1", "1"]}}, "explicit_paddings": {"list": {}}, "epsilon": {"f": 0.0}}}, {"name": "StatefulPartitionedCall/model/block_9_depthwise/depthwise", "op": "FusedDepthwiseConv2dNative", "input": ["StatefulPartitionedCall/model/block_9_expand_relu/Relu6", "StatefulPartitionedCall/model/block_9_depthwise/depthwise_weights", "StatefulPartitionedCall/model/block_9_depthwise/depthwise_bn_offset"], "attr": {"num_args": {"i": "1"}, "dilations": {"list": {"i": ["1", "1", "1", "1"]}}, "strides": {"list": {"i": ["1", "1", "1", "1"]}}, "explicit_paddings": {"list": {}}, "padding": {"s": "U0FNRQ=="}, "T": {"type": "DT_FLOAT"}, "data_format": {"s": "TkhXQw=="}, "fused_ops": {"list": {"s": ["Qmlhc0FkZA==", "UmVsdTY="]}}}}, {"name": "StatefulPartitionedCall/model/block_9_project_BN/FusedBatchNormV3", "op": "_FusedConv2D", "input": ["StatefulPartitionedCall/model/block_9_depthwise/depthwise", "StatefulPartitionedCall/model/block_9_project/Conv2D_weights", "StatefulPartitionedCall/model/block_9_project/Conv2D_bn_offset"], "device": "/device:CPU:0", "attr": {"padding": {"s": "U0FNRQ=="}, "num_args": {"i": "1"}, "fused_ops": {"list": {"s": ["Qmlhc0FkZA=="]}}, "epsilon": {"f": 0.0}, "data_format": {"s": "TkhXQw=="}, "explicit_paddings": {"list": {}}, "dilations": {"list": {"i": ["1", "1", "1", "1"]}}, "use_cudnn_on_gpu": {"b": true}, "T": {"type": "DT_FLOAT"}, "strides": {"list": {"i": ["1", "1", "1", "1"]}}}}, {"name": "StatefulPartitionedCall/model/block_9_add/add", "op": "AddV2", "input": ["StatefulPartitionedCall/model/block_8_add/add", "StatefulPartitionedCall/model/block_9_project_BN/FusedBatchNormV3"], "attr": {"T": {"type": "DT_FLOAT"}}}, {"name": "StatefulPartitionedCall/model/block_10_expand_relu/Relu6", "op": "_FusedConv2D", "input": ["StatefulPartitionedCall/model/block_9_add/add", "StatefulPartitionedCall/model/block_10_expand/Conv2D_weights", "StatefulPartitionedCall/model/block_10_expand/Conv2D_bn_offset"], "device": "/device:CPU:0", "attr": {"use_cudnn_on_gpu": {"b": true}, "explicit_paddings": {"list": {}}, "strides": {"list": {"i": ["1", "1", "1", "1"]}}, "num_args": {"i": "1"}, "padding": {"s": "U0FNRQ=="}, "epsilon": {"f": 0.0}, "T": {"type": "DT_FLOAT"}, "dilations": {"list": {"i": ["1", "1", "1", "1"]}}, "fused_ops": {"list": {"s": ["Qmlhc0FkZA==", "UmVsdTY="]}}, "data_format": {"s": "TkhXQw=="}}}, {"name": "StatefulPartitionedCall/model/block_10_depthwise/depthwise", "op": "FusedDepthwiseConv2dNative", "input": ["StatefulPartitionedCall/model/block_10_expand_relu/Relu6", "StatefulPartitionedCall/model/block_10_depthwise/depthwise_weights", "StatefulPartitionedCall/model/block_10_depthwise/depthwise_bn_offset"], "attr": {"num_args": {"i": "1"}, "explicit_paddings": {"list": {}}, "fused_ops": {"list": {"s": ["Qmlhc0FkZA==", "UmVsdTY="]}}, "strides": {"list": {"i": ["1", "1", "1", "1"]}}, "data_format": {"s": "TkhXQw=="}, "T": {"type": "DT_FLOAT"}, "dilations": {"list": {"i": ["1", "1", "1", "1"]}}, "padding": {"s": "U0FNRQ=="}}}, {"name": "StatefulPartitionedCall/model/block_10_project_BN/FusedBatchNormV3", "op": "_FusedConv2D", "input": ["StatefulPartitionedCall/model/block_10_depthwise/depthwise", "StatefulPartitionedCall/model/block_10_project/Conv2D_weights", "StatefulPartitionedCall/model/block_10_project/Conv2D_bn_offset"], "device": "/device:CPU:0", "attr": {"padding": {"s": "U0FNRQ=="}, "T": {"type": "DT_FLOAT"}, "use_cudnn_on_gpu": {"b": true}, "data_format": {"s": "TkhXQw=="}, "fused_ops": {"list": {"s": ["Qmlhc0FkZA=="]}}, "strides": {"list": {"i": ["1", "1", "1", "1"]}}, "num_args": {"i": "1"}, "explicit_paddings": {"list": {}}, "epsilon": {"f": 0.0}, "dilations": {"list": {"i": ["1", "1", "1", "1"]}}}}, {"name": "StatefulPartitionedCall/model/block_11_expand_relu/Relu6", "op": "_FusedConv2D", "input": ["StatefulPartitionedCall/model/block_10_project_BN/FusedBatchNormV3", "StatefulPartitionedCall/model/block_11_expand/Conv2D_weights", "StatefulPartitionedCall/model/block_11_expand/Conv2D_bn_offset"], "device": "/device:CPU:0", "attr": {"strides": {"list": {"i": ["1", "1", "1", "1"]}}, "padding": {"s": "U0FNRQ=="}, "data_format": {"s": "TkhXQw=="}, "T": {"type": "DT_FLOAT"}, "fused_ops": {"list": {"s": ["Qmlhc0FkZA==", "UmVsdTY="]}}, "epsilon": {"f": 0.0}, "dilations": {"list": {"i": ["1", "1", "1", "1"]}}, "use_cudnn_on_gpu": {"b": true}, "num_args": {"i": "1"}, "explicit_paddings": {"list": {}}}}, {"name": "StatefulPartitionedCall/model/block_11_depthwise/depthwise", "op": "FusedDepthwiseConv2dNative", "input": ["StatefulPartitionedCall/model/block_11_expand_relu/Relu6", "StatefulPartitionedCall/model/block_11_depthwise/depthwise_weights", "StatefulPartitionedCall/model/block_11_depthwise/depthwise_bn_offset"], "attr": {"padding": {"s": "U0FNRQ=="}, "strides": {"list": {"i": ["1", "1", "1", "1"]}}, "fused_ops": {"list": {"s": ["Qmlhc0FkZA==", "UmVsdTY="]}}, "T": {"type": "DT_FLOAT"}, "data_format": {"s": "TkhXQw=="}, "dilations": {"list": {"i": ["1", "1", "1", "1"]}}, "num_args": {"i": "1"}, "explicit_paddings": {"list": {}}}}, {"name": "StatefulPartitionedCall/model/block_11_project_BN/FusedBatchNormV3", "op": "_FusedConv2D", "input": ["StatefulPartitionedCall/model/block_11_depthwise/depthwise", "StatefulPartitionedCall/model/block_11_project/Conv2D_weights", "StatefulPartitionedCall/model/block_11_project/Conv2D_bn_offset"], "device": "/device:CPU:0", "attr": {"explicit_paddings": {"list": {}}, "dilations": {"list": {"i": ["1", "1", "1", "1"]}}, "T": {"type": "DT_FLOAT"}, "data_format": {"s": "TkhXQw=="}, "epsilon": {"f": 0.0}, "num_args": {"i": "1"}, "strides": {"list": {"i": ["1", "1", "1", "1"]}}, "padding": {"s": "U0FNRQ=="}, "use_cudnn_on_gpu": {"b": true}, "fused_ops": {"list": {"s": ["Qmlhc0FkZA=="]}}}}, {"name": "StatefulPartitionedCall/model/block_11_add/add", "op": "AddV2", "input": ["StatefulPartitionedCall/model/block_10_project_BN/FusedBatchNormV3", "StatefulPartitionedCall/model/block_11_project_BN/FusedBatchNormV3"], "attr": {"T": {"type": "DT_FLOAT"}}}, {"name": "StatefulPartitionedCall/model/block_12_expand_relu/Relu6", "op": "_FusedConv2D", "input": ["StatefulPartitionedCall/model/block_11_add/add", "StatefulPartitionedCall/model/block_12_expand/Conv2D_weights", "StatefulPartitionedCall/model/block_12_expand/Conv2D_bn_offset"], "device": "/device:CPU:0", "attr": {"data_format": {"s": "TkhXQw=="}, "fused_ops": {"list": {"s": ["Qmlhc0FkZA==", "UmVsdTY="]}}, "epsilon": {"f": 0.0}, "padding": {"s": "U0FNRQ=="}, "T": {"type": "DT_FLOAT"}, "use_cudnn_on_gpu": {"b": true}, "explicit_paddings": {"list": {}}, "strides": {"list": {"i": ["1", "1", "1", "1"]}}, "num_args": {"i": "1"}, "dilations": {"list": {"i": ["1", "1", "1", "1"]}}}}, {"name": "StatefulPartitionedCall/model/block_12_depthwise/depthwise", "op": "FusedDepthwiseConv2dNative", "input": ["StatefulPartitionedCall/model/block_12_expand_relu/Relu6", "StatefulPartitionedCall/model/block_12_depthwise/depthwise_weights", "StatefulPartitionedCall/model/block_12_depthwise/depthwise_bn_offset"], "attr": {"explicit_paddings": {"list": {}}, "dilations": {"list": {"i": ["1", "1", "1", "1"]}}, "padding": {"s": "U0FNRQ=="}, "data_format": {"s": "TkhXQw=="}, "fused_ops": {"list": {"s": ["Qmlhc0FkZA==", "UmVsdTY="]}}, "num_args": {"i": "1"}, "strides": {"list": {"i": ["1", "1", "1", "1"]}}, "T": {"type": "DT_FLOAT"}}}, {"name": "StatefulPartitionedCall/model/block_12_project_BN/FusedBatchNormV3", "op": "_FusedConv2D", "input": ["StatefulPartitionedCall/model/block_12_depthwise/depthwise", "StatefulPartitionedCall/model/block_12_project/Conv2D_weights", "StatefulPartitionedCall/model/block_12_project/Conv2D_bn_offset"], "device": "/device:CPU:0", "attr": {"data_format": {"s": "TkhXQw=="}, "epsilon": {"f": 0.0}, "explicit_paddings": {"list": {}}, "use_cudnn_on_gpu": {"b": true}, "dilations": {"list": {"i": ["1", "1", "1", "1"]}}, "padding": {"s": "U0FNRQ=="}, "strides": {"list": {"i": ["1", "1", "1", "1"]}}, "num_args": {"i": "1"}, "fused_ops": {"list": {"s": ["Qmlhc0FkZA=="]}}, "T": {"type": "DT_FLOAT"}}}, {"name": "StatefulPartitionedCall/model/block_12_add/add", "op": "AddV2", "input": ["StatefulPartitionedCall/model/block_11_add/add", "StatefulPartitionedCall/model/block_12_project_BN/FusedBatchNormV3"], "attr": {"T": {"type": "DT_FLOAT"}}}, {"name": "StatefulPartitionedCall/model/block_13_expand_relu/Relu6", "op": "_FusedConv2D", "input": ["StatefulPartitionedCall/model/block_12_add/add", "StatefulPartitionedCall/model/block_13_expand/Conv2D_weights", "StatefulPartitionedCall/model/block_13_expand/Conv2D_bn_offset"], "device": "/device:CPU:0", "attr": {"dilations": {"list": {"i": ["1", "1", "1", "1"]}}, "T": {"type": "DT_FLOAT"}, "explicit_paddings": {"list": {}}, "epsilon": {"f": 0.0}, "strides": {"list": {"i": ["1", "1", "1", "1"]}}, "use_cudnn_on_gpu": {"b": true}, "num_args": {"i": "1"}, "data_format": {"s": "TkhXQw=="}, "padding": {"s": "U0FNRQ=="}, "fused_ops": {"list": {"s": ["Qmlhc0FkZA==", "UmVsdTY="]}}}}, {"name": "StatefulPartitionedCall/model/block_13_pad/Pad", "op": "Pad", "input": ["StatefulPartitionedCall/model/block_13_expand_relu/Relu6", "StatefulPartitionedCall/model/block_13_pad/Pad/paddings"], "attr": {"Tpaddings": {"type": "DT_INT32"}, "T": {"type": "DT_FLOAT"}}}, {"name": "StatefulPartitionedCall/model/block_13_depthwise/depthwise", "op": "FusedDepthwiseConv2dNative", "input": ["StatefulPartitionedCall/model/block_13_pad/Pad", "StatefulPartitionedCall/model/block_13_depthwise/depthwise_weights", "StatefulPartitionedCall/model/block_13_depthwise/depthwise_bn_offset"], "attr": {"dilations": {"list": {"i": ["1", "1", "1", "1"]}}, "T": {"type": "DT_FLOAT"}, "padding": {"s": "VkFMSUQ="}, "explicit_paddings": {"list": {}}, "num_args": {"i": "1"}, "strides": {"list": {"i": ["1", "2", "2", "1"]}}, "data_format": {"s": "TkhXQw=="}, "fused_ops": {"list": {"s": ["Qmlhc0FkZA==", "UmVsdTY="]}}}}, {"name": "StatefulPartitionedCall/model/block_13_project_BN/FusedBatchNormV3", "op": "_FusedConv2D", "input": ["StatefulPartitionedCall/model/block_13_depthwise/depthwise", "StatefulPartitionedCall/model/block_13_project/Conv2D_weights", "StatefulPartitionedCall/model/block_13_project/Conv2D_bn_offset"], "device": "/device:CPU:0", "attr": {"explicit_paddings": {"list": {}}, "T": {"type": "DT_FLOAT"}, "num_args": {"i": "1"}, "epsilon": {"f": 0.0}, "data_format": {"s": "TkhXQw=="}, "padding": {"s": "U0FNRQ=="}, "fused_ops": {"list": {"s": ["Qmlhc0FkZA=="]}}, "use_cudnn_on_gpu": {"b": true}, "strides": {"list": {"i": ["1", "1", "1", "1"]}}, "dilations": {"list": {"i": ["1", "1", "1", "1"]}}}}, {"name": "StatefulPartitionedCall/model/block_14_expand_relu/Relu6", "op": "_FusedConv2D", "input": ["StatefulPartitionedCall/model/block_13_project_BN/FusedBatchNormV3", "StatefulPartitionedCall/model/block_14_expand/Conv2D_weights", "StatefulPartitionedCall/model/block_14_expand/Conv2D_bn_offset"], "device": "/device:CPU:0", "attr": {"data_format": {"s": "TkhXQw=="}, "use_cudnn_on_gpu": {"b": true}, "dilations": {"list": {"i": ["1", "1", "1", "1"]}}, "explicit_paddings": {"list": {}}, "strides": {"list": {"i": ["1", "1", "1", "1"]}}, "num_args": {"i": "1"}, "padding": {"s": "U0FNRQ=="}, "epsilon": {"f": 0.0}, "fused_ops": {"list": {"s": ["Qmlhc0FkZA==", "UmVsdTY="]}}, "T": {"type": "DT_FLOAT"}}}, {"name": "StatefulPartitionedCall/model/block_14_depthwise/depthwise", "op": "FusedDepthwiseConv2dNative", "input": ["StatefulPartitionedCall/model/block_14_expand_relu/Relu6", "StatefulPartitionedCall/model/block_14_depthwise/depthwise_weights", "StatefulPartitionedCall/model/block_14_depthwise/depthwise_bn_offset"], "attr": {"explicit_paddings": {"list": {}}, "T": {"type": "DT_FLOAT"}, "fused_ops": {"list": {"s": ["Qmlhc0FkZA==", "UmVsdTY="]}}, "dilations": {"list": {"i": ["1", "1", "1", "1"]}}, "num_args": {"i": "1"}, "padding": {"s": "U0FNRQ=="}, "data_format": {"s": "TkhXQw=="}, "strides": {"list": {"i": ["1", "1", "1", "1"]}}}}, {"name": "StatefulPartitionedCall/model/block_14_project_BN/FusedBatchNormV3", "op": "_FusedConv2D", "input": ["StatefulPartitionedCall/model/block_14_depthwise/depthwise", "StatefulPartitionedCall/model/block_14_project/Conv2D_weights", "StatefulPartitionedCall/model/block_14_project/Conv2D_bn_offset"], "device": "/device:CPU:0", "attr": {"explicit_paddings": {"list": {}}, "strides": {"list": {"i": ["1", "1", "1", "1"]}}, "dilations": {"list": {"i": ["1", "1", "1", "1"]}}, "fused_ops": {"list": {"s": ["Qmlhc0FkZA=="]}}, "padding": {"s": "U0FNRQ=="}, "T": {"type": "DT_FLOAT"}, "num_args": {"i": "1"}, "data_format": {"s": "TkhXQw=="}, "use_cudnn_on_gpu": {"b": true}, "epsilon": {"f": 0.0}}}, {"name": "StatefulPartitionedCall/model/block_14_add/add", "op": "AddV2", "input": ["StatefulPartitionedCall/model/block_13_project_BN/FusedBatchNormV3", "StatefulPartitionedCall/model/block_14_project_BN/FusedBatchNormV3"], "attr": {"T": {"type": "DT_FLOAT"}}}, {"name": "StatefulPartitionedCall/model/block_15_expand_relu/Relu6", "op": "_FusedConv2D", "input": ["StatefulPartitionedCall/model/block_14_add/add", "StatefulPartitionedCall/model/block_15_expand/Conv2D_weights", "StatefulPartitionedCall/model/block_15_expand/Conv2D_bn_offset"], "device": "/device:CPU:0", "attr": {"fused_ops": {"list": {"s": ["Qmlhc0FkZA==", "UmVsdTY="]}}, "epsilon": {"f": 0.0}, "use_cudnn_on_gpu": {"b": true}, "dilations": {"list": {"i": ["1", "1", "1", "1"]}}, "padding": {"s": "U0FNRQ=="}, "explicit_paddings": {"list": {}}, "data_format": {"s": "TkhXQw=="}, "T": {"type": "DT_FLOAT"}, "num_args": {"i": "1"}, "strides": {"list": {"i": ["1", "1", "1", "1"]}}}}, {"name": "StatefulPartitionedCall/model/block_15_depthwise/depthwise", "op": "FusedDepthwiseConv2dNative", "input": ["StatefulPartitionedCall/model/block_15_expand_relu/Relu6", "StatefulPartitionedCall/model/block_15_depthwise/depthwise_weights", "StatefulPartitionedCall/model/block_15_depthwise/depthwise_bn_offset"], "attr": {"fused_ops": {"list": {"s": ["Qmlhc0FkZA==", "UmVsdTY="]}}, "padding": {"s": "U0FNRQ=="}, "data_format": {"s": "TkhXQw=="}, "num_args": {"i": "1"}, "dilations": {"list": {"i": ["1", "1", "1", "1"]}}, "strides": {"list": {"i": ["1", "1", "1", "1"]}}, "T": {"type": "DT_FLOAT"}, "explicit_paddings": {"list": {}}}}, {"name": "StatefulPartitionedCall/model/block_15_project_BN/FusedBatchNormV3", "op": "_FusedConv2D", "input": ["StatefulPartitionedCall/model/block_15_depthwise/depthwise", "StatefulPartitionedCall/model/block_15_project/Conv2D_weights", "StatefulPartitionedCall/model/block_15_project/Conv2D_bn_offset"], "device": "/device:CPU:0", "attr": {"fused_ops": {"list": {"s": ["Qmlhc0FkZA=="]}}, "use_cudnn_on_gpu": {"b": true}, "explicit_paddings": {"list": {}}, "data_format": {"s": "TkhXQw=="}, "num_args": {"i": "1"}, "strides": {"list": {"i": ["1", "1", "1", "1"]}}, "epsilon": {"f": 0.0}, "dilations": {"list": {"i": ["1", "1", "1", "1"]}}, "T": {"type": "DT_FLOAT"}, "padding": {"s": "U0FNRQ=="}}}, {"name": "StatefulPartitionedCall/model/block_15_add/add", "op": "AddV2", "input": ["StatefulPartitionedCall/model/block_14_add/add", "StatefulPartitionedCall/model/block_15_project_BN/FusedBatchNormV3"], "attr": {"T": {"type": "DT_FLOAT"}}}, {"name": "StatefulPartitionedCall/model/block_16_expand_relu/Relu6", "op": "_FusedConv2D", "input": ["StatefulPartitionedCall/model/block_15_add/add", "StatefulPartitionedCall/model/block_16_expand/Conv2D_weights", "StatefulPartitionedCall/model/block_16_expand/Conv2D_bn_offset"], "device": "/device:CPU:0", "attr": {"strides": {"list": {"i": ["1", "1", "1", "1"]}}, "T": {"type": "DT_FLOAT"}, "explicit_paddings": {"list": {}}, "epsilon": {"f": 0.0}, "dilations": {"list": {"i": ["1", "1", "1", "1"]}}, "fused_ops": {"list": {"s": ["Qmlhc0FkZA==", "UmVsdTY="]}}, "data_format": {"s": "TkhXQw=="}, "num_args": {"i": "1"}, "padding": {"s": "U0FNRQ=="}, "use_cudnn_on_gpu": {"b": true}}}, {"name": "StatefulPartitionedCall/model/block_16_depthwise/depthwise", "op": "FusedDepthwiseConv2dNative", "input": ["StatefulPartitionedCall/model/block_16_expand_relu/Relu6", "StatefulPartitionedCall/model/block_16_depthwise/depthwise_weights", "StatefulPartitionedCall/model/block_16_depthwise/depthwise_bn_offset"], "attr": {"T": {"type": "DT_FLOAT"}, "strides": {"list": {"i": ["1", "1", "1", "1"]}}, "padding": {"s": "U0FNRQ=="}, "fused_ops": {"list": {"s": ["Qmlhc0FkZA==", "UmVsdTY="]}}, "data_format": {"s": "TkhXQw=="}, "num_args": {"i": "1"}, "dilations": {"list": {"i": ["1", "1", "1", "1"]}}, "explicit_paddings": {"list": {}}}}, {"name": "StatefulPartitionedCall/model/block_16_project_BN/FusedBatchNormV3", "op": "_FusedConv2D", "input": ["StatefulPartitionedCall/model/block_16_depthwise/depthwise", "StatefulPartitionedCall/model/block_16_project/Conv2D_weights", "StatefulPartitionedCall/model/block_16_project/Conv2D_bn_offset"], "device": "/device:CPU:0", "attr": {"fused_ops": {"list": {"s": ["Qmlhc0FkZA=="]}}, "num_args": {"i": "1"}, "dilations": {"list": {"i": ["1", "1", "1", "1"]}}, "padding": {"s": "U0FNRQ=="}, "explicit_paddings": {"list": {}}, "data_format": {"s": "TkhXQw=="}, "T": {"type": "DT_FLOAT"}, "epsilon": {"f": 0.0}, "strides": {"list": {"i": ["1", "1", "1", "1"]}}, "use_cudnn_on_gpu": {"b": true}}}, {"name": "StatefulPartitionedCall/model/out_relu/Relu6", "op": "_FusedConv2D", "input": ["StatefulPartitionedCall/model/block_16_project_BN/FusedBatchNormV3", "StatefulPartitionedCall/model/Conv_1/Conv2D_weights", "StatefulPartitionedCall/model/Conv_1/Conv2D_bn_offset"], "device": "/device:CPU:0", "attr": {"epsilon": {"f": 0.0}, "num_args": {"i": "1"}, "dilations": {"list": {"i": ["1", "1", "1", "1"]}}, "T": {"type": "DT_FLOAT"}, "padding": {"s": "VkFMSUQ="}, "strides": {"list": {"i": ["1", "1", "1", "1"]}}, "explicit_paddings": {"list": {}}, "data_format": {"s": "TkhXQw=="}, "fused_ops": {"list": {"s": ["Qmlhc0FkZA==", "UmVsdTY="]}}, "use_cudnn_on_gpu": {"b": true}}}, {"name": "StatefulPartitionedCall/model/global_average_pooling2d/Mean", "op": "Mean", "input": ["StatefulPartitionedCall/model/out_relu/Relu6", "StatefulPartitionedCall/model/global_average_pooling2d/Mean/reduction_indices"], "attr": {"T": {"type": "DT_FLOAT"}, "Tidx": {"type": "DT_INT32"}, "keep_dims": {"b": false}}}, {"name": "StatefulPartitionedCall/model/dense/BiasAdd", "op": "_FusedMatMul", "input": ["StatefulPartitionedCall/model/global_average_pooling2d/Mean", "StatefulPartitionedCall/model/dense/MatMul/ReadVariableOp", "StatefulPartitionedCall/model/dense/BiasAdd/ReadVariableOp"], "device": "/device:CPU:0", "attr": {"epsilon": {"f": 0.0}, "T": {"type": "DT_FLOAT"}, "transpose_b": {"b": false}, "fused_ops": {"list": {"s": ["Qmlhc0FkZA=="]}}, "num_args": {"i": "1"}, "transpose_a": {"b": false}}}, {"name": "StatefulPartitionedCall/model/dense/Softmax", "op": "Softmax", "input": ["StatefulPartitionedCall/model/dense/BiasAdd"], "attr": {"T": {"type": "DT_FLOAT"}}}, {"name": "Identity", "op": "Identity", "input": ["StatefulPartitionedCall/model/dense/Softmax"], "attr": {"T": {"type": "DT_FLOAT"}}}], "library": {}, "versions": {"producer": 808}}, "weightsManifest": [{"paths": ["group1-shard1of1.bin"], "weights": [{"name": "StatefulPartitionedCall/model/block_1_pad/Pad/paddings", "shape": [4, 2], "dtype": "int32"}, {"name": "StatefulPartitionedCall/model/block_3_pad/Pad/paddings", "shape": [4, 2], "dtype": "int32"}, {"name": "StatefulPartitionedCall/model/block_6_pad/Pad/paddings", "shape": [4, 2], "dtype": "int32"}, {"name": "StatefulPartitionedCall/model/block_13_pad/Pad/paddings", "shape": [4, 2], "dtype": "int32"}, {"name": "StatefulPartitionedCall/model/global_average_pooling2d/Mean/reduction_indices", "shape": [2], "dtype": "int32"}, {"name": "StatefulPartitionedCall/model/dense/MatMul/ReadVariableOp", "shape": [1280, 5], "dtype": "float32", "quantization": {"dtype": "uint8", "min": -0.07273626187268425, "scale": 0.0005772719196244782, "original_dtype": "float32"}}, {"name": "StatefulPartitionedCall/model/dense/BiasAdd/ReadVariableOp", "shape": [5], "dtype": "float32", "quantization": {"dtype": "uint8", "min": -0.005533203044358422, "scale": 4.611002536965351e-05, "original_dtype": "float32"}}, {"name": "StatefulPartitionedCall/model/Conv1/Conv2D_weights", "shape": [3, 3, 3, 32], "dtype": "float32", "quantization": {"dtype": "uint8", "min": -0.028523372800326813, "scale": 0.00019536556712552612, "original_dtype": "float32"}}, {"name": "StatefulPartitionedCall/model/block_14_expand/Conv2D_weights", "shape": [1, 1, 160, 960], "dtype": "float32", "quantization": {"dtype": "uint8", "min": -0.28449713248832553, "scale": 0.0026839352121540145, "original_dtype": "float32"}}, {"name": "StatefulPartitionedCall/model/Conv1/Conv2D_bn_offset", "shape": [32], "dtype": "float32", "quantization": {"dtype": "uint8", "min": -10.835121783088235, "scale": 0.06449477251838236, "original_dtype": "float32"}}, {"name": "StatefulPartitionedCall/model/block_16_project/Conv2D_bn_offset", "shape": [320], "dtype": "float32", "quantization": {"dtype": "uint8", "min": -12.01943167144177, "scale": 0.0903716667025697, "original_dtype": "float32"}}, {"name": "StatefulPartitionedCall/model/expanded_conv_depthwise/depthwise_weights", "shape": [3, 3, 32, 1], "dtype": "float32", "quantization": {"dtype": "uint8", "min": -29.988985487994025, "scale": 0.18285966760971967, "original_dtype": "float32"}}, {"name": "StatefulPartitionedCall/model/expanded_conv_depthwise/depthwise_bn_offset", "shape": [32], "dtype": "float32", "quantization": {"dtype": "uint8", "min": -1.5306327015745873, "scale": 0.029435244261049757, "original_dtype": "float32"}}, {"name": "StatefulPartitionedCall/model/expanded_conv_project/Conv2D_weights", "shape": [1, 1, 32, 16], "dtype": "float32", "quantization": {"dtype": "uint8", "min": -9.055388895670573, "scale": 0.06658374187993069, "original_dtype": "float32"}}, {"name": "StatefulPartitionedCall/model/block_14_expand/Conv2D_bn_offset", "shape": [960], "dtype": "float32", "quantization": {"dtype": "uint8", "min": -1.9377149862401626, "scale": 0.017941805428149653, "original_dtype": "float32"}}, {"name": "StatefulPartitionedCall/model/expanded_conv_project/Conv2D_bn_offset", "shape": [16], "dtype": "float32", "quantization": {"dtype": "uint8", "min": -33.111241853003406, "scale": 0.34135300879384955, "original_dtype": "float32"}}, {"name": "StatefulPartitionedCall/model/block_1_expand/Conv2D_weights", "shape": [1, 1, 16, 96], "dtype": "float32", "quantization": {"dtype": "uint8", "min": -1.3561504630481496, "scale": 0.008806171837974996, "original_dtype": "float32"}}, {"name": "StatefulPartitionedCall/model/block_1_expand/Conv2D_bn_offset", "shape": [96], "dtype": "float32", "quantization": {"dtype": "uint8", "min": -2.137542406717936, "scale": 0.025147557726093367, "original_dtype": "float32"}}, {"name": "StatefulPartitionedCall/model/block_1_depthwise/depthwise_weights", "shape": [3, 3, 96, 1], "dtype": "float32", "quantization": {"dtype": "uint8", "min": -7.545917322121414, "scale": 0.04997296239815506, "original_dtype": "float32"}}, {"name": "StatefulPartitionedCall/model/block_1_depthwise/depthwise_bn_offset", "shape": [96], "dtype": "float32", "quantization": {"dtype": "uint8", "min": -13.677309591629925, "scale": 0.07998426661771886, "original_dtype": "float32"}}, {"name": "StatefulPartitionedCall/model/block_1_project/Conv2D_weights", "shape": [1, 1, 96, 24], "dtype": "float32", "quantization": {"dtype": "uint8", "min": -3.5089073947831695, "scale": 0.025612462735643573, "original_dtype": "float32"}}, {"name": "StatefulPartitionedCall/model/block_14_depthwise/depthwise_weights", "shape": [3, 3, 960, 1], "dtype": "float32", "quantization": {"dtype": "uint8", "min": -9.011876242768531, "scale": 0.05968129962098365, "original_dtype": "float32"}}, {"name": "StatefulPartitionedCall/model/block_1_project/Conv2D_bn_offset", "shape": [24], "dtype": "float32", "quantization": {"dtype": "uint8", "min": -30.62883499743892, "scale": 0.19508812100279566, "original_dtype": "float32"}}, {"name": "StatefulPartitionedCall/model/block_2_expand/Conv2D_weights", "shape": [1, 1, 24, 144], "dtype": "float32", "quantization": {"dtype": "uint8", "min": -0.40316733647795283, "scale": 0.004335132650300568, "original_dtype": "float32"}}, {"name": "StatefulPartitionedCall/model/block_2_expand/Conv2D_bn_offset", "shape": [144], "dtype": "float32", "quantization": {"dtype": "uint8", "min": -2.593574577219346, "scale": 0.033682786717134365, "original_dtype": "float32"}}, {"name": "StatefulPartitionedCall/model/block_14_depthwise/depthwise_bn_offset", "shape": [960], "dtype": "float32", "quantization": {"dtype": "uint8", "min": -8.910398655311734, "scale": 0.06699547861136643, "original_dtype": "float32"}}, {"name": "StatefulPartitionedCall/model/block_2_depthwise/depthwise_weights", "shape": [3, 3, 144, 1], "dtype": "float32", "quantization": {"dtype": "uint8", "min": -4.546582717521518, "scale": 0.03953550189149146, "original_dtype": "float32"}}, {"name": "StatefulPartitionedCall/model/block_2_depthwise/depthwise_bn_offset", "shape": [144], "dtype": "float32", "quantization": {"dtype": "uint8", "min": -2.941489252389646, "scale": 0.0840425500682756, "original_dtype": "float32"}}, {"name": "StatefulPartitionedCall/model/block_2_project/Conv2D_weights", "shape": [1, 1, 144, 24], "dtype": "float32", "quantization": {"dtype": "uint8", "min": -4.900356876148897, "scale": 0.03951900706571691, "original_dtype": "float32"}}, {"name": "StatefulPartitionedCall/model/block_2_project/Conv2D_bn_offset", "shape": [24], "dtype": "float32", "quantization": {"dtype": "uint8", "min": -15.831964100108427, "scale": 0.12272840387680951, "original_dtype": "float32"}}, {"name": "StatefulPartitionedCall/model/block_3_expand/Conv2D_weights", "shape": [1, 1, 24, 144], "dtype": "float32", "quantization": {"dtype": "uint8", "min": -0.41421805643567855, "scale": 0.0031862927418129117, "original_dtype": "float32"}}, {"name": "StatefulPartitionedCall/model/block_3_expand/Conv2D_bn_offset", "shape": [144], "dtype": "float32", "quantization": {"dtype": "uint8", "min": -2.8339763790953394, "scale": 0.031142597572476255, "original_dtype": "float32"}}, {"name": "StatefulPartitionedCall/model/block_14_project/Conv2D_weights", "shape": [1, 1, 960, 160], "dtype": "float32", "quantization": {"dtype": "uint8", "min": -1.5266320869034413, "scale": 0.01221305669522753, "original_dtype": "float32"}}, {"name": "StatefulPartitionedCall/model/block_3_depthwise/depthwise_weights", "shape": [3, 3, 144, 1], "dtype": "float32", "quantization": {"dtype": "uint8", "min": -1.5219846407572428, "scale": 0.012475283940633138, "original_dtype": "float32"}}, {"name": "StatefulPartitionedCall/model/block_3_depthwise/depthwise_bn_offset", "shape": [144], "dtype": "float32", "quantization": {"dtype": "uint8", "min": -1.8442330827900009, "scale": 0.033531510596181834, "original_dtype": "float32"}}, {"name": "StatefulPartitionedCall/model/block_3_project/Conv2D_weights", "shape": [1, 1, 144, 32], "dtype": "float32", "quantization": {"dtype": "uint8", "min": -2.378737575867597, "scale": 0.017620278339759977, "original_dtype": "float32"}}, {"name": "StatefulPartitionedCall/model/Conv_1/Conv2D_weights", "shape": [1, 1, 320, 1280], "dtype": "float32", "quantization": {"dtype": "uint8", "min": -0.59302078555612, "scale": 0.004597060353148217, "original_dtype": "float32"}}, {"name": "StatefulPartitionedCall/model/block_3_project/Conv2D_bn_offset", "shape": [32], "dtype": "float32", "quantization": {"dtype": "uint8", "min": -17.29097894406786, "scale": 0.14906016331092983, "original_dtype": "float32"}}, {"name": "StatefulPartitionedCall/model/block_4_expand/Conv2D_weights", "shape": [1, 1, 32, 192], "dtype": "float32", "quantization": {"dtype": "uint8", "min": -0.31642973195104035, "scale": 0.002123689476181479, "original_dtype": "float32"}}, {"name": "StatefulPartitionedCall/model/block_14_project/Conv2D_bn_offset", "shape": [160], "dtype": "float32", "quantization": {"dtype": "uint8", "min": -10.016312363568474, "scale": 0.0695577247470033, "original_dtype": "float32"}}, {"name": "StatefulPartitionedCall/model/block_4_expand/Conv2D_bn_offset", "shape": [192], "dtype": "float32", "quantization": {"dtype": "uint8", "min": -2.371227836608887, "scale": 0.023247331731459674, "original_dtype": "float32"}}, {"name": "StatefulPartitionedCall/model/block_4_depthwise/depthwise_weights", "shape": [3, 3, 192, 1], "dtype": "float32", "quantization": {"dtype": "uint8", "min": -11.591972661485858, "scale": 0.059142717660642136, "original_dtype": "float32"}}, {"name": "StatefulPartitionedCall/model/block_4_depthwise/depthwise_bn_offset", "shape": [192], "dtype": "float32", "quantization": {"dtype": "uint8", "min": -5.473489058251475, "scale": 0.04843795626771216, "original_dtype": "float32"}}, {"name": "StatefulPartitionedCall/model/block_4_project/Conv2D_weights", "shape": [1, 1, 192, 32], "dtype": "float32", "quantization": {"dtype": "uint8", "min": -5.310916399488263, "scale": 0.03258230919931449, "original_dtype": "float32"}}, {"name": "StatefulPartitionedCall/model/block_4_project/Conv2D_bn_offset", "shape": [32], "dtype": "float32", "quantization": {"dtype": "uint8", "min": -15.85358045989392, "scale": 0.16865511127546723, "original_dtype": "float32"}}, {"name": "StatefulPartitionedCall/model/block_5_expand/Conv2D_weights", "shape": [1, 1, 32, 192], "dtype": "float32", "quantization": {"dtype": "uint8", "min": -0.19136686815935025, "scale": 0.001518784667931351, "original_dtype": "float32"}}, {"name": "StatefulPartitionedCall/model/block_15_expand/Conv2D_weights", "shape": [1, 1, 160, 960], "dtype": "float32", "quantization": {"dtype": "uint8", "min": -0.20768503640212266, "scale": 0.0016614802912169812, "original_dtype": "float32"}}, {"name": "StatefulPartitionedCall/model/block_5_expand/Conv2D_bn_offset", "shape": [192], "dtype": "float32", "quantization": {"dtype": "uint8", "min": -1.6178658765905045, "scale": 0.018384839506710278, "original_dtype": "float32"}}, {"name": "StatefulPartitionedCall/model/block_5_depthwise/depthwise_weights", "shape": [3, 3, 192, 1], "dtype": "float32", "quantization": {"dtype": "uint8", "min": -4.155672955980488, "scale": 0.04566673578000536, "original_dtype": "float32"}}, {"name": "StatefulPartitionedCall/model/block_5_depthwise/depthwise_bn_offset", "shape": [192], "dtype": "float32", "quantization": {"dtype": "uint8", "min": -14.461597124735516, "scale": 0.1087338129679362, "original_dtype": "float32"}}, {"name": "StatefulPartitionedCall/model/block_5_project/Conv2D_weights", "shape": [1, 1, 192, 32], "dtype": "float32", "quantization": {"dtype": "uint8", "min": -3.5914854021633373, "scale": 0.02258795850417193, "original_dtype": "float32"}}, {"name": "StatefulPartitionedCall/model/block_15_expand/Conv2D_bn_offset", "shape": [960], "dtype": "float32", "quantization": {"dtype": "uint8", "min": -2.2033491546032478, "scale": 0.01967276030895757, "original_dtype": "float32"}}, {"name": "StatefulPartitionedCall/model/block_5_project/Conv2D_bn_offset", "shape": [32], "dtype": "float32", "quantization": {"dtype": "uint8", "min": -18.33471560010723, "scale": 0.09167357800053615, "original_dtype": "float32"}}, {"name": "StatefulPartitionedCall/model/block_6_expand/Conv2D_weights", "shape": [1, 1, 32, 192], "dtype": "float32", "quantization": {"dtype": "uint8", "min": -0.2679618190316593, "scale": 0.001860845965497634, "original_dtype": "float32"}}, {"name": "StatefulPartitionedCall/model/Conv_1/Conv2D_bn_offset", "shape": [1280], "dtype": "float32", "quantization": {"dtype": "uint8", "min": -4.746551990509033, "scale": 0.008764438068165499, "original_dtype": "float32"}}, {"name": "StatefulPartitionedCall/model/block_6_expand/Conv2D_bn_offset", "shape": [192], "dtype": "float32", "quantization": {"dtype": "uint8", "min": -2.834059917225557, "scale": 0.019279319164799708, "original_dtype": "float32"}}, {"name": "StatefulPartitionedCall/model/block_6_depthwise/depthwise_weights", "shape": [3, 3, 192, 1], "dtype": "float32", "quantization": {"dtype": "uint8", "min": -1.2167649175606523, "scale": 0.009080335205676509, "original_dtype": "float32"}}, {"name": "StatefulPartitionedCall/model/block_6_depthwise/depthwise_bn_offset", "shape": [192], "dtype": "float32", "quantization": {"dtype": "uint8", "min": -0.8572542737512027, "scale": 0.028575142458373424, "original_dtype": "float32"}}, {"name": "StatefulPartitionedCall/model/block_6_project/Conv2D_weights", "shape": [1, 1, 192, 64], "dtype": "float32", "quantization": {"dtype": "uint8", "min": -2.134366044811174, "scale": 0.015245471748651243, "original_dtype": "float32"}}, {"name": "StatefulPartitionedCall/model/block_15_depthwise/depthwise_weights", "shape": [3, 3, 960, 1], "dtype": "float32", "quantization": {"dtype": "uint8", "min": -17.052925865322933, "scale": 0.128217487709195, "original_dtype": "float32"}}, {"name": "StatefulPartitionedCall/model/block_6_project/Conv2D_bn_offset", "shape": [64], "dtype": "float32", "quantization": {"dtype": "uint8", "min": -27.218839645385742, "scale": 0.1779009127149395, "original_dtype": "float32"}}, {"name": "StatefulPartitionedCall/model/block_7_expand/Conv2D_weights", "shape": [1, 1, 64, 384], "dtype": "float32", "quantization": {"dtype": "uint8", "min": -0.20290806012995102, "scale": 0.0016232644810396082, "original_dtype": "float32"}}, {"name": "StatefulPartitionedCall/model/block_7_expand/Conv2D_bn_offset", "shape": [384], "dtype": "float32", "quantization": {"dtype": "uint8", "min": -1.801753770603853, "scale": 0.01937369645810595, "original_dtype": "float32"}}, {"name": "StatefulPartitionedCall/model/block_15_depthwise/depthwise_bn_offset", "shape": [960], "dtype": "float32", "quantization": {"dtype": "uint8", "min": -16.112677001953127, "scale": 0.1053116143918505, "original_dtype": "float32"}}, {"name": "StatefulPartitionedCall/model/block_7_depthwise/depthwise_weights", "shape": [3, 3, 384, 1], "dtype": "float32", "quantization": {"dtype": "uint8", "min": -3.900816115211038, "scale": 0.14447467093374214, "original_dtype": "float32"}}, {"name": "StatefulPartitionedCall/model/block_7_depthwise/depthwise_bn_offset", "shape": [384], "dtype": "float32", "quantization": {"dtype": "uint8", "min": -13.273198146446079, "scale": 0.082957488415288, "original_dtype": "float32"}}, {"name": "StatefulPartitionedCall/model/block_7_project/Conv2D_weights", "shape": [1, 1, 384, 64], "dtype": "float32", "quantization": {"dtype": "uint8", "min": -3.1153947727352964, "scale": 0.0275698652454451, "original_dtype": "float32"}}, {"name": "StatefulPartitionedCall/model/block_7_project/Conv2D_bn_offset", "shape": [64], "dtype": "float32", "quantization": {"dtype": "uint8", "min": -16.18560063979205, "scale": 0.12845714793485755, "original_dtype": "float32"}}, {"name": "StatefulPartitionedCall/model/block_8_expand/Conv2D_weights", "shape": [1, 1, 64, 384], "dtype": "float32", "quantization": {"dtype": "uint8", "min": -0.24440428965231953, "scale": 0.0019397165845422184, "original_dtype": "float32"}}, {"name": "StatefulPartitionedCall/model/block_8_expand/Conv2D_bn_offset", "shape": [384], "dtype": "float32", "quantization": {"dtype": "uint8", "min": -1.6150573150784362, "scale": 0.017554970816069958, "original_dtype": "float32"}}, {"name": "StatefulPartitionedCall/model/block_15_project/Conv2D_weights", "shape": [1, 1, 960, 160], "dtype": "float32", "quantization": {"dtype": "uint8", "min": -3.1933496232126273, "scale": 0.029030451120114795, "original_dtype": "float32"}}, {"name": "StatefulPartitionedCall/model/block_8_depthwise/depthwise_weights", "shape": [3, 3, 384, 1], "dtype": "float32", "quantization": {"dtype": "uint8", "min": -3.3767496950486127, "scale": 0.04625684513765223, "original_dtype": "float32"}}, {"name": "StatefulPartitionedCall/model/block_8_depthwise/depthwise_bn_offset", "shape": [384], "dtype": "float32", "quantization": {"dtype": "uint8", "min": -4.690879277621998, "scale": 0.06606872222002814, "original_dtype": "float32"}}, {"name": "StatefulPartitionedCall/model/block_8_project/Conv2D_weights", "shape": [1, 1, 384, 64], "dtype": "float32", "quantization": {"dtype": "uint8", "min": -2.5063922489390653, "scale": 0.01816226267347149, "original_dtype": "float32"}}, {"name": "StatefulPartitionedCall/model/block_8_project/Conv2D_bn_offset", "shape": [64], "dtype": "float32", "quantization": {"dtype": "uint8", "min": -4.160907586415609, "scale": 0.04895185395783069, "original_dtype": "float32"}}, {"name": "StatefulPartitionedCall/model/block_9_expand/Conv2D_weights", "shape": [1, 1, 64, 384], "dtype": "float32", "quantization": {"dtype": "uint8", "min": -0.1688671909126581, "scale": 0.0014557516457987766, "original_dtype": "float32"}}, {"name": "StatefulPartitionedCall/model/block_15_project/Conv2D_bn_offset", "shape": [160], "dtype": "float32", "quantization": {"dtype": "uint8", "min": -26.42701202841366, "scale": 0.22587189767874924, "original_dtype": "float32"}}, {"name": "StatefulPartitionedCall/model/block_9_expand/Conv2D_bn_offset", "shape": [384], "dtype": "float32", "quantization": {"dtype": "uint8", "min": -1.3276875486560897, "scale": 0.012069886805964452, "original_dtype": "float32"}}, {"name": "StatefulPartitionedCall/model/block_9_depthwise/depthwise_weights", "shape": [3, 3, 384, 1], "dtype": "float32", "quantization": {"dtype": "uint8", "min": -21.06972797618193, "scale": 0.1433314828311696, "original_dtype": "float32"}}, {"name": "StatefulPartitionedCall/model/block_9_depthwise/depthwise_bn_offset", "shape": [384], "dtype": "float32", "quantization": {"dtype": "uint8", "min": -15.742996829163795, "scale": 0.10222725213742724, "original_dtype": "float32"}}, {"name": "StatefulPartitionedCall/model/block_9_project/Conv2D_weights", "shape": [1, 1, 384, 64], "dtype": "float32", "quantization": {"dtype": "uint8", "min": -2.08034039665671, "scale": 0.014446808310116039, "original_dtype": "float32"}}, {"name": "StatefulPartitionedCall/model/block_9_project/Conv2D_bn_offset", "shape": [64], "dtype": "float32", "quantization": {"dtype": "uint8", "min": -5.8001695520737595, "scale": 0.04833474626728133, "original_dtype": "float32"}}, {"name": "StatefulPartitionedCall/model/block_10_expand/Conv2D_weights", "shape": [1, 1, 64, 384], "dtype": "float32", "quantization": {"dtype": "uint8", "min": -0.32358624514411477, "scale": 0.0024514109480614755, "original_dtype": "float32"}}, {"name": "StatefulPartitionedCall/model/block_16_expand/Conv2D_weights", "shape": [1, 1, 160, 960], "dtype": "float32", "quantization": {"dtype": "uint8", "min": -0.2308474568759694, "scale": 0.0019237288072997448, "original_dtype": "float32"}}, {"name": "StatefulPartitionedCall/model/block_10_expand/Conv2D_bn_offset", "shape": [384], "dtype": "float32", "quantization": {"dtype": "uint8", "min": -1.3677558870876536, "scale": 0.015368043675142176, "original_dtype": "float32"}}, {"name": "StatefulPartitionedCall/model/block_10_depthwise/depthwise_weights", "shape": [3, 3, 384, 1], "dtype": "float32", "quantization": {"dtype": "uint8", "min": -3.7890302358889114, "scale": 0.025429733126771218, "original_dtype": "float32"}}, {"name": "StatefulPartitionedCall/model/block_10_depthwise/depthwise_bn_offset", "shape": [384], "dtype": "float32", "quantization": {"dtype": "uint8", "min": -4.806799877391142, "scale": 0.044507406272140206, "original_dtype": "float32"}}, {"name": "StatefulPartitionedCall/model/block_10_project/Conv2D_weights", "shape": [1, 1, 384, 96], "dtype": "float32", "quantization": {"dtype": "uint8", "min": -0.9996962035403533, "scale": 0.007749582973181033, "original_dtype": "float32"}}, {"name": "StatefulPartitionedCall/model/block_16_expand/Conv2D_bn_offset", "shape": [960], "dtype": "float32", "quantization": {"dtype": "uint8", "min": -1.3731055960935703, "scale": 0.015256728845484116, "original_dtype": "float32"}}, {"name": "StatefulPartitionedCall/model/block_10_project/Conv2D_bn_offset", "shape": [96], "dtype": "float32", "quantization": {"dtype": "uint8", "min": -14.786854553222655, "scale": 0.10872687171487247, "original_dtype": "float32"}}, {"name": "StatefulPartitionedCall/model/block_11_expand/Conv2D_weights", "shape": [1, 1, 96, 576], "dtype": "float32", "quantization": {"dtype": "uint8", "min": -0.17622959543676936, "scale": 0.0013350726927027982, "original_dtype": "float32"}}, {"name": "StatefulPartitionedCall/model/block_11_expand/Conv2D_bn_offset", "shape": [576], "dtype": "float32", "quantization": {"dtype": "uint8", "min": -1.6296674064561432, "scale": 0.01381074073267918, "original_dtype": "float32"}}, {"name": "StatefulPartitionedCall/model/block_11_depthwise/depthwise_weights", "shape": [3, 3, 576, 1], "dtype": "float32", "quantization": {"dtype": "uint8", "min": -3.2836244919720823, "scale": 0.03157331242280848, "original_dtype": "float32"}}, {"name": "StatefulPartitionedCall/model/block_11_depthwise/depthwise_bn_offset", "shape": [576], "dtype": "float32", "quantization": {"dtype": "uint8", "min": -6.7866169088027055, "scale": 0.04917838339712106, "original_dtype": "float32"}}, {"name": "StatefulPartitionedCall/model/block_11_project/Conv2D_weights", "shape": [1, 1, 576, 96], "dtype": "float32", "quantization": {"dtype": "uint8", "min": -1.2003089586893718, "scale": 0.010086629904952705, "original_dtype": "float32"}}, {"name": "StatefulPartitionedCall/model/block_16_depthwise/depthwise_weights", "shape": [3, 3, 960, 1], "dtype": "float32", "quantization": {"dtype": "uint8", "min": -20.09079143299776, "scale": 0.0999541862338197, "original_dtype": "float32"}}, {"name": "StatefulPartitionedCall/model/block_11_project/Conv2D_bn_offset", "shape": [96], "dtype": "float32", "quantization": {"dtype": "uint8", "min": -14.521919370165058, "scale": 0.09191088208965227, "original_dtype": "float32"}}, {"name": "StatefulPartitionedCall/model/block_12_expand/Conv2D_weights", "shape": [1, 1, 96, 576], "dtype": "float32", "quantization": {"dtype": "uint8", "min": -0.1979255728861865, "scale": 0.0016916715631297991, "original_dtype": "float32"}}, {"name": "StatefulPartitionedCall/model/block_12_expand/Conv2D_bn_offset", "shape": [576], "dtype": "float32", "quantization": {"dtype": "uint8", "min": -2.082563938814051, "scale": 0.016931414136699602, "original_dtype": "float32"}}, {"name": "StatefulPartitionedCall/model/block_16_depthwise/depthwise_bn_offset", "shape": [960], "dtype": "float32", "quantization": {"dtype": "uint8", "min": -15.290045304391898, "scale": 0.10261775372075099, "original_dtype": "float32"}}, {"name": "StatefulPartitionedCall/model/block_12_depthwise/depthwise_weights", "shape": [3, 3, 576, 1], "dtype": "float32", "quantization": {"dtype": "uint8", "min": -8.138786241119982, "scale": 0.08304883919510186, "original_dtype": "float32"}}, {"name": "StatefulPartitionedCall/model/block_12_depthwise/depthwise_bn_offset", "shape": [576], "dtype": "float32", "quantization": {"dtype": "uint8", "min": -11.536820086310891, "scale": 0.06867154813280292, "original_dtype": "float32"}}, {"name": "StatefulPartitionedCall/model/block_12_project/Conv2D_weights", "shape": [1, 1, 576, 96], "dtype": "float32", "quantization": {"dtype": "uint8", "min": -5.4474078533696195, "scale": 0.047368763942344516, "original_dtype": "float32"}}, {"name": "StatefulPartitionedCall/model/block_12_project/Conv2D_bn_offset", "shape": [96], "dtype": "float32", "quantization": {"dtype": "uint8", "min": -20.23733053768382, "scale": 0.12046030081954656, "original_dtype": "float32"}}, {"name": "StatefulPartitionedCall/model/block_13_expand/Conv2D_weights", "shape": [1, 1, 96, 576], "dtype": "float32", "quantization": {"dtype": "uint8", "min": -0.19163783233539733, "scale": 0.001508959309727538, "original_dtype": "float32"}}, {"name": "StatefulPartitionedCall/model/block_13_expand/Conv2D_bn_offset", "shape": [576], "dtype": "float32", "quantization": {"dtype": "uint8", "min": -2.7982186555862425, "scale": 0.017598859469095864, "original_dtype": "float32"}}, {"name": "StatefulPartitionedCall/model/block_16_project/Conv2D_weights", "shape": [1, 1, 960, 320], "dtype": "float32", "quantization": {"dtype": "uint8", "min": -0.5320496529925103, "scale": 0.004000373330770754, "original_dtype": "float32"}}, {"name": "StatefulPartitionedCall/model/block_13_depthwise/depthwise_weights", "shape": [3, 3, 576, 1], "dtype": "float32", "quantization": {"dtype": "uint8", "min": -1.5436300894793342, "scale": 0.01354061481999416, "original_dtype": "float32"}}, {"name": "StatefulPartitionedCall/model/block_13_depthwise/depthwise_bn_offset", "shape": [576], "dtype": "float32", "quantization": {"dtype": "uint8", "min": -2.3215450960047104, "scale": 0.02901931370005888, "original_dtype": "float32"}}, {"name": "StatefulPartitionedCall/model/block_13_project/Conv2D_weights", "shape": [1, 1, 576, 160], "dtype": "float32", "quantization": {"dtype": "uint8", "min": -0.890416764278038, "scale": 0.006694862889308556, "original_dtype": "float32"}}, {"name": "StatefulPartitionedCall/model/block_13_project/Conv2D_bn_offset", "shape": [160], "dtype": "float32", "quantization": {"dtype": "uint8", "min": -21.86148131127451, "scale": 0.1707928227443321, "original_dtype": "float32"}}]}]}